update_test_lstm/output risk score file/predict output/daily_predict_4_day_avg/checkpoint_0801.tar (torch_old, 311354 bytes, 21 tensors)

lstm.weight_ih_l0 f4 [256, 26]
0.043045487 -0.00628782 0.040528093 -0.061574712 0.13032962 0.07064622 -0.2265523 0.0059449384
0.086382866 0.01064418 -0.20639567 -0.09174453 -0.14742109 -0.112699576 -0.063130386 0.12242662
-0.027368987 0.040491704 -0.047098175 0.14944687 0.14350231 0.019166512 -0.0931841 0.17123891
0.07132847 0.09814195 0.035170395 0.037023574 0.07300014 0.1566761 0.2102097 0.06958109
-0.20526816 -0.19758408 -0.40087122 -0.12492792 -0.25386328 0.27600807 -0.2622846 -0.016735844
-0.04490371 0.07797894 -0.023518037 -0.09565664 0.011025866 0.12813099 -0.07792265 0.041440308
-0.046218723 -0.014610963 -0.039524276 0.007690704 0.1103666 0.0047505996 -0.0021329045 0.13622315
0.05347912 -0.105709985 -0.1409075 0.102537446 -0.08090835 -0.030915484 -0.18853462 0.06768684
-0.046580955 0.24620502 -0.028375573 0.33977845 -0.062350307 0.027817715 -0.07758188 0.17420103
0.11304547 0.082613535 0.057530157 0.018160878 -0.07080289 -0.03798172 0.14248815 -0.13172343
0.038471185 -0.23974454 -0.030512076 -0.048656013 -0.09358201 0.25756294 0.19096082 0.2771586
-0.0036144904 0.08912502 0.4197908 0.063930005 -0.048523728 0.06496949 0.08504542 0.043355912
-0.017280806 0.18138982 0.114646286 0.06952118 -0.020781087 -0.035112187 -0.066790886 -0.07344993
-0.13042799 0.12042325 0.12810875 0.008460219 -0.048309643 -0.069945276 0.035804234 0.10368978
0.045891568 -0.13822691 -0.08527941 -0.27737212 -0.23422912 0.13203134 -0.05186758 0.06322481
-0.031959146 0.10736366 -0.11271539 -0.09080309 0.06844306 0.0917258 -0.05312642 -0.064670816
0.065099895 0.1195359 0.1088031 0.033872146 0.113312036 -0.07039101 -0.13163076 0.075700946
0.021772312 -0.0902089 0.09796895 -0.036418583 0.16879617 0.02383747 -0.15365933 0.23674725
-0.04478304 0.1262293 0.0164016 0.08143983 0.0018600725 -0.03383639 -0.03818405 0.02779989
-0.060175687 0.120405346 0.06508534 0.086627565 -0.08336726 0.050095372 -0.04809349 0.061769094
-0.0394302 0.13744205 -0.00831876 0.25388613 0.14116547 0.09082991 0.1274871 0.14956853
0.20524116 0.24051873 0.1963233 -0.25725788 0.09755478 -0.017598506 0.07792601 0.22447732
-0.0031269807 0.02345543 -0.026600795 -0.020496447 0.12111772 0.0724088 -0.12272679 0.006217498
0.008136346 -0.20259687 0.06836589 -0.061973322 -0.0314479 -0.14828585 0.19938312 -0.020318698
0.029350137 -0.3355934 0.043764662 0.27313852 -0.0009105692 -0.19507472 -0.0909012 0.09415267
-0.088967815 -0.0032448974 -0.0012316523 0.010056075 0.0068241125 0.041608773 0.053152412 -0.06918706
0.09456623 -0.0025942791 0.06926171 -0.11229803 -0.08821588 -0.11211287 -0.08137458 0.27487496
0.079793125 0.060724404 -0.14547186 -0.07129225 -0.05848613 -0.053042687 0.046637956 -0.09801287
-0.14339699 0.12743849 0.10956141 0.3074058 0.111057624 0.047714274 0.10014421 0.020166727
0.0020842212 -0.044479385 0.041065935 0.053251494 -0.25719503 0.050133772 -0.015584949 0.07493156
0.07907373 -0.12660322 0.047028713 0.11787895 0.13912544 -0.033264175 -0.056292824 -0.07819325
-0.026973534 -0.043917466 0.10134743 -0.0794822 -0.04649123 0.010923264 -0.030652693 -0.08591623
00000000: 7750 303d 0f0a cebb c900 263d c435 7cbd
00000010: 2175 053e f7ae 903d 53fd 67be c2cd c23b
00000020: 80e9 b03d ed64 2e3c 6359 53be 8ee4 bbbd
00000030: 8ef5 16be 09cf e6bd 814a 81bd cfba fa3d
00000040: ed34 e0bc a1da 253d 04ea 40bd 9a08 193e
00000050: 45f2 123e 1703 9d3c 4ed7 bebd 4159 2f3e
00000060: a914 923d a6fe c83d d50e 103d 08a6 173d
00000070: 1981 953d b36f 203e 3641 573e 8880 8e3d
00000080: d131 52be 7b53 4abe fe3e cdbe 36da ffbd
00000090: 5efa 81be ee50 8d3e 2b4a 86be 9c19 89bc
000000a0: f4ec 37bd 6cb3 9f3d e6a8 c0bc a1e7 c3bd
000000b0: d5a5 343c c534 033e e995 9fbd 50bd 293d
000000c0: d84f 3dbd d262 6fbc 35e4 21bd 4d02 fc3b
000000d0: e207 e23d ebaa 9b3b 33c8 0bbb 157e 0b3e
000000e0: ec0c 5b3d 7a7e d8bd 0e4a 10be 27ff d13d
000000f0: 47b3 a5bd 7842 fdbc 380f 41be 669f 8a3d
00000100: accb 3ebd 2b1d 7c3e e473 e8bc 71f7 ad3e
00000110: 0963 7fbd fae1 e33c 40e3 9ebd c161 323e
00000120: 6284 e73d 4931 a93d bea4 6b3d 1fc6 943c
00000130: 1b01 91bd b892 1bbd 6ae8 113e 82e2 06be
00000140: f693 1d3d 987f 75be 76f4 f9bc 874b 47bd
00000150: eda7 bfbd 4adf 833e 3c8b 433e bbe7 8d3e
00000160: 16e1 6cbb 2e87 b63d d2ee d63e bced 823d
00000170: d1c0 46bd b90e 853d 4b2c ae3d f895 313d
00000180: 7a90 8dbc 41be 393e accb ea3d 1f61 8e3d
00000190: 193d aabc ccd1 0fbd a9c9 88bd eb6c 96bd
000001a0: ea8e 05be 77a0 f63d f12e 033e bb9c 0a3c
000001b0: 55e0 45bd 783f 8fbd 76a7 123d 4f5b d43d
000001c0: ccf8 3b3d 5b8b 0dbe f9a6 aebd b803 8ebe
000001d0: c2d9 6fbe 3933 073e 1973 54bd 027c 813d
000001e0: 98e7 02bd 7be1 db3d 54d7 e6bd f8f6 b9bd
000001f0: e02b 8c3d bcda bb3d 179b 59bd 2272 84bd
00000200: 1853 853d 3dcf f43d 29d4 de3d 85bd 0a3d
00000210: 2410 e83d 2929 90bd 37ca 06be 1909 9b3d
00000220: d95b b23c 72bf b8bd f2a3 c83d a72b 15bd
00000230: e7d8 2c3e cc46 c33c df58 1dbe df6d 723e
00000240: 6c6e 37bd 4142 013e a65c 863c edc9 a63d
00000250: adcd f33a 0798 0abd e166 1cbd 98bc e33c
00000260: c87a 76bd 1497 f63d 764b 853d cb69 b13d
00000270: 74bc aabd ce30 4d3d aefd 44bd 9701 7d3d
00000280: 9081 21bd 9cbd 0c3e 694b 08bc 5dfd 813e
00000290: ae8d 103e 0805 ba3d fa8b 023e 7e28 193e
000002a0: bd2a 523e 8b4a 763e fa08 493e 4eb7 83be
000002b0: cdca c73d be2a 90bc ac97 9f3d 62dd 653e
000002c0: 08ee 4cbb 9a25 c03c e9e9 d9bc 2ae8 a7bc
000002d0: 910c f83d 114b 943d 2f58 fbbd 27bc cb3b
000002e0: 4f4e 053c 8e75 4fbe 6a03 8c3d bdd7 7dbd
000002f0: 83cf 00bd 3fd8 17be 172b 4c3e 6673 a6bc
00000300: b36f f03c e6d2 abbe 9342 333d d0d8 8b3e
00000310: 44b3 6eba abc1 47be 692a babd 1dd3 c03d
00000320: c234 b6bd 58a8 54bb 656f a1ba 3cc2 243c
00000330: ce9c df3b f66d 2a3d 58b6 593d f2b1 8dbd
00000340: f1ab c13d c804 2abb 15d9 8d3d 82fc e5bd
00000350: 87aa b4bd 6f9b e5bd b7a7 a6bd 69bc 8c3e
00000360: 946a a33d 27ba 783d 93f6 14be ac01 92bd
00000370: 278f 6fbd 4a43 59bd 7107 3f3d f9ba c8bd
00000380: a9d6 12be 3c7f 023e bc61 e03d 4b64 9d3e
00000390: 2e72 e33d 0b70 433d 6818 cd3d b134 a53c
000003a0: 6e97 083b 0430 36bd c134 283d 3d1e 5a3d
000003b0: 11af 83be 1259 4d3d 0458 7fbc b875 993d
000003c0: 68f1 a13d 46a4 01be 2ea1 403d 856a f13d
000003d0: e676 0e3e 0440 08bd 4e93 66bd c823 a0bd
000003e0: 9af7 dcbc cde2 33bd 3e8f cf3d 90c7 a2bd
000003f0: 976d 3ebd 7df7 323c 5b1b fbbc d9f4 afbd

lstm.weight_hh_l0 f4 [256, 64]
-0.0019531548 -0.04488316 -0.07419495 -0.07602395 0.08512847 0.04810275 -0.07412866 0.053678557
0.039616153 0.10985501 -0.017257243 -0.092946574 0.01714988 0.00044551492 0.08954111 0.07322055
-0.01952143 -0.107758194 -0.08970079 0.012975916 0.021331444 0.06746487 0.087961555 0.086890206
-0.04211718 0.04430805 -0.03655602 -0.06118451 0.124333024 -0.10782623 0.09681879 0.12181264
0.040000662 -0.06651753 -0.026125118 0.020201862 0.049533427 -0.031268194 0.09173997 -0.11607216
0.09630118 -0.038648233 0.10906157 -0.09753844 0.091325834 -0.0081706345 -0.12272376 0.028737918
-0.062457055 0.026587829 0.083038926 -0.048324436 0.044888273 0.076408625 0.0047132075 0.10978024
-0.008386612 0.09903996 0.078022674 -0.09157528 -0.065550774 -0.11080895 -0.07584724 0.11423221
0.107792735 -0.06923485 -0.067527175 -0.016395241 -0.07427345 -0.10861686 -0.11470935 -0.0087893605
-0.04150054 -0.02820845 0.08369984 -0.08995107 0.11156304 0.121635646 -0.013673902 0.032385334
-0.069371 0.029318929 0.07293059 0.0445244 -0.106971815 0.07841873 -0.05519657 0.0050216466
-0.06184706 0.074520975 -0.1213174 0.031623513 0.024846554 0.02903147 0.07258789 -0.06630471
0.10489173 0.014213592 -0.019267336 0.03430891 0.10612546 0.0057450384 -0.08630721 -0.09065652
0.058528572 0.026121542 -0.045988485 0.030557007 -0.06762923 -0.11791229 -0.022594884 0.052064493
-0.025895298 0.10916299 0.07749613 -0.06553154 0.05078572 0.01223278 0.12125778 -0.11307928
0.0056985617 -0.041559696 0.010340571 0.08842619 -0.0051814765 -0.08728728 -0.060046434 0.03396824
0.006943047 0.112960964 0.09700002 0.090325564 0.056338996 0.06289604 0.09156808 -0.12370926
-0.024680719 -0.102151036 -0.0023832768 0.08446616 0.038401812 0.10244192 -0.028538704 0.11322786
0.10866548 -0.014991298 0.09325962 -0.010214314 -0.08174014 0.09565486 -0.109172896 0.07921684
-0.02326025 0.075946614 0.10996039 0.02605687 0.06375076 -0.050311252 0.072124794 0.11011362
-0.061908305 -0.07731557 -0.06185378 0.07564239 -0.017169341 -0.013400599 0.082040384 -0.08008294
-0.028654799 -0.06515369 0.034344792 -0.028076097 -0.08646871 -0.020191431 0.111811355 0.047400236
0.096851215 0.04409048 -0.06500894 -0.0369554 -0.07734826 -0.07442738 -0.005176455 0.012058243
-0.07808559 0.09329946 -0.03747438 -0.020699754 0.12380843 0.047023997 -0.030230224 -0.05108455
0.029103443 0.07045072 0.06755781 0.030292988 0.08177422 0.009789497 -0.12120286 -0.032498345
0.024471194 0.028655663 0.0022011101 0.01658389 0.115772486 -0.05144015 -0.07841742 -0.09008673
-0.104935065 -0.094062924 0.07701616 -0.046412334 -0.005843565 -0.087880924 0.033780307 -0.10805045
0.030263335 -0.11805096 0.087023795 -0.004005909 -0.00090168417 -0.051011965 -0.12144618 0.11252993
-0.04433918 -0.023278296 -0.08204007 0.052784264 0.070229724 -0.11600909 0.03455837 -0.052623987
-0.044645697 0.025410175 0.05314052 -0.08498284 -0.089001805 0.10364373 0.051423922 -0.11398789
0.023469523 0.03562951 0.0706999 0.10926704 -0.06162478 -0.032762155 -0.034771502 0.053469047
0.034724385 0.11481179 0.0512494 -0.09698853 0.005979687 0.101261675 0.10685563 0.09834862
00000000: 8000 00bb 68d7 37bd 86f3 97bd 72b2 9bbd
00000010: d657 ae3d 6407 453d c4d0 97bd 0cde 5b3d
00000020: 8c44 223d aafb e03d 105f 8dbc c65a bebd
00000030: e87d 8c3c 0094 e939 5461 b73d a8f4 953d
00000040: 68eb 9fbc 54b0 dcbd 0cb5 b7bd f098 543c
00000050: 48bf ae3c 062b 8a3d 3025 b43d 7ef3 b13d
00000060: 1083 2cbd 5c7c 353d c4bb 15bd 9c9c 7abd
00000070: 50a2 fe3d 00d4 dcbd ee48 c63d e878 f93d
00000080: bcd7 233d 583a 88bd 5804 d6bc 607e a53c
00000090: 90e3 4a3d 1413 00bd 2ae2 bb3d 3eb7 edbd
000000a0: 8e39 c53d 9c4d 1ebd ac5b df3d 3cc2 c7bd
000000b0: 0a09 bb3d 20de 05bc 9856 fbbd c86b eb3c
000000c0: f8d2 7fbd b8ce d93c 5010 aa3d d8ef 45bd
000000d0: c4dc 373d 207c 9c3d 4071 9a3b 76d4 e03d
000000e0: 0068 09bc 76d5 ca3d 5aca 9f3d d28b bbbd
000000f0: 7c3f 86bd ceef e2bd cc55 9bbd 94f2 e93d
00000100: 70c2 dc3d 00cb 8dbd b04b 8abd 504f 86bc
00000110: ae1c 98bd 8472 debd bcec eabd 4001 10bc
00000120: 78fc 29bd 6815 e7bc d26a ab3d 4438 b8bd
00000130: 2a7b e43d 1c1c f93d 8008 60bc 7ca6 043d
00000140: 6212 8ebd 402e f03c a25c 953d 385f 363d
00000150: 0a14 dbbd 009a a03d cc15 62bd a08c a43b
00000160: 5853 7dbd 749e 983d 4275 f8bd a887 013d
00000170: 008b cb3c 68d3 ed3c f6a8 943d c4ca 87bd
00000180: 7ad1 d63d 20e0 683c 88d6 9dbc 8087 0c3d
00000190: 4e58 d93d e040 bc3b d6c1 b0bd 20aa b9bd
000001a0: a8bb 6f3d d8fc d53c 6c5e 3cbd b052 fa3c
000001b0: 3281 8abd 007c f1bd e818 b9bc 9441 553d
000001c0: 6022 d4bc d890 df3d 4ab6 9e3d 6635 86bd
000001d0: b004 503d 006c 483c 0056 f83d 1c96 e7bd
000001e0: 00bb ba3b 803a 2abd 806b 293c ca18 b53d
000001f0: 60c9 a9bb acc3 b2bd 40f3 75bd 4822 0b3d
00000200: 8082 e33b 1458 e73d f2a7 c63d 9cfc b83d
00000210: b8c3 663d a4cf 803d 0c88 bb3d 485b fdbd
00000220: 382f cabc 9034 d1bd c030 1cbb 98fc ac3d
00000230: 384b 1d3d 12cd d13d 00ca e9bc 02e4 e73d
00000240: 028c de3d 109e 75bc e6fe be3d f059 27bc
00000250: 6067 a7bd b2e6 c33d 0a96 dfbd 703c a23d
00000260: 488c bebc e689 9b3d ea32 e13d 3875 d53c
00000270: c28f 823d 2c13 4ebd 2ab6 933d 4083 e13d
00000280: 9093 7dbd a057 9ebd 645a 7dbd 66ea 9a3d
00000290: b8a6 8cbc 308e 5bbc ca04 a83d 8602 a4bd
000002a0: 78bd eabc 4c6f 85bd 20ad 0c3d d8ff e5bc
000002b0: 8216 b1bd 8068 a5bc 5afd e43d c026 423d
000002c0: ee59 c63d 3898 343d 6823 85bd 8c5e 17bd
000002d0: c468 9ebd 626d 98bd 409f a9bb f08f 453c
000002e0: 56eb 9fbd ca13 bf3d bc7e 19bd 8892 a9bc
000002f0: 468f fd3d 3c9c 403d 60a5 f7bc 083e 51bd
00000300: 586a ee3c 7848 903d c05b 8a3d 0029 f83c
00000310: 3e79 a73d 2064 203c 3439 f8bd fc1c 05bd
00000320: d077 c83c 48bf ea3c 8040 103b f0da 873c
00000330: 201a ed3d e8b2 52bd 5099 a0bd 647f b8bd
00000340: 32e8 d6bd 10a4 c0bd a6ba 9d3d dc1a 3ebd
00000350: 607b bfbb eafa b3bd 385d 0a3d 8e49 ddbd
00000360: d0ea f73c b4c4 f1bd 8839 b23d 0044 83bb
00000370: 005f 6cba ecf1 50bd c6b8 f8bd 1876 e63d
00000380: 009d 35bd 20b2 bebc a004 a8bd 5034 583d
00000390: 9ad4 8f3d 2c96 edbd 148d 0d3d 408c 57bd
000003a0: 68de 36bd 0029 d03c e0a9 593d 7c0b aebd
000003b0: 9446 b6bd 2a43 d43d e4a1 523d 7c72 e9bd
000003c0: 2843 c03c 40f0 113d 1ccb 903d 66c7 df3d
000003d0: 446a 7cbd 9c31 06bd 906c 0ebd 5c02 5b3d
000003e0: 283b 0e3d 7222 eb3d e4ea 513d eca1 c6bd
000003f0: 40f1 c33b 4862 cf3d 20d7 da3d 006b c93d

lstm.bias_ih_l0 f4 [256]
-0.07360906 -0.043175556 -0.052794848 -0.10263094 0.06967268 0.12294787 -0.042582493 -0.04958179
-0.055075046 0.062836066 0.008312837 0.079407915 0.0095386105 0.12454934 -0.12109006 0.11302377
-0.0034128753 0.14725745 -0.045538444 -0.10260715 -0.065087885 0.056784928 -0.13206138 0.1236114
-0.035665102 -0.12730186 -0.013650272 0.06423335 -0.14332089 0.046862524 -0.02361337 0.075274974
0.0424425 0.029769065 -0.08325197 -0.0001247142 -0.07186498 0.01829633 -0.13112815 0.1235173
0.016071592 -0.029238867 -0.053199086 -0.09111567 -0.019545542 -0.035896245 0.113890834 0.075033635
-0.07543111 -0.11688258 -0.00257623 0.15613362 0.036647152 0.119171105 0.02347058 0.06810238
0.11869947 -0.09303338 -0.081021555 0.026359605 -0.16717881 0.12329137 -0.011698444 0.036626276
-0.04866132 -0.032663792 -0.045208663 0.071662515 -0.0011436045 -0.076494485 0.058349594 0.07112093
0.09225781 -0.070038766 -0.0017623156 0.015789688 0.046093255 -0.072714075 0.11424899 -0.11471498
0.075947925 -0.09667459 -0.051104233 0.018104196 -0.037254542 -0.06654404 0.11264546 -0.08554791
0.013411477 -0.028185934 0.0841347 -0.115558654 0.09711653 0.039461374 0.09026304 -0.0044615716
0.07368152 0.09785724 0.044731066 0.049570456 -0.003436014 -0.09309058 0.09318575 -0.042773455
0.08280736 0.026801229 0.037018582 0.036439344 0.016687617 0.06877969 0.1169586 -0.006632462
-0.11748573 -0.04772821 -0.05352874 0.06825456 -0.0052283257 0.050792366 0.06896506 0.03764604
-0.0057056546 0.0053394735 -0.056860447 -0.07586059 0.059538558 0.050140053 -0.07348488 -0.081892475
-0.1230571 0.13506587 -0.08207615 0.17144401 -0.093065456 -0.040036675 -0.12620977 -0.07043753
0.04485428 0.18269521 0.05745773 0.0017754898 0.09344 0.025939979 0.09995734 0.07847419
0.016168138 0.07518417 0.04763662 -0.025577115 -0.014291062 -0.16929778 -0.04613742 0.058889773
-0.038391862 -0.08005355 -0.1520658 0.12791799 0.0389752 0.0077444282 -0.017828882 0.08974881
-0.024005 -0.1424252 -0.1612149 0.13406217 0.052828085 -0.15036921 -0.13943858 -0.09803245
0.10632789 0.1407942 -0.122716114 0.00046931935 0.08926847 -0.06609857 -0.0936923 -0.065622374
-0.13557537 -0.04114858 0.10990883 -0.19081827 -0.06429513 -0.032165345 -0.016620865 0.024909819
-0.062308785 -0.033106167 0.113100134 0.12161997 -0.1660218 0.046951957 0.078969456 0.096692644
0.122758195 -0.10054718 -0.02159128 -0.13497904 0.1647347 0.08265656 -0.18087642 0.050565504
-0.11151746 -0.013165217 0.053725965 -0.06658278 -0.022466045 -0.046000853 -0.08438807 -0.07702021
-0.06189978 0.10312314 -0.032710414 0.016496506 -0.027641635 -0.12131398 -0.046589598 0.013025855
0.08666791 -0.13734262 -0.0092168115 0.037512705 -0.04397912 0.006183613 0.0074583404 -0.017611206
-0.081508204 -0.10899349 -0.065948784 0.06991909 0.08734827 -0.13726759 0.10600462 0.122240216
-0.14009888 -0.02539249 -0.11534028 -0.12795006 -0.00505481 -0.0052699503 0.034556597 0.019741744
-0.082964785 -0.09265069 -0.023929533 0.10102087 0.10623814 0.04176704 -0.24839096 -0.0002896873
-0.08565638 -0.20721859 -0.10945054 -0.065471046 -0.124168135 0.023871683 0.14681643 -0.07413496
00000000: 59c0 96bd dad8 30bd 693f 58bd 2c30 d2bd
00000010: 8db0 8e3d 18cc fb3d fb6a 2ebd 4616 4bbd
00000020: 5f96 61bd 32b0 803d 9132 083c 9ea0 a23d
00000030: d547 1c3c b913 ff3d 11fe f7bd 0279 e73d
00000040: 8caa 5fbb a8ca 163e 8586 3abd b323 d2bd
00000050: cc4c 85bd 5097 683d 193b 07be f927 fd3d
00000060: 9215 12bd 6b5b 02be 64a5 5fbc c68c 833d
00000070: b6c2 12be ebf2 3f3d d370 c1bc c429 9a3d
00000080: 30d8 2d3d 41de f33c 0280 aabd b7c5 02b9
00000090: f22d 93bd 2fe2 953c 7546 06be a3f6 fc3d
000000a0: 92a8 833c 5986 efbc 49e7 59bd da9a babd
000000b0: f91d a0bc f107 13bd 993f e93d 3cab 993d
000000c0: a07b 9abd 2260 efbd f8d5 28bb 7ee1 1f3e
000000d0: 531b 163d fb0f f43d 6045 c03c 4379 8b3d
000000e0: b518 f33d 4988 bebd a1ee a5bd 19f0 d73c
000000f0: ec30 2bbe 3080 fc3d d5aa 3fbc 6f05 163d
00000100: 1851 47bd 78ca 05bd b82c 39bd ccc3 923d
00000110: 00e5 95ba 24a9 9cbd fcff 6e3d daa7 913d
00000120: aaf1 bc3d 7c70 8fbd 80fd e6ba 6059 813c
00000130: 48cc 3c3d 1eeb 94bd 60fb e93d b0ef eabd
00000140: 968a 9b3d 54fd c5bd ac52 51bd 404f 943c
00000150: 3898 18bd 3e48 88bd aab2 e63d be33 afbd
00000160: d0bb 5b3c 30e6 e6bc d04e ac3d 04aa ecbd
00000170: 08e5 c63d 40a2 213d d4db b83d 6032 92bb
00000180: 56e6 963d 6069 c83d ec37 373d 640a 4b3d
00000190: c02e 61bb 46a6 bebd 2cd8 be3d 3833 2fbd
000001a0: e896 a93d 408e db3c cca0 173d 6c41 153d
000001b0: 78b4 883c 5edc 8c3d fe87 ef3d 2055 d9bb
000001c0: 5c9c f0bd a87e 43bd f440 5bbd 0cc9 8b3d
000001d0: 6052 abbb a80b 503d 8e3d 8d3d bc32 1a3d
000001e0: 80f6 babb c0f6 ae3b 80e6 68bd cc5c 9bbd
000001f0: b4de 733d a85f 4d3d 3e7f 96bd 3eb7 a7bd
00000200: 5c05 fcbd b54e 0a3e 8a17 a8bd 058f 2f3e
00000210: 1a99 bebd 7ffd 23bd 223d 01be 8d41 90bd
00000220: 1fb9 373d 7414 3b3e cc58 6b3d 8db7 e83a
00000230: 795d bf3d 1480 d43c 6fb6 cc3d 13b7 a03d
00000240: 0b73 843c 28fa 993d 9e1e 433d 1987 d1bc
00000250: 0f25 6abc 665c 2dbe 97fa 3cbd 6736 713d
00000260: c940 1dbd 1ef3 a3bd 23b7 1bbe effc 023e
00000270: 76a4 1f3d f9c4 fd3b e00d 92bc 39ce b73d
00000280: 22a6 c4bc e9d7 11be 8515 25be 9847 093e
00000290: 4362 583d 63fa 19be fdc8 0ebe 3dc5 c8bd
000002a0: 70c2 d93d 5b2c 103e 9652 fbbd fa0e f639
000002b0: 63d2 b63d b05e 87bd c0e1 bfbd 0665 86bd
000002c0: 45d4 0abe 6a8b 28bd e117 e13d dd65 43be
000002d0: 2aad 83bd cfbf 03bd 7b28 88bc ad0f cc3c
000002e0: 7f37 7fbd 559a 07bd 0ba1 e73d e413 f93d
000002f0: 9e01 2abe b250 403d bdba a13d cb06 c63d
00000300: a668 fb3d aeeb cdbd 32e0 b0bc f237 0abe
00000310: 37b0 283e d847 a93d ab37 39be c61d 4f3d
00000320: 4463 e4bd ecb2 57bc c20f 5c3d 8d5c 88bd
00000330: b60a b8bc 646b 3cbd a7d3 acbd c6bc 9dbd
00000340: a08a 7dbd 3a32 d33d 5bfb 05bd ae23 873c
00000350: b670 e2bc 7773 f8bd bcd4 3ebd 656a 553c
00000360: f27e b13d 8ba3 0cbe 1c02 17bc eca6 193d
00000370: 7323 34bd e89f ca3b 1865 f43b 6045 90bc
00000380: c6ed a6bd fb37 dfbd 2810 87bd bd31 8f3d
00000390: a6e3 b23d e08f 0cbe f318 d93d 1459 fa3d
000003a0: 1576 0fbe e903 d0bc 8637 ecbd 5705 03be
000003b0: d2a2 a5bb 8caf acbb 388b 0d3d 70b9 a13c
000003c0: 71e9 a9bd a5bf bdbd de07 c4bc 08e4 ce3d
000003d0: 6293 d93d ea13 2b3d 335a 7ebe 2ce1 97b9
000003e0: 9d6c afbd 1c31 54be 9b27 e0bd af15 86bd
000003f0: dd4b febd 8c8e c33c 0c57 163e 12d4 97bd

lstm.bias_hh_l0 f4 [256]
0.1123373 0.09847525 0.093072504 0.03641613 -0.05728718 -0.010698917 -0.048563037 -0.0037021816
-0.14418745 0.079642534 0.05044853 0.0061304336 0.01654361 -0.019469904 0.034908634 0.1289707
-0.06431883 0.0040140157 -0.11717571 -0.041706864 -0.07728957 -0.07073554 -0.10828494 0.026273625
-0.07627836 -0.06679529 0.090909995 0.19521587 -0.087533206 0.073014654 -0.10792079 0.11202842
0.025257077 -0.073450856 -0.10627838 0.06782533 -0.012578581 -0.034989472 0.049981564 -0.0048826486
0.018114321 0.0022948429 -0.089320004 0.005173785 -0.0064398167 -0.003259387 0.10356085 0.04939828
-0.047513835 -0.11680615 -0.111816734 0.0676886 0.007818964 0.10562018 -0.015991984 0.009066354
-0.01558258 -0.15496497 0.035978734 -0.14362313 -0.15871397 0.119344324 0.045701344 -0.013764679
0.015360802 -0.07062268 0.12074354 -0.06906435 -0.113616735 -0.10271329 -0.08815923 0.08517882
-0.034861445 -0.028261557 -0.049967825 0.07922287 -0.029701635 -0.07021083 0.12366967 0.042657375
0.09103802 -0.053255036 -0.09338656 0.0693873 0.10451558 -0.06900123 -0.07209669 0.020877063
0.032658234 -0.06009184 0.11746788 0.036396816 -0.113814846 -0.09766854 -0.014765099 -0.046707153
0.12379776 -0.052562833 -0.034301147 -0.052067474 0.12077561 0.024108231 0.059382528 -0.109705
0.08586858 0.07391925 -0.03506072 0.010807142 -0.018617675 0.047488913 -0.054587036 -0.05769947
0.07242249 0.10931425 0.102443695 -0.10894719 0.11181702 0.06988746 -0.06427075 0.055895656
-0.10169156 0.10538153 0.03328328 0.086322576 -0.09072794 0.08277492 -0.03126055 0.028994411
-0.0022133898 -0.06978017 0.018464362 0.031514186 -0.07686731 -0.11262287 -0.1392199 -0.12046866
0.067026064 0.03297424 -0.13014707 0.01460728 0.12903763 0.04054127 -0.04774193 -0.0064771227
-0.01874906 0.10232757 -0.09370348 -0.031192299 -0.076939784 -0.06981851 0.00871836 0.030180786
0.14290634 -0.027103279 0.07254654 -0.059002317 0.124756865 -0.0441009 0.035331257 -0.10840078
-0.015756512 0.0078796325 -0.14582856 0.04404149 0.07444659 -0.1120642 -0.11624279 -0.060813688
0.17100559 0.017890412 -0.11860278 -0.09520015 -0.1132429 -0.11479303 -0.054948933 0.036918815
-0.13374445 -0.07145735 0.10135738 -0.031169765 -0.07960363 0.12488488 -0.046634074 0.16737956
0.023816234 -0.06649681 0.032515634 0.08148208 -0.027027672 -0.14364867 2.667565e-05 0.022986408
-0.07849819 0.06065249 0.14366399 -0.10233882 0.10261272 0.091531396 -0.16311163 0.034492053
0.0058140694 0.046846163 0.056349568 0.026353342 -0.03216173 0.07382388 -0.03289204 0.00087438687
-0.10951636 0.06660353 0.06422394 -0.081130624 -0.13354827 0.011202507 0.10941983 0.09084685
0.1188429 -0.1709444 0.022977663 -0.0026398366 -0.008552698 0.100105464 -0.0999377 -0.034558073
-0.071789175 -0.04511937 0.069533035 -0.11589315 0.10685454 -0.039868448 0.06752258 -0.0039687967
-0.16782089 -0.15652318 0.07766931 -0.046150006 0.05182649 -0.018222522 0.06567693 0.1517934
0.15181838 -0.2054064 -0.058449745 -0.039529927 0.1255019 0.101528965 -0.07328508 -0.11795446
0.08889379 -0.03849001 -0.07582938 -0.08270517 -0.14744943 0.05758974 0.15411969 0.04246872
00000000: 1911 e63d 64ad c93d cc9c be3d 1429 153d
00000010: f6a5 6abd 834a 2fbc 09ea 46bd 4da0 72bb
00000020: e0a5 13be a01b a33d 1ea3 4e3d cee1 c83b
00000030: 7786 873c 597f 9fbc 5bfc 0e3d e510 043e
00000040: 97b9 83bd 0188 833b d2f9 efbd d1d4 2abd
00000050: fe49 9ebd cbdd 90bd 7fc4 ddbd c93b d73c
00000060: d437 9cbd f8cb 88bd 052f ba3d abe6 473e
00000070: 9c44 b3bd b588 953d 9305 ddbd 286f e53d
00000080: eee7 ce3c 676d 96bd 7ba8 d9bd 02e8 8a3d
00000090: 6516 4ebc 1f51 0fbd 78b9 4c3d a0fe 9fbb
000000a0: 7c64 943c 1365 163b 68ed b6bd db88 a93b
000000b0: 1905 d3bb 719b 55bb b617 d43d da55 4a3d
000000c0: de9d 42bd 1038 efbd 2c00 e5bd 52a0 8a3d
000000d0: 1d1b 003c 654f d83d 9f01 83bc 0b8b 143c
000000e0: 144e 7fbc 23af 1ebe 705e 133d f111 13be
000000f0: ea85 22be cc6a f43d 5531 3b3d 4085 61bc
00000100: e0ab 7b3c a0a2 90bd 6448 f73d 9c71 8dbd
00000110: e4af e8bd 585b d2bd d48c b4bd 3c72 ae3d
00000120: e0ca 0ebd c884 e7bc 10ab 4cbd 9a3f a23d
00000130: d850 f3bc b2ca 8fbd 8646 fd3d 80b9 2e3d
00000140: 2472 ba3d f421 5abd 7441 bfbd ee1a 8e3d
00000150: 440c d63d 8450 8dbd 6ea7 93bd 6006 ab3c
00000160: a4c4 053d dc22 76bd 0093 f03d d414 153d
00000170: c217 e9bd 7206 c8bd 50e9 71bc 0050 3fbd
00000180: ae89 fd3d 204c 57bd 5c7f 0cbd b444 55bd
00000190: 3459 f73d a07e c53c 183b 733d 04ad e0bd
000001a0: dedb af3d fa62 973d d49b 0fbd 7010 313c
000001b0: 1884 98bc bc83 423d a896 5fbd 4856 6cbd
000001c0: 3e52 943d 26e0 df3d 00ce d13d b41f dfbd
000001d0: 5200 e53d 2821 8f3d 62a0 83bd d8f2 643d
000001e0: aa43 d0bd 46d2 d73d 0c54 083d e4c9 b03d
000001f0: 92cf b9bd e685 a93d 100b 00bd b085 ed3c
00000200: 850e 11bb e8e8 8ebd 9342 973c 0515 013d
00000210: 9c6c 9dbd d2a6 e6bd a98f 0ebe 46b8 f6bd
00000220: f644 893d ff0f 073d 4645 05be 5f53 6f3c
00000230: 7122 043e 9a0e 263d 0b8d 43bd 0b3e d4bb
00000240: a197 99bc 1e91 d13d 9ce7 bfbd fe86 ffbc
00000250: 9b92 9dbd 02fd 8ebd 74d7 0e3c b23d f73c
00000260: 0a56 123e b207 debc 4893 943d 6aac 71bd
00000270: 8780 ff3d 25a3 34bd 82b7 103d 3a01 debd
00000280: cd13 81bc 9319 013c 1554 15be d964 343d
00000290: 7477 983d ea81 e5bd b310 eebd c617 79bd
000002a0: 171c 2f3e ea8e 923c 04e6 f2bd 4cf8 c2bd
000002b0: e5eb e7bd 9c18 ebbd 2212 61bd 2f38 173d
000002c0: 4ef4 08be 3b58 92bd 7594 cf3d bc57 ffbc
000002d0: 3a07 a3bd a5c3 ff3d 5f03 3fbd 8c65 2b3e
000002e0: 431a c33c 7b2f 88bd 1d2f 053d 14e0 a63d
000002f0: 2369 ddbc a318 13be 86c5 df37 fe4d bc3c
00000300: a9c3 a0bd bf6e 783d a71c 133e 0497 d1bd
00000310: 9e26 d23d d074 bb3d bc06 27be 8a47 0d3d
00000320: f383 be3b c3e1 3f3d cece 663d f7e2 d73c
00000330: 05bc 03bd f930 973d ceb9 06bd 1c37 653a
00000340: 1d4a e0bd 6e67 883d d787 833d d027 a6bd
00000350: e1c0 08be b88a 373c 8117 e03d ea0d ba3d
00000360: e863 f33d 0c0c 2fbe a73b bc3c 1c01 2dbb
00000370: 9e20 0cbc 1804 cd3d 23ac ccbd c48c 0dbd
00000380: 3406 93bd 17cf 38bd 5667 8e3d 6359 edbd
00000390: 8ed6 da3d 194d 23bd 4749 8a3d ae0c 82bb
000003a0: 3dd9 2bbe 9d47 20be 1611 9f3d ca07 3dbd
000003b0: 0348 543d 6647 95bc a081 863d bb6f 1b3e
000003c0: 4776 1b3e 0e56 52be 0069 6fbd 22ea 21bd
000003d0: 9283 003e 6bee cf3d 7d16 96bd 1c92 f1bd
000003e0: f30d b63d b3a7 1dbd 6f4c 9bbd 5461 a9bd
000003f0: fcfc 16be 38e3 6b3d 8dd1 1d3e aef3 2d3d

linear.weight f4 [32, 64]
0.0843385 -0.12268026 -0.10828712 0.13053322 0.13323656 -0.04950367 -0.03242279 0.09731146
0.022821428 -0.0065449905 -0.00783405 -0.020882403 0.06127622 0.038815133 -0.059854493 -0.11441233
0.07374891 0.042466532 -0.24723901 0.055292428 -0.2604272 0.025120515 -0.14847113 -0.060363676
0.045321643 0.017927026 -0.084654875 0.036693085 0.18016045 -0.115450256 0.16033892 -0.04538873
-0.034732003 0.0044188034 -0.13966106 0.057894476 -0.033116326 -0.1873636 -0.09945318 0.114465535
0.07149206 0.029550109 -0.19804639 -0.001177747 -0.042706117 0.15244456 -0.06759872 0.074198574
-0.07393008 -0.13583581 0.1402533 -0.06179744 -0.009382068 -0.10796003 -0.16011372 0.020801594
-0.1504925 -0.20662872 0.13373299 0.1835969 -0.12576336 0.11158084 -0.01066161 0.1517012
-0.09720144 0.2202452 0.16666631 -0.071591906 -0.07987319 0.056736693 0.062944986 0.08329754
-0.15743512 0.06645005 0.089703195 -0.19486752 -0.09527359 -0.10991105 0.04635664 0.043351572
-0.06195073 0.11005953 0.26261878 -0.11029365 0.25186273 -0.11599661 0.14019305 0.08939997
0.0010482217 0.20487894 -0.016066855 0.08879481 -0.09523302 0.048347283 -0.07127726 0.093069695
0.081450485 -0.024760444 0.029696943 0.012987752 0.047338683 0.09111151 0.20954263 -0.048205987
-0.08812208 -0.18401559 0.22615543 0.13717566 0.08456028 -0.002294399 0.012232553 -0.27084142
0.016580915 0.04214443 -0.084557004 -0.07444657 0.14715733 -0.06557473 0.23376465 0.06901359
0.041222733 0.041958164 -0.15730815 -0.1003845 0.15952463 0.039823145 0.020225517 -0.025587497
0.1262305 -0.12352098 -0.10286773 0.1924044 -0.029674279 0.17497747 -0.20227034 0.043104045
0.00807578 -0.004817082 -0.17712548 0.09949865 0.13827859 0.12409156 -0.104698256 0.07185647
0.15512843 -0.056285772 -0.22776346 0.019356895 -0.15310274 0.21077032 -0.16699055 -0.16058537
-0.0640648 -0.049244482 -0.05402877 -0.15514718 0.15055703 -0.057152823 -0.06583396 -0.100289635
-0.017462946 -0.03152658 0.017330863 0.064897016 -0.046736266 -0.05324136 -0.1005819 0.050734013
0.08181668 0.018540448 -0.25348595 -0.010466061 -0.1611188 0.1377651 -0.16235363 0.15581131
0.034013785 -0.07587707 0.021279693 -0.04039688 -0.1498266 -0.011370946 -0.10890607 -0.12543397
0.066872545 -0.08481848 0.098514676 9.76228e-05 -0.1910869 0.173916 -0.23141998 0.1770872
-0.15878607 0.07284987 0.035599094 -0.19670884 0.0069213742 -0.16063185 0.22267714 0.12721843
-0.14920537 -0.03837293 0.033118393 0.012195252 -0.06480053 -0.010611902 0.117444545 0.017701
-0.19049416 0.027633086 0.1890992 -0.09499498 0.060236104 -0.23092431 0.054115456 0.1221337
0.1399905 0.029371804 -0.0067372597 0.13376276 -0.012418099 0.1472434 -0.085745186 -0.0015510225
0.121681176 -0.099499315 -0.013581983 -0.039385393 0.04645484 0.06887992 0.052582957 -0.024060616
-0.18261136 -0.02360088 0.056722328 0.0097116465 0.13776492 -0.14361908 0.16862474 -0.0051433407
0.023514647 0.14776097 -0.22000962 0.021758754 0.15581152 -0.045336515 0.19062547 0.10469707
-0.07022803 0.084682584 -0.06958424 -0.067365184 0.119489655 0.029390777 0.20534857 -0.09648583
00000000: aab9 ac3d ca3f fbbd a3c5 ddbd 80aa 053e
00000010: 2a6f 083e 5cc4 4abd c2cd 04bd 3b4b c73d
00000020: 01f4 ba3c 5c77 d6bb 635a 00bc 9311 abbc
00000030: c6fc 7a3d 9efc 1e3d fc29 75bd 0351 eabd
00000040: ab09 973d 63f1 2d3d 392c 7dbe 507a 623d
00000050: b756 85be 8ac9 cd3c d108 18be e73f 77bd
00000060: 30a3 393d b3db 923c 895f adbd 7d4b 163d
00000070: fb7b 383e 2f71 ecbd e32f 243e 88e9 39bd
00000080: 2543 0ebd 9ccb 903b 4f03 0fbe c222 6d3d
00000090: fca4 07bd 3edc 3fbe 1cae cbbd e86c ea3d
000000a0: 6e6a 923d 1213 f23c accc 4abe a25e 9aba
000000b0: 9cec 2ebd 6d1a 1c3e 3371 8abd 6cf5 973d
000000c0: a768 97bd 8b18 0bbe 909e 0f3e 501f 7dbd
000000d0: 3fb7 19bc 261a ddbd daf4 23be 1b68 aa3c
000000e0: b51a 1abe 7b96 53be 4df1 083e d300 3c3e
000000f0: 1cc8 00be 7f84 e43d 09ae 2ebc 8f57 1b3e
00000100: 8c11 c7bd f587 613e 93aa 2a3e c79e 92bd
00000110: 8e94 a3bd bc64 683d 4de9 803d e797 aa3d
00000120: ac36 21be f716 883d 4fb6 b73d 5a8b 47be
00000130: cd1e c3bd 0b19 e1bd 76e0 3d3d 6b91 313d
00000140: 0cc0 7dbd e466 e13d f875 863e a3e1 e1bd
00000150: 27f4 803e a18f edbd c48e 0f3e 5517 b73d
00000160: 7c64 893a c9cb 513e a39e 83bc 0eda b53d
00000170: 8809 c3bd cd07 463d d0f9 91bd 539b be3d
00000180: 83cf a63d 6ad6 cabc 0147 f33c 95ca 543c
00000190: 35e6 413d ac98 ba3d 5892 563e a473 45bd
000001a0: 5979 b4bd 956e 3cbe 4a95 673e c777 0c3e
000001b0: f12d ad3d a15d 16bb 0c6b 483c baab 8abe
000001c0: b3d4 873c a39f 2c3d 392c adbd 7177 98bd
000001d0: 69b0 163e 0b4c 86bd 0060 6f3e ff56 8d3d
000001e0: 2bd9 283d 53dc 2b3d 6315 21be 6496 cdbd
000001f0: 6d5a 233e 981d 233d fcaf a53c df9c d1bc
00000200: 9142 013e 91f8 fcbd 51ac d2bd a905 453e
00000210: 7917 f3bc 4b2d 333e f51f 4fbe de8d 303d
00000220: 4750 043c 9dd8 9dbb 6260 35be f3c5 cb3d
00000230: e798 0d3e b723 fe3d 0a6c d6bd 7c29 933d
00000240: fdd9 1e3e e98b 66bd d33a 69be 5a92 9e3c
00000250: f7c6 1cbe 2dd4 573e 92ff 2abe 7e70 24be
00000260: 6834 83bd 95b4 49bd 464d 5dbd e7de 1ebe
00000270: 9f2b 1a3e 1419 6abd f5d3 86bd a764 cdbd
00000280: 740e 8fbc 0422 01bd 74f9 8d3c bae8 843d
00000290: 876e 3fbd 9d13 5abd e2fd cdbd 78ce 4f3d
000002a0: 818f a73d 23e2 973c e9c8 81be d779 2bbc
000002b0: 54fc 24be 4b12 0d3e 0840 26be 008d 1f3e
000002c0: 0a52 0b3d 7065 9bbd c052 ae3c 3377 25bd
000002d0: 256c 19be 344d 3abc 250a dfbd c371 00be
000002e0: 79f4 883d 50b5 adbd 10c2 c93d d7ba cc38
000002f0: 49ac 43be 0917 323e 5cf9 6cbe 5956 353e
00000300: d198 22be 5032 953d 5bd0 113d 0b6e 49be
00000310: b2cc e23b ad7c 24be 7a05 643e 8c45 023e
00000320: 4bc9 18be ef2c 1dbd 27a7 073d 98ce 473c
00000330: 24b6 84bd 8bdd 2dbc c486 f03d b001 913c
00000340: e710 43be c85e e23c 38a3 413e ba8c c2bd
00000350: 22ba 763d 6c77 6cbe 2ba8 5d3d 3c21 fa3d
00000360: ab59 0f3e 239d f03c 3bc4 dcbb 1bf9 083e
00000370: 4875 4bbc f9c6 163e 2c9b afbd ae4b cbba
00000380: fb33 f93d 4cc6 cbbd f786 5ebc 9452 21bd
00000390: 6e47 3e3d ea10 8d3d 3a61 573d c51a c5bc
000003a0: 79fe 3abe a256 c1bc ac55 683d 991d 1f3c
000003b0: 3f12 0d3e e110 13be f7ab 2c3e 7889 a8bb
000003c0: caa1 c03c a74e 173e 344a 61be 6a3f b23c
000003d0: 0e8d 1f3e c8b2 39bd 5333 433e 6b6b d63d
000003e0: b7d3 8fbd 106e ad3d 2f82 8ebd c2f6 89bd
000003f0: feb6 f43d edc4 f03c e546 523e 5d9a c5bd

linear.bias f4 [32]
-0.07957085 -0.017258927 0.04666276 0.096238256 0.09783725 0.03408496 0.005876286 0.013809082
0.12433816 -0.11604283 -0.05585283 -0.028928807 -0.14173335 0.068325885 0.03127316 -0.1378184
-0.09736477 -0.056708045 -0.01753875 0.07506626 -0.039612968 0.041612986 -0.14778627 0.01509453
-0.15343827 0.0019580608 -0.1594669 0.09712258 0.14717184 -0.0990161 0.060979083 0.017411191
00000000: 0bf6 a2bd 9862 8dbc 7321 3f3d 9018 c53d
00000010: e55e c83d ac9c 0b3d dc8d c03b 7d3f 623c
00000020: 01a5 fe3d dda7 edbd f0c5 64bd 1bfc ecbc
00000030: 8c22 11be 71ee 8b3d 4918 003d 4420 0dbe
00000040: 2e67 c7bd b246 68bd 6dad 8fbc 57bc 993d
00000050: 3541 22bd 6172 2a3d 4955 17be 0c4f 773c
00000060: ec1e 1dbe cf52 003b 4b4b 23be 34e8 c63d
00000070: 37b4 163e f4c8 cabd 34c5 793d eaa1 8e3c

linear1.weight f4 [1, 32]
-0.18828279 0.15980133 -0.22881818 0.29159576 0.16146179 -0.19245711 0.15945072 -0.30849683
0.28505746 -0.13518631 -0.2688561 -0.269645 -0.15990517 -0.2423703 -0.21781828 -0.23833469
-0.30723897 -0.2777277 -0.2754582 -0.24216042 -0.16847609 -0.26010078 -0.122977726 0.28172603
-0.2234811 0.17721058 -0.17867315 0.21439128 0.17642245 -0.18345274 -0.23247583 0.2107529
00000000: 34cd 40be f6a2 233e 504f 6abe 0a4c 953e
00000010: 3d56 253e 7a13 45be 0d47 233e 4cf3 9dbe
00000020: 0df3 913e 486e 0abe 82a7 89be e90e 8abe
00000030: 2ebe 23be ec2f 78be c10b 5fbe 020e 74be
00000040: 6d4e 9dbe 5332 8ebe db08 8dbe e7f8 77be
00000050: ff84 2cbe ee2b 85be bfdb fbbd 653e 903e
00000060: 3bd8 64be b176 353e 18f6 36be 6389 5b3e
00000070: 16a8 343e 09db 3bbe 250e 6ebe 9ccf 573e

exp_avg f4 [256, 26]
8.9408306e-05 0.0004366757 -0.00031388388 8.9940084e-05 0.00021857816 0.00022787675 -0.0006655721 -0.00034778053
-0.0004632589 -0.00021126005 -0.00041228748 9.310735e-05 0.00077199633 -0.0009736722 -0.0009673968 0.00061688194
8.895962e-05 5.261158e-05 9.063574e-05 0.00012382705 8.7961445e-05 -2.432667e-05 8.0486454e-05 -0.00018842045
7.892557e-05 5.946481e-06 -1.9617091e-05 0.00041315437 0.00016349446 0.00011166379 -9.114101e-05 -5.4475033e-05
0.0003005987 0.00043644194 0.00038718677 0.00041775464 0.00026046674 -3.4499277e-05 -0.0005571115 0.00052435027
0.00055291934 -0.0004249943 -2.3736135e-05 -0.00015739362 -2.284019e-05 1.1798659e-05 -1.8353423e-05 0.00013937971
-2.0828751e-05 -9.745323e-05 -1.4873134e-05 0.00019244793 -0.00019083286 -0.0013725294 -0.0009945177 -0.0006745418
0.00023217681 -0.00013475036 -0.00055148307 -0.0010768727 -0.00073110673 -0.00093097665 -0.0008011898 -0.00044916058
0.0011791285 -0.0012320965 -0.0013653669 0.0010474109 -0.00018437766 7.783292e-05 -0.00020397812 -0.0007950381
-0.00021743168 -0.00062574254 -0.00023336473 -0.0007005862 -0.00023808889 -0.000340402 -0.00029608 -0.00010050002
0.0009862086 0.00019682269 -0.0007959839 -0.0005692594 0.0008814052 0.00024147311 0.00017978424 0.00016266068
0.00042705546 0.00021010054 -0.0012697213 0.001228358 0.001339239 -0.0010202285 -0.00029213275 -8.91001e-05
-0.00027688497 0.00028620134 -0.0002654687 0.0001877705 -0.0002432301 0.00055775413 -0.00024813536 -0.0003541621
-3.45899e-05 0.00029783646 -5.8762025e-06 0.00018835705 9.841892e-05 0.00012942823 -0.000222193 -0.00015834576
-0.0002982186 -6.8838955e-05 -0.00028427297 4.1284224e-05 0.00027746183 -0.0005926415 -0.00040307397 0.00028874454
-4.0675914e-05 -0.00023683676 -3.8553495e-05 3.9820796e-05 -3.868234e-05 -3.390626e-05 -4.0111638e-05 -7.700609e-05
-3.887568e-05 1.3047373e-05 -2.7501899e-06 7.1764903e-06 5.120134e-05 -4.8241414e-05 -4.5476223e-05 -0.000112241025
-5.9677564e-05 -2.6750466e-05 7.671298e-05 -2.0811874e-05 1.8810942e-05 -9.899894e-05 0.0004018224 -0.00023149856
-0.00026400475 0.00010430445 -4.7671124e-06 -7.1848546e-05 -6.278387e-06 -5.4091863e-05 -4.5460033e-06 5.5752032e-05
-4.783293e-06 -1.1401538e-05 -5.5453816e-06 -3.0220544e-05 4.4123295e-05 0.00016596541 0.00024748416 -0.00035716128
-0.00019580183 -9.4684234e-05 0.00031232618 -7.02626e-05 9.100116e-05 -0.00014081404 0.00015945005 9.911506e-06
-1.890007e-05 0.000117122865 -5.5465534e-05 -6.0317907e-05 5.5431647e-05 0.00042471418 6.368794e-05 0.00031792716
6.796251e-05 0.00019796196 7.389171e-05 0.0002511472 7.772131e-05 0.00018932803 4.7173548e-05 0.00021078452
6.4128995e-05 4.6601377e-05 1.8164414e-05 5.286568e-05 2.4688008e-05 6.423159e-05 1.149873e-05 7.718395e-05
3.6777048e-05 8.593209e-05 -6.7004235e-05 8.84302e-05 9.688753e-05 -8.363583e-05 4.5418048e-05 -2.4769013e-05
4.581098e-05 4.7765945e-05 4.03771e-05 -0.0001549583 3.6474343e-05 -0.000102465674 3.6445075e-05 2.638494e-05
-0.0002342429 8.241437e-06 -5.1262864e-06 8.906642e-05 -0.000106962194 6.9983995e-05 -0.0001771179 -0.0001790373
-0.00017454656 -0.00016472355 -0.0001177856 0.000114781134 0.00017473917 -0.00015864648 -0.00027058035 0.00021060134
-0.00023225386 -0.00010970379 -0.00023137516 -0.00014783972 -0.00023515715 -0.00030864563 -0.00023632227 -0.00021312686
-0.00024000819 -0.0003063627 -0.0003501179 -0.0008688076 0.0011003221 -0.0002205277 -0.00082975696 -0.00072553765
0.0017345948 0.0016696899 0.0015110665 0.0014123819 0.0014590619 0.00017905264 -0.0023872587 0.0028723613
0.0027758444 -0.0018355882 -0.0003351568 0.00025064228 -0.00032701044 1.6290325e-05 -0.00030809632 0.00041156376
00000000: b880 bb38 9ff1 e439 c890 a4b9 379e bc38
00000010: 2132 6539 33f2 6e39 ca79 2eba 5056 b6b9
00000020: 8fe1 f2b9 b085 5db9 4a28 d8b9 a142 c338
00000030: cc5f 4a3a 093e 7fba e698 7dba 3fb6 213a
00000040: d58f ba38 41ab 5c38 b113 be38 92d7 0139
00000050: f177 b838 2011 ccb7 d6ca a838 bb92 45b9
00000060: d884 a538 e287 c736 628f a4b7 a49c d839
00000070: b66f 2b39 0a2d ea38 f522 bfb8 1f7c 64b8
00000080: ad99 9d39 3fd2 e439 54ff ca39 1406 db39
00000090: 418f 8839 51b3 10b8 1f0b 12ba 8d74 093a
000000a0: caf1 103a c5d1 deb9 f61c c7b7 070a 25b9
000000b0: ef98 bfb7 dbf2 4537 adf5 99b7 7526 1239
000000c0: 67b9 aeb7 ce5f ccb8 a087 79b7 d9cb 4939
000000d0: 4e1a 48b9 72e6 b3ba 7a5a 82ba bcd3 30ba
000000e0: 7d74 7339 c64b 0db9 6791 10ba da25 8dba
000000f0: bea7 3fba c90c 74ba f006 52ba 507d ebb9
00000100: fd8c 9a3a 4c7e a1ba 1cf6 b2ba 4749 893a
00000110: 8055 41b9 3b3a a338 f6e2 55b9 1b6a 50ba
00000120: 5ffe 63b9 df08 24ba 5eb3 74b9 8ba7 37ba
00000130: 80a7 79b9 fc77 b2b9 2f3b 9bb9 8ac3 d2b8
00000140: ab43 813a 3062 4e39 93a9 50ba 5a3a 15ba
00000150: 1a0e 673a f233 7d39 7784 3c39 e58f 2a39
00000160: 6ae6 df39 6f4e 5c39 c76c a6ba db00 a13a
00000170: 6789 af3a 30b9 85ba 6529 99b9 40db bab8
00000180: df2a 91b9 4b0d 9639 9b2e 8bb9 43e4 4439
00000190: 950b 7fb9 3f36 123a 2a18 82b9 d5ae b9b9
000001a0: 9f14 11b8 ef26 9c39 322c c5b6 b681 4539
000001b0: 4166 ce38 20b7 0739 7bfc 68b9 9e09 26b9
000001c0: 395a 9cb9 a25d 90b8 790a 95b9 9928 2d38
000001d0: 4c78 9139 7f5b 1bba ac53 d3b9 a362 9739
000001e0: 6e9b 2ab8 6257 78b9 80b4 21b8 4105 2738
000001f0: d93e 22b8 9236 0eb8 8b3d 28b8 547e a1b8
00000200: 720e 23b8 0ae6 5a37 e78f 38b6 95cd f036
00000210: 05c1 5638 d356 4ab8 b9bd 3eb8 f162 ebb8
00000220: 4c4e 7ab8 3066 e0b7 f8e0 a038 2995 aeb7
00000230: 31cc 9d37 a79d cfb8 b1ab d239 6cbe 72b9
00000240: 1e6a 8ab9 06be da38 2ff5 9fb6 65ad 96b8
00000250: efaa d2b6 b2e0 62b8 df89 98b6 4ad7 6938
00000260: 2d80 a0b6 3c49 3fb7 7712 bab6 2082 fdb7
00000270: 0711 3938 0007 2e39 c3c0 8139 6041 bbb9
00000280: 2750 4db9 3691 c6b8 b6bf a339 f259 93b8
00000290: e0d7 be38 7ba7 13b9 0c32 2739 9849 2637
000002a0: 978b 9eb7 dc9f f538 aaa3 68b8 dcfd 7cb8
000002b0: 477f 6838 2cac de39 3490 8538 76af a639
000002c0: 1887 8e38 0294 4f39 4ff6 9a38 68ac 8339
000002d0: 50fe a238 5b86 4639 36dc 4538 0a06 5d39
000002e0: fe7c 8638 d975 4338 c85f 9837 17bc 5d38
000002f0: 1819 cf37 13b4 8638 abea 4037 d1dd a138
00000300: 0e41 1a38 7136 b438 a084 8cb8 9a73 b938
00000310: 1930 cb38 a565 afb8 427f 3e38 0dc7 cfb7
00000320: 2a25 4038 4b58 4838 955a 2938 4d7c 22b9
00000330: 07fc 1838 d7e2 d6b8 9adc 1838 3a55 dd37
00000340: 1a9f 75b9 b444 0a37 7702 acb6 2cc9 ba38
00000350: e450 e0b8 5fc4 9238 b9b8 39b9 f6bb 3bb9
00000360: 7c06 37b9 a4b9 2cb9 aa03 f7b8 a7b6 f038
00000370: 303a 3739 575a 26b9 aedc 8db9 ded4 5c39
00000380: 2c89 73b9 c610 e6b8 4c9d 72b9 6c05 1bb9
00000390: 8494 76b9 b7d1 a1b9 47cd 77b9 ce7a 5fb9
000003a0: b5aa 7bb9 4e9f a0b9 0790 b7b9 b1c0 63ba
000003b0: af38 903a 743d 67b9 0c84 59ba 0232 3eba
000003c0: 585b e33a 7fd9 da3a fa0e c63a ac1f b93a
000003d0: fe3d bf3a 14c0 3b39 8e73 1cbb 3a3e 3c3b
000003e0: f1ea 353b 1f98 f0ba fcb7 afb9 a368 8339
000003f0: 9972 abb9 35a7 8837 fd87 a1b9 27c7 d739

exp_avg_sq f4 [256, 26]
5.7101147e-06 6.0636485e-06 3.4221805e-06 1.9020985e-06 2.1498454e-06 1.9421898e-06 2.3923008e-06 1.2062054e-06
1.5724253e-06 1.1633209e-06 1.4286551e-06 8.12422e-07 1.0988874e-06 1.4357302e-06 1.3274566e-06 1.2857314e-06
5.6775402e-06 4.770644e-06 5.63106e-06 3.886324e-06 5.6130634e-06 4.3283244e-06 5.635827e-06 5.447916e-06
5.6206627e-06 4.736351e-06 3.347752e-06 9.854328e-06 4.1554376e-06 2.5897664e-06 2.2102608e-06 2.1544886e-06
3.6121146e-06 1.4318969e-06 1.8665515e-06 1.489501e-06 2.1104356e-06 1.4303394e-06 1.6375926e-06 1.7638747e-06
1.6612502e-06 2.083818e-06 3.3486247e-06 5.037083e-06 3.3152555e-06 3.11911e-06 3.2993787e-06 2.8427758e-06
3.3083688e-06 3.9189217e-06 3.2848786e-06 2.9201187e-06 3.5125435e-05 3.7807637e-05 1.60331e-05 5.426266e-06
5.2832665e-06 6.5454096e-06 7.0250667e-06 4.626509e-06 6.4756914e-06 4.6368145e-06 5.0104463e-06 2.8447903e-06
4.1919457e-06 3.8323483e-06 5.0440453e-06 4.5452466e-06 3.4978933e-05 2.4049688e-05 3.4805435e-05 2.2306098e-05
3.4672415e-05 2.2877637e-05 3.492196e-05 3.6188376e-05 3.5144432e-05 3.90624e-05 7.3774204e-06 7.034993e-06
3.985771e-06 2.2873223e-06 9.344513e-06 6.0544126e-06 3.4213622e-06 1.4533686e-06 1.8784152e-06 1.3565766e-06
1.5726421e-06 1.2447218e-06 1.3390815e-06 1.5807437e-06 1.990451e-06 1.8182648e-06 7.324992e-06 4.821941e-06
7.269492e-06 4.599978e-06 7.2678954e-06 6.747851e-06 7.3931333e-06 1.3388177e-05 7.4899417e-06 1.2880753e-05
8.232026e-06 5.609239e-06 2.35325e-06 1.242361e-06 1.7959633e-06 1.0216145e-06 2.18581e-06 1.122755e-06
1.3061939e-06 1.0454247e-06 9.650942e-07 5.3949435e-07 6.9795783e-07 7.054845e-07 7.644073e-07 7.173386e-07
8.253992e-06 7.506218e-06 8.322146e-06 9.190731e-06 8.3648765e-06 7.912523e-06 8.451348e-06 9.154106e-06
8.4734875e-06 7.121524e-06 1.7716746e-06 2.4170677e-06 1.6209818e-06 9.586901e-07 8.4240946e-07 1.441211e-06
1.3958283e-06 5.9340096e-07 6.86411e-07 5.752976e-07 6.078872e-07 4.041435e-07 5.0152636e-07 4.807224e-07
4.6419888e-07 4.9823745e-07 1.7748337e-06 2.110704e-06 1.7956013e-06 3.0378085e-06 1.8085599e-06 2.4176643e-06
1.810736e-06 1.6161837e-06 1.8133246e-06 1.9473707e-06 6.1210703e-06 6.062692e-06 4.009471e-06 4.098411e-06
3.8707094e-06 3.1906561e-06 5.1670513e-06 1.3594478e-06 2.1794738e-06 1.3501215e-06 1.8532833e-06 9.0179816e-07
1.0601775e-06 1.0381256e-06 1.5361222e-06 1.6544027e-06 6.09919e-06 5.8185674e-06 6.0784246e-06 5.2621035e-06
6.073762e-06 6.3873476e-06 6.148202e-06 9.77757e-06 6.1599603e-06 6.6284856e-06 4.5638594e-06 3.818255e-06
7.615722e-07 3.7294396e-07 9.1218305e-07 5.727454e-07 7.3090456e-07 5.420492e-07 4.9614346e-07 6.0132055e-07
3.1821037e-07 2.234342e-07 2.4034784e-07 3.0574412e-07 3.7978268e-07 3.036708e-07 4.585101e-06 4.221805e-06
4.6227883e-06 4.472648e-06 4.6485175e-06 4.194345e-06 4.706371e-06 5.256384e-06 4.7295052e-06 4.389554e-06
1.0537183e-06 1.7441721e-06 5.993624e-07 4.2483276e-07 5.2474235e-07 1.2301361e-06 6.0707623e-07 4.1871397e-07
4.4788038e-07 4.2024814e-07 3.0914552e-07 2.3781227e-07 2.406006e-07 2.832283e-07 3.1265668e-07 3.0921512e-07
1.0468937e-06 7.7259267e-07 1.0427354e-06 7.6228025e-07 1.0464167e-06 1.0228574e-06 1.0707328e-06 2.2438235e-06
1.093143e-06 2.3482232e-06 4.778871e-05 4.0080387e-05 1.557532e-05 9.227743e-06 8.524442e-06 8.694894e-06
1.7178418e-05 8.103732e-06 7.910867e-06 8.091106e-06 7.192939e-06 4.735279e-06 7.954673e-06 8.201367e-06
6.9825232e-06 7.753475e-06 4.7925223e-05 4.2975193e-05 4.832727e-05 5.4085096e-05 4.857912e-05 4.7951147e-05
00000000: 8399 bf36 5876 cb36 9da8 6536 9b4b ff35
00000010: 1046 1036 9156 0236 6a8b 2036 e7e4 a135
00000020: 1f0c d335 6723 9c35 37c0 bf35 3715 5a35
00000030: 7c7d 9335 50b3 c035 102b b235 6591 ac35
00000040: b381 be36 8513 a036 70f2 bc36 4567 8236
00000050: d957 bc36 063c 9136 631b bd36 3ecd b636
00000060: 2099 bc36 f2ec 9e36 f1a9 6036 0454 2537
00000070: f06e 8b36 d9cb 2d36 fe53 1436 d595 1036
00000080: a867 7236 9a2f c035 3986 fa35 ddea c735
00000090: 02a1 0d36 16fa bf35 41cb db35 46be ec35
000000a0: 1ff8 de35 b8d7 0b36 efb8 6036 3704 a936
000000b0: a87b 5e36 e751 5136 e56a 5d36 84c6 3e36
000000c0: 5805 5e36 487f 8336 c971 5c36 42f7 4336
000000d0: a653 1338 a493 1e38 d27e 8637 4513 b636
000000e0: ea46 b136 a4a0 db36 ddb8 eb36 693d 9b36
000000f0: c449 d936 ef95 9b36 681f a836 20e9 3e36
00000100: 8aa8 8c36 9f97 8036 0540 a936 5f83 9836
00000110: 58b6 1238 50be c937 0dfc 1138 fb1d bb37
00000120: 396d 1138 5ae9 bf37 2b79 1238 f9c8 1738
00000130: 0c68 1338 efd6 2338 8f8b f736 210e ec36
00000140: 83bd 8536 e67f 1936 61c6 1c37 0227 cb36
00000150: 8e9a 6536 5d11 c335 db1d fc35 9e13 b635
00000160: 9213 d335 5110 a735 7dba b335 f129 d435
00000170: b093 0536 1a0b f435 34c9 f536 28cc a136
00000180: 76ec f336 8359 9a36 bfde f336 996b e236
00000190: 8812 f836 c89d 6037 1c52 fb36 6a1a 5837
000001a0: 481c 0a37 ff36 bc36 87ec 1d36 33bf a635
000001b0: d40c f135 681e 8935 eeaf 1236 91b1 9635
000001c0: 7b50 af35 8550 8c35 6288 8135 c5d1 1035
000001d0: 4c5b 3b35 8760 3d35 ab31 4d35 228f 4035
000001e0: a07a 0a37 ecdd fb36 589f 0b37 e431 1a37
000001f0: df56 0c37 07c0 0437 43ca 0d37 9694 1937
00000200: 5a29 0e37 6df5 ee36 47ca ed35 e834 2236
00000210: 8390 d935 57ac 8035 f021 6235 a26f c135
00000220: 4c58 bb35 344a 1f35 ce41 3835 266e 1a35
00000230: b12d 2335 0ff9 d834 a1a0 0635 fe0a 0135
00000240: 0237 f934 9ebe 0535 d236 ee35 9ea5 0d36
00000250: 6400 f135 27dd 4b36 a5bd f235 283f 2236
00000260: 6a08 f335 a6eb d835 5c61 f335 93af 0236
00000270: 9863 cd36 216e cb36 1889 8636 1585 8936
00000280: 24e1 8136 0e1f 5636 a260 ad36 4576 b635
00000290: 1343 1236 d235 b535 54be f835 1913 7235
000002a0: 6c4b 8e35 b955 8b35 c22c ce35 d80c de35
000002b0: a5a7 cc36 1d3d c336 45f5 cb36 2091 b036
000002c0: 38cd cb36 e652 d636 a74c ce36 580a 2437
000002d0: a8b1 ce36 426a de36 4123 9936 901e 8036
000002e0: d86e 4c35 0739 c834 bedc 7435 c4be 1935
000002f0: 6133 4435 5681 1135 b82e 0535 6f6a 2135
00000300: 80d6 aa34 20e9 6f34 2809 8134 2725 a434
00000310: efe4 cb34 3208 a334 b8d9 9936 07a9 8d36
00000320: 731d 9b36 c113 9636 76fa 9b36 26bd 8c36
00000330: 6beb 9d36 ff5f b036 24b2 9e36 fb49 9336
00000340: 7c6d 8d35 4c19 ea35 dfe3 2035 9214 e434
00000350: 05dc 0c35 281b a535 f6f5 2235 9ccb e034
00000360: 3674 f034 779e e134 a3f8 a534 5759 7f34
00000370: e52b 8134 9a0e 9834 35db a734 3402 a634
00000380: fe82 8c35 2a64 4f35 1ef4 8b35 809f 4c35
00000390: 9b72 8c35 1d49 8935 19b6 8f35 9894 1636
000003a0: 1cb8 9235 2b96 1d36 bd70 4838 fd1b 2838
000003b0: bfa7 8237 dbd0 1a37 3304 0f37 49e0 1137
000003c0: 5f1a 9037 44f5 0737 eab8 0437 09bf 0737
000003d0: e05a f136 bde3 9e36 0f75 0537 9a98 0937
000003e0: 6b4b ea36 ec14 0237 5103 4938 4340 3438
000003f0: 03b3 4a38 6ed9 6238 6fc1 4b38 271f 4938
