script/checkpoint_new.tar (torch_old, 311354 bytes, 21 tensors)

lstm.weight_ih_l0 f4 [256, 26]
000000 f5 66 83 bc d5 91 58 3d 64 a4 ec 3c 16 88 5b bd
       -0.016040305 0.05287345 0.028886981 -0.05359658
000010 6b eb f3 3b f5 85 dc bd 1e dd 43 3e 9d ae 81 3d
       0.0074438355 -0.10767738 0.19127318 0.06332133
000020 e1 88 29 38 50 62 ca bd 9f b4 17 3e 5d a3 e4 3d
       4.042022e-05 -0.09882033 0.14814995 0.111639716
000030 84 df 86 3d 9f 88 e6 bd 10 a4 14 3c e7 78 a9 bd
       0.06585601 -0.11256527 0.009072319 -0.082750134
000040 15 3b 4f bd d6 c5 87 bb 0c 1f f6 3c 24 52 d0 3c
       -0.050593454 -0.004143457 0.030044101 0.025429793
000050 81 88 01 be b6 ec 4f 3d 08 59 68 3c 6f 8f 3c 3e
       -0.12649728 0.050762855 0.014181383 0.1841409
000060 55 d1 a0 3b 97 bc de 3d 1d 83 b3 bd d0 da aa 3d
       0.004907767 0.108758144 -0.08765242 0.083425164
000070 71 e7 88 3d 42 16 32 be a1 e8 e0 bd d3 de 1d be
       0.06684769 -0.17391303 -0.109818704 -0.15417032
000080 23 fd 69 3e db 55 1b 3e 09 56 67 be df a9 2a be
       0.2285047 0.1516947 -0.22591414 -0.16666363
000090 14 9e 65 3e 62 30 a0 bd d7 81 b7 3c 2e ba 0a be
       0.22423583 -0.07821728 0.02240078 -0.13547584
0000a0 aa 73 47 3d 33 65 08 ba 2f f5 b5 bd d0 81 b3 3d
       0.04869429 -0.0005203068 -0.08884656 0.08764994
0000b0 90 9a 7b be ca 34 b8 3d 4a 9b 83 bd 0d 9f 9a bd
       -0.2457068 0.08994444 -0.064261034 -0.07549868
0000c0 89 0f 63 bd b7 b0 27 bd 56 95 51 bc aa 10 4d 3d
       -0.055434737 -0.040940013 -0.012791952 0.05006472
0000d0 a2 3f 39 bd ea 1a d0 3c 12 19 22 3e d9 0f b1 bb
       -0.0452267 0.025403459 0.15829876 -0.0054035005
0000e0 b3 8a 81 bd da d6 61 be 37 a5 b0 3d 35 2e ce 3d
       -0.06325283 -0.22054616 0.08625262 0.10067407
0000f0 d5 cd 0d be 54 ea a1 bd 9e 20 50 3d 9a 1e c2 bd
       -0.1384805 -0.07906023 0.050812356 -0.09478493
000100 88 99 67 be 78 24 54 bd 9d 0e 00 3d 36 2b bc 3c
       -0.22617161 -0.05179259 0.031263936 0.022969823
000110 58 0d de 3d c1 da 6c bc 27 16 00 3d 8a 0b 6f 3d
       0.10842389 -0.014456452 0.031271126 0.058360614
000120 41 d7 31 3d b3 82 00 bd 9b b3 e5 bd 91 a2 ae 3d
       0.043418173 -0.031374644 -0.11215898 0.08527101
000130 88 dd 19 bd 92 8c 9d 3d 72 2c 0c be 85 b2 7a 3c
       -0.037564784 0.07692827 -0.1368883 0.015301351
000140 5f 93 d4 bc f9 98 82 be 98 47 9d bd e8 47 24 be
       -0.025949178 -0.25507334 -0.07679671 -0.16043055
000150 68 1d 57 3d a4 f9 76 bc 99 70 2b 3b b8 37 02 bd
       0.05251828 -0.015074167 0.0026159643 -0.03179142
000160 a0 8b 0c bd 9b b9 a0 b9 67 24 f8 3b a6 92 02 bd
       -0.034312844 -0.00030655865 0.007572699 -0.031878136
000170 54 13 82 3d 3c 11 00 be 08 25 f1 bd f5 f1 29 be
       0.06351343 -0.12506574 -0.11774641 -0.16596206
000180 72 70 4b be 82 0e 22 be 56 de 21 be ac d4 6c be
       -0.19867113 -0.15825847 -0.1580747 -0.23128003
000190 2a 83 72 be 84 64 3c be df 29 37 be 68 96 b3 bd
       -0.23682848 -0.18397719 -0.17887066 -0.08768922
0001a0 9d 0d 2c bd f5 d0 99 3b 21 53 b6 3d ea 45 e7 bd
       -0.04200517 0.004694099 0.08902574 -0.11292632
0001b0 4f 4e ec 3d 6b bf 78 be a6 d6 c2 3d 0d de 9a bd
       0.11538374 -0.2429177 0.09513597 -0.07561884
0001c0 fe dd 5b bb 04 e1 ac 3d 13 d3 91 3d eb f6 04 3e
       -0.0033549066 0.08441356 0.07120337 0.12984817
0001d0 23 f4 35 be 1f b7 08 be 30 fd 62 bc a5 7f bf bd
       -0.17768912 -0.13351105 -0.01385431 -0.09350518
0001e0 ae e1 1a bd af b6 21 bd 93 d6 c7 3c 91 56 81 bd
       -0.03781288 -0.03948086 0.02439431 -0.06315339
0001f0 2a bd dd 3d 8c da c7 3b 2c 4c fd 3d ea e3 1e 3d
       0.10827096 0.006099051 0.12368044 0.038791575
000200 6c 37 92 bd 39 1c a6 bc 12 1d b5 3c 6f b8 9a bd
       -0.07139477 -0.02027713 0.022108588 -0.07554709
000210 84 01 26 3e d6 ea 5a bd 80 d2 5f bc 19 a7 3b bd
       0.16211516 -0.053446613 -0.013661027 -0.045813654
000220 a6 4a e4 3d 31 0d 31 bd 3f 62 ec 3c bb 86 b9 3d
       0.111470506 -0.04322547 0.028855441 0.09058901
000230 1a 7d 55 3e 82 27 b0 bc 1c 17 83 bd 08 ad d7 3c
       0.20848504 -0.021503214 -0.06400892 0.026327625
000240 c8 8a 8f bd 40 ed 08 3d 0e 95 d3 3d af 39 86 bc
       -0.07008892 0.033429384 0.10331164 -0.016384928
000250 46 3c c5 bd 80 d2 f6 3d 0a 41 8d 3d d7 91 8d bd
       -0.09630637 0.120518684 0.06897171 -0.06912582
000260 b3 22 98 bd 32 e3 ef 3c cc e7 9c 3d a1 72 08 3e
       -0.07428493 0.02928314 0.07661399 0.13324977
000270 7b ce 07 3e 26 74 71 3d bc 2b 57 3d 67 3d 6d bd
       0.1326236 0.05894866 0.052531943 -0.057919886
000280 9d 57 9f bc 90 32 6f 3b 92 a9 e4 bd 6c f4 36 bc
       -0.019450957 0.0036498643 -0.111651555 -0.011166673
000290 aa 9f de bd 4c d8 01 bd 66 ca 60 3d db 84 85 3d
       -0.10870297 -0.031700417 0.054880522 0.06519481
0002a0 3f a4 5c bd 43 50 1f be 6d 2d 0a bd 8b eb 9e bd
       -0.053867575 -0.15557961 -0.033734728 -0.0775977
0002b0 d3 a5 9e bd 7e ff 9c bd 10 89 93 3d 4a 2a 9f 3d
       -0.07746472 -0.07665919 0.07203877 0.07771738
0002c0 41 a8 45 3d 56 3f 2b bb 84 2a e5 3d a5 08 c9 3c
       0.048256163 -0.002613028 0.1118975 0.024540255
0002d0 9b ec d6 3d 15 35 b0 bd d2 fd 57 3d 24 a5 16 3e
       0.10494348 -0.086038746 0.052732296 0.14711434
0002e0 77 7c d4 bc 77 ef 07 be 10 a3 aa bd 78 e7 e4 bd
       -0.025938256 -0.13274942 -0.08331883 -0.11176962
0002f0 3a 82 c3 3d 42 8b 5d bd 3c 0b 0e be 78 df d0 bc
       0.09546323 -0.054087885 -0.13871473 -0.025497183
000300 5e 48 6f 3e 4a 21 98 3d 96 ca d8 bd 8a 95 f8 bd
       0.2336745 0.074282244 -0.10585515 -0.12137897
000310 49 8d 6e 3d 08 3f 43 bd 10 9b 97 bd 4d 99 92 3d
       0.05824021 -0.047667533 -0.07402623 0.07158146
000320 f3 78 17 3c e3 bd d8 3d 9d c7 37 bd 01 da a3 3d
       0.009245145 0.10583093 -0.0448681 0.08000565
000330 d4 13 a7 3d 69 c9 a6 3a 69 31 d3 bd ec 6d a3 3c
       0.08158079 0.001272482 -0.103121586 0.019949876
000340 5f 97 39 3d b7 57 53 bd 1b ed 34 3e 0a 21 85 ba
       0.045310374 -0.051597323 0.17668574 -0.0010156941
000350 c7 d6 b7 bc a6 3a e1 bd 22 f4 40 3e 1f af a8 bd
       -0.022441281 -0.109975144 0.1884313 -0.08236527
000360 51 15 36 3d fb fd fd bd 97 f1 a1 3c 8d c0 14 3e
       0.044453923 -0.124019586 0.01976852 0.14526577
000370 05 2c a4 bd aa d4 b3 bd a9 8b c9 3c 18 a4 8a 3d
       -0.080162086 -0.08780797 0.024602728 0.0676958
000380 14 c5 ef 3b 5d a4 2c 3c 5f f9 e0 3d 3d aa 33 bd
       0.0073171947 0.010537234 0.10985064 -0.043863524
000390 47 94 2a bd ea 4b e3 3d eb 94 00 bd 88 d8 16 3e
       -0.041645315 0.11098464 -0.03139202 0.14731038
0003a0 a3 dc 6a 3d 9d 7d 12 3e e7 5a 8a bd 4c 34 8f 3d
       0.05733932 0.1430573 -0.067556195 0.06992397
0003b0 5e e1 88 3e f5 9e 03 3e 81 47 0f 3e 3e 71 a1 3d
       0.26734442 0.12853606 0.1399212 0.07882927
0003c0 d2 8a 68 3d be 5d 4a bd 7f 4e 5d bd 29 39 5c 3d
       0.056773014 -0.049405806 -0.054029938 0.05376545
0003d0 65 99 85 3d 73 bb 24 3e 26 63 d4 bb cb c3 c1 bc
       0.06523398 0.16087131 -0.006481546 -0.023652932
0003e0 ed 77 f7 bd 09 ac e5 bd c5 97 bc 3d 76 a1 f9 3c
       -0.12083421 -0.11214454 0.09208635 0.030472498
0003f0 92 73 d6 3d 6c 13 86 3d 7f 15 88 bd e1 6e 7d 3d
       0.10471262 0.06546673 -0.06644725 0.06187332

lstm.weight_hh_l0 f4 [256, 64]
000000 e0 dd e4 bb e4 3b ac 3d c8 36 ed 3c 80 e9 05 3c
       -0.0069844574 0.08409861 0.028956786 0.0081733465
000010 cc e6 f6 3d fc 62 79 3d c8 5c e4 bc 04 82 87 bd
       0.1205574 0.060885414 -0.027876273 -0.066165954
000020 52 da b3 bd a6 a9 90 3d 0c 75 ae 3d 14 db bf bd
       -0.08781876 0.07063608 0.08518419 -0.09367958
000030 64 dd bd bd cc fc 07 bd 2c e0 35 bd 70 37 13 3c
       -0.092707425 -0.03320007 -0.04440324 0.008985385
000040 8e f6 f1 bd 80 73 61 3d b0 1e f9 bd a4 69 38 bd
       -0.11814605 0.05504179 -0.12164056 -0.04502262
000050 ac 82 65 3d a8 a5 f2 3c d8 e7 df 3c 1e ac fb bd
       0.05603282 0.029620007 0.027332231 -0.12288688
000060 b0 56 8b 3c 28 11 8c bd a8 06 a9 bc d4 5f cb 3d
       0.01700911 -0.0683921 -0.020633057 0.09930387
000070 e6 02 cf 3d 08 01 98 bd 30 68 f4 3d 30 fc 29 3d
       0.10107975 -0.07422072 0.11933935 0.04150027
000080 ac 8a fc bd d6 cf 8f 3d 98 e3 a4 bd d0 04 12 3d
       -0.12331137 0.070220634 -0.080512226 0.03564912
000090 34 32 d1 3d a8 9b 49 bd 66 40 81 bd 00 a2 68 ba
       0.102146536 -0.04922071 -0.06311111 -0.00088742375
0000a0 e0 e5 63 3c b4 6f 60 3d a4 f7 e7 3d d8 8a 78 bd
       0.013909787 0.05479403 0.113265306 -0.060679287
0000b0 42 71 e1 3d c0 15 19 bc ce 87 88 3d 3c b3 e0 bd
       0.1100793 -0.0093435645 0.06666528 -0.10971686
0000c0 b8 35 e0 3d a8 dd 41 bd 2a c3 df bd b6 8d bb 3d
       0.10947746 -0.04733053 -0.109258965 0.091578886
0000d0 a0 31 81 3d 0c 68 2a bd 00 39 c3 bd 20 6c 1b bc
       0.06308293 -0.041603133 -0.09532356 -0.009486228
0000e0 74 39 b0 3d e0 48 93 3b 48 b5 cb 3d 00 1c 68 bd
       0.08604708 0.0044947714 0.09946686 -0.056667328
0000f0 78 a2 07 bd 10 21 97 3d 48 99 e2 bc 92 3a e0 3d
       -0.033113927 0.07379353 -0.02766098 0.109486714
000100 c8 57 6c bd 2e 41 a5 bd c0 d4 c3 bb a8 5b ea 3c
       -0.057700902 -0.08069073 -0.0059762895 0.028608158
000110 54 e7 80 3d b0 24 bb 3d 70 a7 af bd c8 77 36 bd
       0.06294122 0.09137857 -0.08576858 -0.044547826
000120 d4 a1 29 bd a8 60 89 bd 60 85 18 3d f8 83 e2 bc
       -0.041414097 -0.06707889 0.03723657 -0.027650818
000130 b4 e6 42 3d 8c dc 6d 3d 20 dd 44 bc 60 59 b9 bc
       0.047583297 0.058071658 -0.012015611 -0.022625625
000140 00 9c aa bb a2 c6 a4 bd cc 87 e2 3d cc c0 4e bd
       -0.005206585 -0.08045699 0.110610574 -0.050476834
000150 5c 0c 05 3d 9a db a4 bd f4 71 5d bd aa c7 bc bd
       0.03248249 -0.08049698 -0.054063752 -0.092177704
000160 3c fe b7 3d 80 42 76 3b e6 69 f9 3d f4 20 50 bd
       0.08984038 0.0037576258 0.12178402 -0.050812677
000170 58 11 ee bc e8 e4 d0 bd 6c 0b c2 3d 94 59 a0 bd
       -0.029061005 -0.101999104 0.09474835 -0.07829586
000180 10 09 f8 bd 70 25 91 3d e4 37 2d 3d 12 01 d3 3d
       -0.121111035 0.07087219 0.04228963 0.103029385
000190 cc a2 12 bd 3c ea bb 3d 56 bd fc 3d 28 1b 43 bd
       -0.035799786 0.09175536 0.123408005 -0.04763332
0001a0 14 a2 e2 3d 28 10 dd bc 44 0b 5f 3d 98 d5 f4 3d
       0.1106607 -0.026985243 0.054454103 0.11954802
0001b0 38 44 25 3d fc bc e4 3d aa 4c f7 3d 3e 77 b4 3d
       0.04034826 0.111688584 0.120751694 0.08811806
0001c0 30 01 29 bd 96 4f 96 bd 60 d6 b1 3d 20 e2 d5 bc
       -0.041260898 -0.073393986 0.08683467 -0.026108801
0001d0 00 f5 01 ba 72 71 c4 3d 36 56 8f bd 46 fa e4 bd
       -0.00049574673 0.095919505 -0.06998865 -0.11180548
0001e0 d0 88 ad bc 40 cf 1c bc ac 67 52 3d f6 fb c8 bd
       -0.021183401 -0.009570897 0.0513684 -0.09813683
0001f0 58 22 f8 3d 14 4c 64 bd 50 6f 9c 3d e4 a9 d6 bd
       0.121159256 -0.055736616 0.07638419 -0.10481623
000200 2c 63 fe bd 00 c8 f8 3c d0 f2 91 bc 06 de bf bd
       -0.12421259 0.030368805 -0.017815977 -0.093685195
000210 10 fa b0 bd 54 e4 20 3d 5c 99 31 bd 40 4e 6b bc
       -0.08641446 0.03928025 -0.043359146 -0.014361918
000220 86 35 a0 bd 7e 1a a9 bd 00 82 e5 3a f4 0c 37 bd
       -0.07822709 -0.08257006 0.0017510056 -0.044690087
000230 f0 f6 1e bd 08 43 f0 bd 70 2a 98 3c cc b4 80 bd
       -0.038809717 -0.11731535 0.018574923 -0.06284484
000240 92 ef b2 3d fc 89 71 bd 40 48 a2 3c b0 3b cf 3d
       0.08737101 -0.058969483 0.019809842 0.10118806
000250 8a 5f 96 3d e0 c6 9e bb 98 e4 84 bd 94 32 74 3d
       0.073424414 -0.004845485 -0.06488913 0.059618548
000260 78 93 97 bc 2c dc 51 3d a8 76 ad bc 88 a3 a7 3c
       -0.018502936 0.051235363 -0.021174744 0.02046372
000270 b8 56 d2 bc 64 a8 b0 bd 96 dd 80 3d 30 a6 02 bd
       -0.025676116 -0.08625868 0.06292264 -0.03189677
000280 38 32 d1 bc 14 d3 20 bd 4c bd bd 3d 96 cf 99 bd
       -0.025536641 -0.0392638 0.09264621 -0.07510297
000290 e2 af e9 3d e0 60 94 3b 48 1d fd bc 7c 7a 48 bd
       0.114105 0.00452815 -0.030897751 -0.048944935
0002a0 40 1e b3 3c ec 9d 80 3d ec ac ba bd 40 b1 d9 3d
       0.02186501 0.06280121 -0.091150135 0.10629511
0002b0 1a 54 d3 bd 18 78 a7 3c a8 3b bf 3c 84 5a 4f bd
       -0.103187755 0.020443007 0.023343876 -0.05062343
0002c0 26 9d 81 3d e8 f5 55 bd 40 d3 3f 3b f4 88 94 3d
       0.06328802 -0.052236468 0.0029270202 0.07252684
0002d0 b6 3d dd bd 80 1f e8 3d f8 c9 7f 3d f4 5c 81 bd
       -0.10802786 0.11334133 0.06244847 -0.063165575
0002e0 60 86 e6 3b 44 d5 b2 bd ba 86 e5 bd 1a 5b 8a 3d
       0.0070350617 -0.087320834 -0.11207338 0.067556575
0002f0 84 94 ed bd 6a 95 aa 3d 38 cc 28 bd 40 49 75 bd
       -0.11600593 0.0832928 -0.041210383 -0.05988431
000300 40 80 ea 3c 24 ff 63 bd 98 c0 99 bd 40 de da bd
       0.028625607 -0.055663243 -0.075074375 -0.10686922
000310 9c 66 2c bd 34 10 8d 3d 10 47 d9 3d 52 8f e9 3d
       -0.042090043 0.06887856 0.10609257 0.11404289
000320 00 da b9 3d 04 5c f3 bd ea 0b e6 3d 20 7b b3 3b
       0.09074783 -0.11882785 0.11232741 0.005477324
000330 00 e4 e3 bd 9a 76 93 3d a0 53 f2 3c 00 09 47 3b
       -0.11127472 0.07200356 0.029580891 0.0030370355
000340 a8 5d 8d bc 98 26 9a bc 10 89 d0 3d c0 21 71 3d
       -0.017256573 -0.018817231 0.101823926 0.058870077
000350 28 35 8c 3d 20 43 db 3d fc c9 be bd 68 32 22 bd
       0.06846076 0.107061625 -0.09315869 -0.039598852
000360 80 91 8c bb 60 67 dd 3b 74 30 7b bd f4 00 1d 3d
       -0.004289806 0.006756708 -0.061325505 0.038330987
000370 b8 74 8f 3d 78 ba ed bc fa 16 8e 3d 70 11 58 3c
       0.07004684 -0.02901958 0.06937976 0.013187751
000380 36 bc 8c 3d 30 af 9e bc 80 22 ef 3b c0 d2 b4 bd
       0.06871836 -0.019370645 0.007297814 -0.0882926
000390 c0 ae 41 3d 10 83 a0 bc 80 bb f2 bd bc 63 7e bd
       0.047285795 -0.019593745 -0.11852169 -0.062106833
0003a0 98 13 23 bd f0 32 61 bd 5e b1 fd 3d 20 62 d7 bd
       -0.039813608 -0.05498022 0.12387346 -0.10516763
0003b0 fc ca fc bd a0 de ef 3d 00 b8 19 b9 74 a9 49 3d
       -0.12343404 0.11712384 -0.00014659762 0.04923387
0003c0 3c a8 f2 3d f0 54 06 3c a0 6c 86 bc 00 0a 09 bd
       0.118484944 0.008198962 -0.016409218 -0.033456802
0003d0 e6 f3 ad 3d d0 7c 03 bc 20 57 6e 3d c0 9c 82 bd
       0.084937856 -0.008025363 0.058188558 -0.06377554
0003e0 18 1d 44 bd c4 84 a0 bd aa 37 82 bd ac 89 9a bd
       -0.04787931 -0.07837823 -0.06358273 -0.0754579
0003f0 80 ff 07 bb 34 30 ea bd a0 5c 33 bd b0 51 f7 bd
       -0.0020751655 -0.11434975 -0.043789506 -0.120761275

lstm.bias_ih_l0 f4 [256]
000000 d9 00 7b bd 0d ce e1 3d 64 4c ec 3c 14 1c 14 be
       -0.061280105 0.11025629 0.02884502 -0.14463836
000010 ac ed 8d 3d 51 6e 1a 3e b8 69 29 3d 83 1f 94 bd
       0.06930098 0.15081145 0.041360587 -0.07232573
000020 e2 55 2c 3e e6 c8 e7 bd 05 af 8d bd cb 7d c7 bd
       0.16829637 -0.11317615 -0.06918148 -0.0974079
000030 0f e7 92 bd 91 6d 91 3d 3e 79 4c bd 9f ff b3 bd
       -0.07172977 0.07100976 -0.049920313 -0.0878899
000040 fc 82 11 bc c2 c1 05 bd 5b 2a d6 3d ff 1c 1d 3c
       -0.008881327 -0.032655485 0.104572974 0.009589433
000050 a7 2e 0d bd b3 66 ab bd db c6 b1 3d 14 83 ed 3d
       -0.03446832 -0.08369198 0.08680507 0.11597267
000060 ce 35 1a 3d d4 13 31 3d be 0d 6b 3a fd e2 89 bd
       0.03764897 0.0432318 0.00089665863 -0.06732748
000070 3c 24 c9 3c f7 c9 1e 3e 35 8d 95 3d 2c bf 99 3d
       0.02455341 0.15506731 0.07302324 0.07507166
000080 2c bd 88 3d 06 68 83 3b c4 d2 ed 3d 7a e5 f9 3d
       0.06676707 0.0040102033 0.11612466 0.12201972
000090 d5 db b5 3d 23 cb e0 3d ef a4 fb 3c d4 b6 80 3d
       0.0887982 0.10976245 0.030718295 0.06284872
0000a0 98 6b f6 3d d9 b6 bf bd fe d5 c7 3c 05 5f 06 bd
       0.12032241 -0.09361047 0.024394032 -0.03280546
0000b0 5b 24 a0 bc 21 c7 8b 3d da 56 79 3d 95 86 8f bd
       -0.019548586 0.0682509 0.060873844 -0.07008091
0000c0 9b 3b b5 bc 55 dd a9 bd a0 38 24 3d bf 06 fe 3d
       -0.022123149 -0.08294169 0.040093064 0.124036305
0000d0 32 b8 b7 3c 48 28 28 3d 7c 60 0f 3d c2 b0 95 bd
       0.022426698 0.04105404 0.035004124 -0.073091045
0000e0 7c 67 34 3d 39 9d 95 bb b0 ed 38 bd 2c d9 fa 3d
       0.044044003 -0.0045658615 -0.04514855 0.122484535
0000f0 4b 38 97 3b 01 8e 44 bd ac 87 37 3d bc 91 9d bd
       0.004614865 -0.047986988 0.04480712 -0.07693812
000100 38 1a 7a bd b0 67 20 3d 80 ad ad bb 78 95 bb bd
       -0.06106016 0.039161384 -0.005300224 -0.09159368
000110 60 73 a0 3c 80 f5 6c bc 90 c8 30 3d a8 91 74 3d
       0.019586265 -0.014462829 0.04316002 0.05970922
000120 ba 1b 8b 3d d8 ce bf bd 40 02 95 bb 5c e7 57 3d
       0.06792398 -0.09365624 -0.0045473874 0.052710876
000130 b2 4d f8 3d f0 ae 8f bd 64 7a 9c bd 00 18 96 bb
       0.12124194 -0.070157886 -0.07640532 -0.0045804977
000140 d4 3f 96 3d 3a 14 ee 3d c0 a3 31 bd 90 8e 92 bd
       0.07336393 0.11624952 -0.043369055 -0.07156098
000150 32 e6 c7 3d 70 8e 08 3d fe 23 85 3d 1c 79 ba bd
       0.09760703 0.033338964 0.065010056 -0.09105131
000160 e2 14 ce bd f0 1d ec 3d 28 4d 57 bd 26 8f 88 bd
       -0.10062577 0.115291476 -0.052563816 -0.066679284
000170 88 6e cc bd 54 37 4a 3d 0e 65 92 bd f0 99 c8 bd
       -0.0998202 0.04936917 -0.07148181 -0.09794986
000180 70 cd f2 bd bc bb 45 3d ca f7 cf 3d 84 1c 17 bd
       -0.1185559 0.04827474 0.10154684 -0.03689243
000190 80 ab 2a 3b 6c 28 cd 3d 66 b1 fd bd 74 a9 22 bd
       0.0026042163 0.100174755 -0.12387352 -0.039712384
0001a0 66 cc ce 3d fc 52 d0 3d e8 ff 90 3c 48 6d 54 3d
       0.1009758 0.10172078 0.01770015 0.05186203
0001b0 72 15 da 3d 0c 47 27 bd d8 cb b4 3d d8 df e0 3c
       0.106486216 -0.04083924 0.088279426 0.027450487
0001c0 d0 c9 12 3c a0 08 9f bb 3a 57 df bd 80 cd 94 bb
       0.008959249 -0.004853323 -0.10905309 -0.004541099
0001d0 9c f8 e6 bd 60 9c ee bc 10 cc 7b bc 48 f4 dc 3c
       -0.11277887 -0.0291273 -0.0153684765 0.026971951
0001e0 2c a9 9d bd 4c 81 ef 3d 30 5e 15 bc 9e 50 f5 3d
       -0.076982826 0.11694583 -0.009116694 0.11978267
0001f0 f4 8a 80 bd 48 4c ee bd 90 96 95 3d 3e e9 9e 3d
       -0.06276503 -0.11635643 0.07304108 0.07759331
000200 e9 24 d8 bc 6f d9 21 bd 3d c3 f3 3d 19 95 d0 bc
       -0.026384788 -0.039514 0.11902473 -0.02546172
000210 3c 34 1e 3d 13 8c a5 3d 5e 67 6f 3d 83 c8 9b bd
       0.038624033 0.08083358 0.058448188 -0.07606604
000220 aa ea ab 3d f0 ed 55 bd 8a e4 6e 3d 9a b7 9a 3d
       0.08394368 -0.052228868 0.05832342 0.075545505
000230 b5 eb 18 bd 3a 2a 84 3b 57 b0 00 3e c4 c8 2f 3d
       -0.037334163 0.004033354 0.12567268 0.042916074
000240 49 ec 8f 3d 49 b6 85 bd 42 d7 a8 bd 53 97 9d 3d
       0.0702749 -0.06528909 -0.08244182 0.076948784
000250 c0 92 8e 3d 3d 92 ea bd 7d 4f 32 bd 5e 36 72 3d
       0.06961584 -0.11453674 -0.043532837 0.05913388
000260 f1 1b 9c 3d 37 0b ca bc e8 39 b8 3d 63 a6 26 bd
       0.07622517 -0.02466355 0.0899542 -0.040686022
000270 28 d9 a4 bc 36 3e b2 bc 60 b1 4f bd 3c b2 ed 3b
       -0.02012308 -0.02175818 -0.050706267 0.007253913
000280 ab 2d 10 3e e9 a6 c3 bc 72 ff 0a 3d 28 78 01 be
       0.14079921 -0.0238833 0.033935018 -0.12643492
000290 d9 87 45 3d d6 93 08 3d e9 d3 57 bd 79 ab cf bd
       0.048225258 0.033344112 -0.052692328 -0.10140128
0002a0 48 36 31 3e 35 00 d9 3d be 39 88 3d 8a 4f bb 3d
       0.17305863 0.105957426 0.066516384 0.0914603
0002b0 0c 17 9b bd ad 59 07 bd 6b 4a b9 3d 49 21 db 3d
       -0.07572755 -0.033044506 0.09047397 0.10699708
0002c0 99 d1 58 3d 03 dd e7 3d 21 40 83 3d 65 b6 02 3e
       0.052934263 0.113214515 0.06408716 0.1276489
0002d0 b5 15 64 bd e4 b1 d6 bb b9 a8 82 bb d8 73 8a bd
       -0.055684764 -0.006551968 -0.0039873985 -0.06760377
0002e0 e0 f5 0b bd 59 11 40 3d 47 60 cb bd b1 3e cd bd
       -0.03417003 0.046891544 -0.09930473 -0.10021723
0002f0 bc a6 fb bc 11 3b f9 3d 94 8a cd 3d d2 37 19 3d
       -0.030719154 0.12169469 0.10036197 0.03740675
000300 0a 6e 65 bd 04 55 91 3c 71 ea 15 3e 62 cb 98 3d
       -0.056013145 0.017740734 0.14640214 0.07460667
000310 ae 2d 2c bd 35 a1 12 3e b9 f5 bb bd 6e c1 a7 bd
       -0.04203575 0.14319308 -0.09177727 -0.08191191
000320 12 35 11 3d fe 32 8e 3a 9f 0a c0 bc 98 3b 17 3d
       0.035451002 0.0010848937 -0.023442565 0.036922067
000330 c4 14 06 3e b1 f2 cf 3c 20 54 fd 3d 9b f0 83 bd
       0.13093859 0.025384279 0.12369561 -0.06442376
000340 40 cf 64 bd 87 a1 0d 3e 88 0f 1a 3e 0b cc a8 3c
       -0.05586171 0.13831149 0.15044987 0.020605108
000350 fd 42 17 3e 02 86 1c bd 61 0b e5 3d 27 0e 9c 3d
       0.14771648 -0.038213737 0.11183811 0.07619887
000360 36 53 c5 3d dd f7 cc 3d ff 4b bd bc aa 35 13 bc
       0.09635012 0.10008214 -0.023107527 -0.0089849625
000370 3b e5 70 3c ab 54 86 bc a8 63 02 3e d2 d1 f3 3d
       0.01470309 -0.016397795 0.12733328 0.119052544
000380 6e 8d 81 bd 56 a2 5d bd 20 a7 e5 3d 13 a9 00 3e
       -0.06325804 -0.054109894 0.11213517 0.12564497
000390 37 0e 2c 3e ae d8 17 bd ae 6e be bd c7 22 a7 3d
       0.16802298 -0.037071876 -0.09298454 0.0816093
0003a0 b5 d0 f1 3d df 70 1f bd e0 80 bf bd 5a d7 88 3d
       0.11807386 -0.038926 -0.09350753 0.066817
0003b0 c0 9d 5b 3d 37 19 12 bd bf 1d 8b 3d 2e 58 89 3d
       0.05361724 -0.035668578 0.06792783 0.06706272
0003c0 d0 a5 10 3e 1d 95 23 3e 1e 10 c2 bb af ce f8 3c
       0.14125752 0.15974851 -0.0059223315 0.030371992
0003d0 48 c4 06 3e fa 77 66 3d 12 64 d5 3d 72 6c 09 bd
       0.13160813 0.056266762 0.104194775 -0.033550687
0003e0 8c b9 86 bd 62 ce f6 3c 9a ff 0e 3e 56 a7 86 bd
       -0.06578359 0.030127708 0.13964692 -0.065748855
0003f0 c1 35 1c 3e 39 d0 a7 3d b7 42 ab 3c 10 f8 f6 3d
       0.1525488 0.08194012 0.020905836 0.12059033

lstm.bias_hh_l0 f4 [256]
000000 06 3d 0e 3e 47 bc 79 3d 62 6e a1 3d db 83 97 3d
       0.13890466 0.06097057 0.07882382 0.07398196
000010 26 90 ab 3d 6a 98 cf 3d 0e a5 6f 3c 21 c4 b2 bd
       0.083771035 0.101364926 0.014626754 -0.08728815
000020 38 6b f8 bc fa 28 42 3d 6a 80 d1 3d c0 2d cc bd
       -0.030324563 0.04740236 0.10229571 -0.099696636
000030 d0 b0 27 3e 88 f8 0b 3e ed 88 64 bc d9 50 10 3d
       0.16376042 0.13669026 -0.013948661 0.035233352
000040 6b c8 38 bd 5f 16 ed 3d 89 6d e4 3d e0 23 8e 3d
       -0.04511301 0.115765326 0.11153705 0.06940436
000050 e7 74 93 bd 9f 47 e6 3d 28 de 2f bd d2 c0 f1 3d
       -0.07200032 0.112441294 -0.042936474 0.11804356
000060 fa a5 04 3e 6d 15 a3 bd 17 df dc 3d cd f1 aa 3d
       0.1295394 -0.07963071 0.107847385 0.08346901
000070 7e 55 cf bb ac 8e df 3c 0b b4 34 3e 31 60 10 3d
       -0.00632733 0.027289711 0.17646806 0.035247985
000080 60 fd df 3d 32 34 8f 3d d8 35 84 3d 2d 73 de 3c
       0.10936999 0.06992377 0.064555824 0.02715453
000090 a9 2c 63 bd 86 ae 82 3d 42 af 36 ba b4 84 39 3e
       -0.055462513 0.06380944 -0.00069688645 0.18117028
0000a0 f7 92 54 bd 19 3d 6e 3c b6 c8 82 3d 3b 42 bf 3d
       -0.05189797 0.014540934 0.06385939 0.09338804
0000b0 33 cf a8 3d 3d e7 f0 3d 83 d8 c9 3d ec a9 12 3d
       0.08242645 0.11762855 0.098557495 0.03580658
0000c0 f3 28 b2 bc b7 d7 f5 3d c1 d9 83 3d c5 09 ea bc
       -0.021748042 0.12004035 0.06438018 -0.028569112
0000d0 65 63 73 3d 10 42 01 be 55 f5 a2 3d 27 9a f3 3d
       0.059420962 -0.12622857 0.079569496 0.118946366
0000e0 ed 53 00 3c 79 a3 24 bb b8 3c 30 bd ce 89 55 3d
       0.007832509 -0.0025121851 -0.043026656 0.052133374
0000f0 20 fd 1a 3e 07 80 9d 3d 68 3c 43 3b f0 0a 57 bc
       0.15135622 0.07690435 0.0029790644 -0.013125166
000100 50 d8 d4 bd 80 46 69 3d 74 18 96 3d e0 ac a6 bb
       -0.10392821 0.056952 0.07328883 -0.0050865263
000110 dc 61 0e 3d 68 a3 d8 bd 6a 8a 95 bd 48 2f a8 bd
       0.034761295 -0.10578042 -0.07301791 -0.08212143
000120 34 df ed 3d 44 8f d3 3d 9c 8a 80 3d ec 62 a0 bd
       0.11614838 0.1033006 0.06276438 -0.07831368
000130 80 1c 09 bc 04 a5 c3 3d b6 e5 a0 bd ee 23 c2 3d
       -0.008368611 0.095529586 -0.07856314 0.09479509
000140 a2 5a e7 bd e0 db 15 bc a0 10 f5 3d d4 57 f3 3d
       -0.11296584 -0.009146661 0.119660616 0.11881986
000150 f0 b1 29 bc 4e b6 ad 3d 7c e4 a0 3d 78 8a cf bd
       -0.010357365 0.084820375 0.0785608 -0.10133833
000160 cc 69 5c 3d c6 f7 ed bd 50 9b 38 bd e0 e0 d3 3d
       0.053811833 -0.11619525 -0.045069993 0.10345626
000170 ec df 29 3d c0 5e 96 3b 60 bf 78 bd 20 7c d4 3d
       0.041473314 0.004588932 -0.060729384 0.103752375
000180 10 79 1a bc 60 ed 3d bd f2 43 e5 bd 26 a3 f6 bd
       -0.009428278 -0.046368957 -0.111946 -0.12042837
000190 c0 b0 61 bb c6 3c ca bd b6 2b 83 3d 02 3f e0 bd
       -0.0034437627 -0.09874873 0.064048216 -0.10949518
0001a0 0c b7 04 3d 24 95 3f bd 88 67 b7 3d 80 13 74 bb
       0.03240113 -0.04677309 0.08955294 -0.0037243068
0001b0 7c 80 f5 bd a8 81 52 bd 6a d6 aa 3d b2 51 eb bd
       -0.11987397 -0.05139318 0.083416775 -0.114901915
0001c0 38 2d e6 bc 8e 93 99 3d 40 2d 2d bc 28 df f7 3d
       -0.028097734 0.07498847 -0.0105698705 0.121031106
0001d0 96 e1 9b bd e0 95 63 3d 50 dc 1a bc 4c 8a ab 3d
       -0.076113865 0.055562854 -0.009451941 0.083759874
0001e0 00 60 0b bb c6 37 f4 bd 60 17 86 3d 2a bf a7 3d
       -0.0021266937 -0.119247004 0.06547427 0.081907585
0001f0 3e e1 92 bd e0 e8 cf 3d f2 bb d9 bd 7a c8 8c 3d
       -0.07171868 0.10151839 -0.10631551 0.06874175
000200 9e 34 0a 3d cd 45 ce 3d 7c 2d 6f 3d 9f 83 bc 3c
       0.033741586 0.10071907 0.058392987 0.02301198
000210 bb 61 c6 bd b1 4b ee 3c 70 20 d8 3b d3 f5 80 3c
       -0.09686609 0.029088827 0.0065956637 0.015742218
000220 c8 0b bb 3d 4d 4b f5 3a 5c 7a f7 bc e2 44 ab bc
       0.091331065 0.0018714458 -0.030209713 -0.02090687
000230 6b 4d 3e 3d 0e 62 d0 3b eb 5d d3 bc 08 8e cb 3d
       0.04646055 0.0063593453 -0.02580162 0.099392
000240 05 16 e6 3d f0 5a e9 3c 33 85 90 3d da a9 61 bd
       0.11234669 0.028485745 0.07056656 -0.055093624
000250 42 25 e1 bd df a2 9f bd 8e 61 24 3e 4a 04 8f 3c
       -0.109934345 -0.07794737 0.16052839 0.0174581
000260 c3 bd 72 3d 14 83 b9 3d 13 f0 78 3c 18 b5 fc bd
       0.059263002 0.09058204 0.015193957 -0.123392284
000270 30 f3 ee 3d fc 56 0d bd cc 6e 9f 3d 2e 29 95 bc
       0.11667478 -0.034506783 0.07784805 -0.018208113
000280 70 b4 1b bd f4 19 f0 3d cc 66 59 bd 59 c0 1f bd
       -0.038013875 0.117237 -0.05307655 -0.039001796
000290 83 c3 d7 bd c0 0a e8 bb 6e ae 9a bd de 3c 02 be
       -0.10535338 -0.0070813596 -0.07552801 -0.12718531
0002a0 f3 05 bd 3d b8 d6 f8 3d ab b0 18 3e cc 25 c6 3d
       0.0922965 0.12150329 0.14911143 0.09675178
0002b0 79 d4 83 3d 8d 6a 96 3d 4d d8 dd bc 33 0d b4 bd
       0.0643701 0.07344542 -0.02708068 -0.0879158
0002c0 e5 42 13 be 11 0c b4 bc ed ed fc bd b5 1f 56 bb
       -0.14380987 -0.02197841 -0.12350068 -0.0032672707
0002d0 5d 0a e7 3d 5d dd c0 3d 17 d4 21 3d 94 f9 d1 bd
       0.112812735 0.09417222 0.039508905 -0.102526814
0002e0 e8 7e 5c bd be 86 b4 3d a1 34 e4 3d 69 c2 fd bc
       -0.053831965 0.088147625 0.11142851 -0.030976491
0002f0 c7 12 e3 bc 91 2c da 3d ee 2a 1c 3d f7 ec e1 bc
       -0.027718915 0.106530316 0.03812688 -0.027578814
000300 cd 33 8b 3d c8 9a ac 3c a5 ee b0 bd 94 08 38 bd
       0.067969896 0.0210699 -0.08639268 -0.044930056
000310 df fd f9 3d 60 97 0d 3e 51 9a 8e bd de b2 a7 3d
       0.12206625 0.13827276 -0.06963027 0.08188413
000320 72 3e 1f 3c d4 6f 7a bd 85 18 8e bd 87 db cf bd
       0.009719478 -0.061141804 -0.069382705 -0.101492934
000330 d4 03 c3 3b 97 a3 65 bc 1f 04 5d bd 86 27 0d 3e
       0.005951384 -0.014016054 -0.05395901 0.13784608
000340 a7 3c bb bd 8a 4c 56 3d 12 c9 c8 bb 22 1f 88 bd
       -0.09142428 0.052319087 -0.006127485 -0.06646563
000350 5b 51 04 bc 34 94 26 bd a9 70 74 bc 97 2e 82 bd
       -0.008076037 -0.04066868 -0.014919438 -0.063565426
000360 ae e2 f4 3d 07 39 ce 3d f8 81 fe 3c fd eb c4 3d
       0.11957298 0.10069471 0.031067833 0.09615324
000370 3b f5 c5 bd 64 e2 57 bc 21 e7 78 3c 53 3f 04 3e
       -0.096659146 -0.013176534 0.015191824 0.12914781
000380 fd af 48 3d 88 8c 1f bd ac 95 df 3c 59 80 30 bc
       0.04899596 -0.03895238 0.027293049 -0.010772788
000390 d2 9c 08 3e 12 db 33 bd 85 88 d6 3b 4b ea 31 bd
       0.13341072 -0.043910094 0.006547036 -0.04343633
0003a0 e5 b9 6e 3c e1 3c 3d 3d 9a 76 9a 3d 1a e1 a5 bd
       0.014570688 0.046200637 0.07542153 -0.08099575
0003b0 7e 9e 11 bd f5 7f ef 3d f3 0c d1 3d fe 4f 04 3e
       -0.03555154 0.11694328 0.10207548 0.1292114
0003c0 a7 a8 52 3b be 08 a6 3c d8 c1 2a 3d 07 4b 02 3e
       0.0032143982 0.02026784 0.04168877 0.12723933
0003d0 7d d9 a2 3d 35 c4 e0 3d 94 39 c7 3d 46 05 cb bd
       0.07951639 0.109749235 0.09727779 -0.09913115
0003e0 05 d4 c5 3d 74 3e 9f bc 3a 43 8b bd a6 44 ab 3d
       0.0965958 -0.01943896 -0.06799932 0.08362703
0003f0 c0 ae d5 3d 7c fe 44 bd b8 8a ea 3d 91 f1 0c bc
       0.104337215 -0.048094258 0.1145224 -0.008602516

linear.weight f4 [32, 64]
000000 65 a7 01 3d 2d 6b 50 be 8e 12 2d bd e8 bc fd 3d
       0.03165378 -0.20353384 -0.042254023 0.12389547
000010 13 ce ad 3d 40 c5 b9 3d c9 30 bc bd c9 32 9f bd
       0.08486571 0.090708256 -0.091889925 -0.077733584
000020 9d 5a 01 3e 44 43 41 3e ca fc a6 bd d8 01 00 3e
       0.12632222 0.18873316 -0.081536844 0.12500703
000030 fd 61 e7 3c f2 72 84 3d df 4a 81 bd 52 3a 88 3d
       0.028244967 0.064672366 -0.06313109 0.06651749
000040 ac 6b d9 3d 76 45 80 bd f0 28 00 bd 52 d0 d3 bd
       0.1061624 -0.062632486 -0.03128904 -0.10342468
000050 28 f4 58 bd 49 21 6b 3d 93 03 1c be 2f 54 64 3d
       -0.05296722 0.05740479 -0.15235738 0.055744346
000060 8e 07 0d 3e e0 a5 aa 3c 06 e2 a3 bd df c7 05 be
       0.13772413 0.020831048 -0.08002095 -0.13064526
000070 f7 98 d4 3d 99 e7 d9 3d 6d ea 15 3d 60 f1 d3 bb
       0.10380738 0.10639877 0.03660052 -0.006467983
000080 c9 10 0a 3d 95 43 17 3e 3a af 08 3e 74 01 b3 bd
       0.033707414 0.14771874 0.13348094 -0.087405115
000090 88 7a 26 3e 7b 80 6a bd 96 3d 2a bd 2b e6 02 be
       0.1625768 -0.057251435 -0.04156264 -0.12783115
0000a0 2a 38 70 3d 5c 80 54 be f6 0f 7a bc 61 eb 3b 3d
       0.058647312 -0.2075209 -0.015262594 0.04587877
0000b0 a0 85 10 3d c7 cb 27 3d 44 ca ab 3d 10 77 1f be
       0.035283685 0.04096582 0.083881885 -0.15572762
0000c0 8c 29 77 3b 02 d7 09 bd 8a 77 02 3e 0f 8d ea 3d
       0.0037713973 -0.033652313 0.12740913 0.11452686
0000d0 70 3c 49 bd 22 53 73 3c bc bd 0f be a7 b2 1f be
       -0.049129903 0.014851363 -0.14037222 -0.15595494
0000e0 36 44 0f bc 1c 6b 91 3d 94 76 b2 3d f6 47 59 bd
       -0.00874429 0.071005076 0.08714023 -0.053047143
0000f0 e7 a8 0b 3d b0 1a d6 3d 47 47 e9 3c 22 85 52 3b
       0.034096625 0.10454309 0.02847637 0.003212281
000100 86 c6 2b 3c f0 46 52 3e c9 24 ad bd d3 5d 6f bd
       0.010484343 0.20534873 -0.08454282 -0.058439087
000110 72 cd b2 3a 35 08 cf bd 13 84 e8 3d 93 2a 91 bd
       0.001364155 -0.10108987 0.11353316 -0.070881985
000120 09 eb 3b be 13 a1 08 bb a0 1b 90 3c 00 ed 82 bd
       -0.18351378 -0.002084796 0.017591298 -0.063928604
000130 e9 84 b0 3c 64 09 91 3d da 5c d6 bd a0 f1 92 3d
       0.021547752 0.07081869 -0.10466929 0.071749926
000140 bc 67 8e 3c 22 62 e7 3d ee a2 66 bd 8d bd 60 3d
       0.017383449 0.11298014 -0.056307726 0.05486827
000150 c4 d3 08 3e dc 00 74 3d cc 42 17 3e 9f 8b bf 3c
       0.13362032 0.059571132 0.14771575 0.023382006
000160 74 e4 8a bb eb 36 6f 3d 10 fe 80 bd e8 4c 37 bd
       -0.0042386595 0.058401983 -0.062984586 -0.044751078
000170 16 d9 0b bd 38 04 ab bd f7 88 80 3d 83 a5 0d bd
       -0.034142576 -0.08350414 0.06276124 -0.034581672
000180 21 8f 2c be ef 83 c2 3c 37 60 29 bd 9f f0 2e 3e
       -0.16851474 0.023744551 -0.041351523 0.17083977
000190 a7 c0 46 bd 7d a7 da bd a7 dd 76 bd 85 37 be 3d
       -0.04852357 -0.10676477 -0.060269978 0.09287933
0001a0 0e b2 07 bd b8 8c 66 3b e2 58 05 be e8 2c 1d 3e
       -0.03312879 0.003517909 -0.13022187 0.15349162
0001b0 33 d4 1a bd 23 fc 90 3d 91 ea 29 bd e7 cd e8 3d
       -0.037800025 0.07079341 -0.041483466 0.11367398
0001c0 96 25 19 ba ec f0 ed 3d b3 fb ef bc 80 2d 0c bd
       -0.00058420876 0.11618218 -0.029294824 -0.03422308
0001d0 96 a8 9e 3d 2f 53 b6 bb 1d b9 0e bd dc eb e5 3d
       0.07746999 -0.0055641155 -0.034844507 0.11226627
0001e0 39 d9 22 bd 2e f7 b1 3c 33 35 bd bd a2 f5 2b bb
       -0.03975794 0.02172431 -0.092386626 -0.0026238938
0001f0 ab 66 5e 3d 61 23 90 bd c8 ba 31 bd a3 57 10 be
       0.05429713 -0.07037998 -0.04339102 -0.14095931
000200 17 4b c4 3d 61 bb be bc e1 93 41 bd b7 c6 df 3d
       0.09584635 -0.023282709 -0.04726017 0.10926574
000210 68 ee 07 3e b7 85 91 bd 85 e0 41 bd 64 c0 25 bc
       0.13274539 -0.07105582 -0.04733326 -0.01011667
000220 a7 44 e2 3c 3a 17 21 3e 4f 86 0c be f7 c6 82 3c
       0.027620627 0.15731516 -0.1372311 0.015964014
000230 0b 98 2e bd d8 4a 4c bc 58 47 15 3e 4b 5a 9a bd
       -0.04262547 -0.012469016 0.14577997 -0.07536753
000240 e0 51 e9 3d 3b 1e 09 be 84 1b 9b bd b1 20 5f bd
       0.113925695 -0.13390438 -0.075736076 -0.054474536
000250 05 fa 9e bd 37 b8 be 3d 5d 9d 25 3d b5 bf 26 bd
       -0.07762531 0.0931248 0.040433276 -0.04071017
000260 41 99 25 bd 7b d6 6a 3d 93 1a f8 3d f6 bb 6c bc
       -0.040429357 0.05733345 0.12114444 -0.01444911
000270 f3 33 ae bd 9d 49 0e 3e 0e b7 ae bc a1 42 d3 bd
       -0.08506002 0.13895269 -0.021327522 -0.10315443
000280 46 f2 9c 3d c0 41 03 3e b8 9e a8 bc 59 ff d3 bc
       0.076633975 0.1281805 -0.020583495 -0.025878595
000290 7b b7 27 3e 82 22 c1 3d 3c 14 57 bb f8 26 1f 3c
       0.16378586 0.0943041 -0.0032818457 0.009713881
0002a0 ce 9e 0c 3e d2 a9 ab bd 1e 8a 02 3e 48 2c 15 be
       0.13732454 -0.08382 0.12748 -0.14567673
0002b0 3b 58 9d 3d 20 12 65 3d c9 57 d1 3d 5e bf bd bb
       0.07682844 0.05592549 0.10221822 -0.005790635
0002c0 69 d7 85 3d 03 3e 0e 3d 3d b2 06 3d b0 8d 15 3e
       0.06535227 0.034727108 0.032884825 0.1460483
0002d0 2e cd f0 bd 18 af 1f bd 6b 41 22 bd 07 d3 fc bd
       -0.11757885 -0.03898534 -0.03961317 -0.12344938
0002e0 72 87 88 3b c8 89 17 3e 61 f3 cd 3d 38 77 10 3e
       0.004166537 0.14798653 0.100561865 0.14107978
0002f0 8f 7e 49 bd 4c 53 a6 3d 22 b9 ab bc 86 de db 3d
       -0.04919296 0.08121356 -0.020962302 0.10735802
000300 c3 b7 e2 bd b8 c1 45 3e 83 ca 1c 3e 0c 40 ab bc
       -0.11070206 0.19312179 0.15311627 -0.020904563
000310 b0 7e 2a be 4e aa 8f bd 78 fa 65 3d cc 62 02 3e
       -0.1664989 -0.07014905 0.05614707 0.12733
000320 bb 78 e4 3c 4a 91 55 be 2f a8 20 3e 31 2c 13 bd
       0.0278896 -0.20856205 0.15689157 -0.035930816
000330 4d 4a f0 bc df a1 d8 3d 32 37 8d 3d 8b 4c 68 bc
       -0.029332304 0.105777495 0.06895293 -0.0141784055
000340 c5 0b 4e bd 09 8d 26 bd 7e 04 13 3e a9 02 10 3e
       -0.050304193 -0.040661845 0.14357182 0.14063515
000350 dd 92 fe 3b 01 70 46 3d 42 ba 88 bb d2 be 4b bd
       0.0077689723 0.04844666 -0.0041725943 -0.049742527
000360 3f 33 3e be 00 50 5c bd 02 9e 8d bb 98 29 4d bb
       -0.18574236 -0.05378723 -0.0043218145 -0.003130531
000370 6f 64 dc 3c d8 5a a4 bd 59 d1 d7 bb 8f 97 bd 3c
       0.02690336 -0.080251396 -0.0065862355 0.023143558
000380 24 54 1b be 5c 28 a1 bc 36 d5 3a bc de 8d 0f 3d
       -0.15168816 -0.019672565 -0.0114033725 0.035047404
000390 9e 8a 29 be 15 37 1c be 8e 2b d1 3d 81 c9 12 3e
       -0.16556785 -0.15255387 0.102133855 0.1433468
0003a0 49 09 12 be 8c 6f 3c 3e 0d 37 05 bc 0e c7 d2 3d
       -0.14261355 0.18401927 -0.008130801 0.10291873
0003b0 73 b8 c9 3d 93 2d d1 bd 63 c8 1c 3d ee 26 59 bd
       0.09849634 -0.10213771 0.03827704 -0.053015642
0003c0 98 a4 50 be 35 f8 f2 3d dc 6e 0f be c7 94 09 be
       -0.20375288 0.11863748 -0.14007133 -0.1343566
0003d0 a9 23 d0 3d b4 66 05 be e7 ed 24 3b e4 f8 ed 3d
       0.10163052 -0.1302746 0.0025166215 0.11619738
0003e0 c9 63 ac bc 17 ad a0 3d f8 c4 80 bd 2c 74 fd bd
       -0.021043675 0.07845514 -0.06287569 -0.12375674
0003f0 2d b4 13 bd fd 78 9b bc 30 0a 8c bd 2e 42 32 3d
       -0.0360605 -0.01897859 -0.068378806 0.043520145

linear.bias f4 [32]
000000 39 eb b8 bd 38 7b 11 be 14 8f a3 bd 4f 10 b4 3d
       -0.0902924 -0.1420716 -0.07986274 0.08792173
000010 2d d6 8a bd 81 d1 80 bd bd 19 c1 3d 76 6f 03 3d
       -0.06779132 -0.0628996 0.09428737 0.03208872
000020 4b bc 61 3d 39 98 b1 3a 78 85 92 3b d5 fb 77 3d
       0.05511121 0.0013549394 0.004471477 0.0605429
000030 66 ce 82 bd 92 b8 d4 3d 26 58 60 bd aa 27 a8 3d
       -0.06387024 0.103867665 -0.054771565 0.0821069
000040 a8 6e 5f bd 03 48 04 be c0 72 2c bb 6f a7 cf bd
       -0.05454889 -0.12918095 -0.0026313514 -0.10139357
000050 6b d4 03 3d 76 bc 2c bb 9d 9b ff 3c e0 24 10 bd
       0.032185 -0.0026357449 0.031202132 -0.035191417
000060 e7 53 5b bc 41 c4 ab bd 35 27 d5 3c 91 83 e8 3d
       -0.013386703 -0.08387042 0.026019672 0.11353219
000070 37 35 0e bc d9 ed 64 bd 60 ad 8d bd 3f 17 98 3c
       -0.00867968 -0.05589089 -0.06917834 0.018565772

linear1.weight f4 [1, 32]
000000 c8 0d 68 3e c3 8d be bd a3 1d 31 3e 0c e1 8f bd
       0.22661507 -0.09304383 0.17296462 -0.07025346
000010 5f 52 3b 3e 37 2d 38 3e 1d 05 4e 3e 5d 88 22 3e
       0.18293141 0.17985998 0.20119138 0.15872331
000020 50 e3 42 be fe 0c 91 bd 15 8e b5 3d 9f ce 6e 3e
       -0.19032025 -0.07082556 0.088649906 0.23321007
000030 1a 25 14 3e c0 17 3a be 06 02 6b bd 1a 31 49 3e
       0.14467278 -0.18173122 -0.057374977 0.19647637
000040 81 11 61 be 59 64 85 bd 6d be 48 be a3 01 d6 bd
       -0.21979333 -0.065132804 -0.19603892 -0.10449531
000050 91 c9 4d be 31 88 c5 3d 77 6f 1f be f5 78 8c bd
       -0.20096423 0.09645117 -0.15569864 -0.06859008
000060 76 9d ed 3d f0 75 ca bd c8 5a ab bd 24 bf 3c 3e
       0.11602299 -0.09885776 -0.083669245 0.1843229
000070 f8 67 bf bd 1c 6c 4a be 00 7e 86 3d 3b c5 40 3e
       -0.09346002 -0.19767803 0.06567001 0.18825237

exp_avg f4 [256, 26]
000000 84 7a a6 b8 5f 55 c0 b8 51 84 8c b6 8f 85 75 38
       -7.938317e-05 -9.171175e-05 -4.187729e-06 5.8536938e-05
000010 28 65 26 37 15 49 1f 38 a9 a3 c5 b8 50 b8 04 38
       9.917923e-06 3.7976617e-05 -9.424176e-05 3.1642907e-05
000020 1b 33 33 b8 9f fa 11 b8 53 8d ab 37 5d 8d 06 b9
       -4.272452e-05 -3.4804103e-05 2.0450598e-05 -0.00012831898
000030 22 1a 8b 38 e9 03 87 b7 10 f6 08 b9 f7 e6 0b b9
       6.632904e-05 -1.6095075e-05 -0.00013061636 -0.00013342114
000040 a8 c3 a7 b8 dd 5b e4 b8 da 59 aa b8 6e 64 27 b9
       -7.999624e-05 -0.00010888998 -8.122968e-05 -0.00015963774
000050 37 dc ac b8 99 97 24 b9 6e 57 b1 b8 47 48 72 b9
       -8.242617e-05 -0.00015696733 -8.456303e-05 -0.00023105844
000060 f5 cb b4 b8 16 7f 4c b9 bb 7e f6 37 e2 b9 b1 b8
       -8.621059e-05 -0.00019502299 2.9384499e-05 -8.474641e-05
000070 a2 59 3d b7 d6 2f a9 38 b6 90 8f 38 3e cc c6 38
       -1.1286147e-05 8.067458e-05 6.845726e-05 9.479419e-05
000080 f6 28 f0 b8 e2 89 4d 38 c7 e5 9e 37 70 56 1e b7
       -0.000114517214 4.9004222e-05 1.8942066e-05 -9.437659e-06
000090 60 ba 65 b7 85 83 ee b8 48 c1 ca 37 df 69 a9 36
       -1.36928575e-05 -0.00011373222 2.417028e-05 5.0489175e-06
0000a0 19 dc f0 38 31 c2 07 39 f0 46 e7 37 b1 46 e0 b8
       0.00011485088 0.00012946945 2.7570379e-05 -0.0001069432
0000b0 a3 f4 ce 37 19 c0 54 b9 d0 e2 b8 37 cd 2e 42 b9
       2.4671031e-05 -0.00020289457 2.2040127e-05 -0.00018518716
0000c0 53 b6 9c 37 e6 7f 80 b9 42 5c 82 37 35 a7 74 b9
       1.868155e-05 -0.00024509354 1.5540169e-05 -0.00023331943
0000d0 71 1a f1 b8 fb d9 38 b8 b6 73 8c 37 93 d4 a2 38
       -0.000114967006 -4.407203e-05 1.6743183e-05 7.764357e-05
0000e0 d0 ee 54 37 a3 37 8c 38 cb 7f 4a b8 93 9e b4 37
       1.2691788e-05 6.686083e-05 -4.827957e-05 2.1531514e-05
0000f0 bf 9d 4b b8 61 10 73 b8 d5 19 36 38 56 06 5c b8
       -4.8545884e-05 -5.795097e-05 4.341624e-05 -5.245799e-05
000100 86 53 bd 38 25 e3 43 b8 6a d7 44 b8 61 6a 54 b8
       9.02778e-05 -4.6703168e-05 -4.693066e-05 -5.0643812e-05
000110 18 e5 ee b8 2e 3e 94 b7 c2 75 ee b8 2b 38 9d b8
       -0.000113913964 -1.767193e-05 -0.000113706585 -7.4968055e-05
000120 8e 87 ef b8 88 6a 07 b9 ea e6 ef b8 1a a5 d7 b8
       -0.00011421657 -0.00012914289 -0.00011439419 -0.000102827515
000130 bb 3d ee b8 d5 00 d7 b7 13 6f 42 b7 e3 e1 d6 b8
       -0.000113602226 -2.5630385e-05 -1.1589163e-05 -0.0001024639
000140 95 ee 6b 38 a7 9b cf 38 66 10 ad 38 01 06 b0 38
       5.6250563e-05 9.899522e-05 8.252337e-05 8.393452e-05
000150 a5 13 98 38 ce a3 a0 b7 ec 2a 01 38 fb b8 24 b7
       7.251584e-05 -1.9149764e-05 3.079597e-05 -9.818231e-06
000160 bc 98 ca b6 52 93 a6 38 cb 06 8b b8 bc 90 85 b8
       -6.0378497e-06 7.9429374e-05 -6.629302e-05 -6.368893e-05
000170 58 ff 2e b7 9f ed 7b b7 09 4d 3f b7 77 52 87 36
       -1.043066e-05 -1.5016091e-05 -1.1402423e-05 4.0329137e-06
000180 e1 1f 45 b7 53 2d 17 b8 ef d1 4b b7 df f6 28 b8
       -1.1749537e-05 -3.6043417e-05 -1.2148622e-05 -4.0284238e-05
000190 0b e6 3e b7 61 92 54 38 b5 ae 4f b7 56 cf b7 b8
       -1.1378444e-05 5.0681065e-05 -1.2378839e-05 -8.764739e-05
0001a0 60 fd 97 b8 2b 0b dc 37 58 59 82 37 35 c1 93 38
       -7.247436e-05 2.6231244e-05 1.5538812e-05 7.045494e-05
0001b0 c9 fd 84 37 8f 2c 8c 38 7d 31 b1 37 b7 be 8f 37
       1.5853804e-05 6.68402e-05 2.1123089e-05 1.7135737e-05
0001c0 21 cf 16 36 e9 95 74 b8 2e b6 9d 38 3d 1a f3 b8
       2.2472307e-06 -5.8313748e-05 7.520277e-05 -0.0001159203
0001d0 99 87 b7 38 c1 01 a3 b7 6d a4 bd 37 a1 92 21 37
       8.751377e-05 -1.9431931e-05 2.2607122e-05 9.6304875e-06
0001e0 fb 55 95 b8 00 53 07 38 6f 05 93 b8 1f d6 f0 37
       -7.120889e-05 3.2263808e-05 -7.010518e-05 2.8709937e-05
0001f0 f3 40 93 b8 24 c8 85 b8 97 6b 93 b8 b5 5e 7f b8
       -7.021604e-05 -6.379213e-05 -7.0295464e-05 -6.088494e-05
000200 e7 7a 93 b8 53 77 6c b8 1b fc 6e b8 98 c0 1c 38
       -7.0323986e-05 -5.6377914e-05 -5.6978413e-05 3.7372665e-05
000210 9e c0 b2 38 41 cf f1 37 9e de f3 38 06 88 66 b8
       8.523579e-05 2.8825949e-05 0.000116286086 -5.4962955e-05
000220 86 72 32 38 87 0d 04 b8 ba 76 9c 37 fe 5e 66 b7
       4.2545165e-05 -3.148385e-05 1.8651936e-05 -1.3731185e-05
000230 89 ad 21 38 3e 32 b3 b8 43 c8 3f 38 7b e8 2d b7
       3.854701e-05 -8.5447435e-05 4.5724457e-05 -1.0365732e-05
000240 b1 97 e2 38 23 b1 de 38 b4 5e 6c b8 83 5d c0 b5
       0.000108047745 0.00010618779 -5.6354984e-05 -1.433233e-06
000250 f5 2a 6e b8 cd 38 a4 b8 27 b1 6c b8 00 46 91 b7
       -5.678363e-05 -7.8307094e-05 -5.643177e-05 -1.7317943e-05
000260 13 29 6b b8 e6 82 81 b7 44 46 70 b8 73 14 12 b9
       -5.606662e-05 -1.5438953e-05 -5.72859e-05 -0.00013931263
000270 48 c7 62 b8 05 f0 d0 37 f6 4a 1b 37 21 50 bb 37
       -5.4068194e-05 2.49073e-05 9.256173e-06 2.232945e-05
000280 36 69 8f 37 00 8d 0f 36 ee 09 2f b7 a1 d5 df b6
       1.7095921e-05 2.1390733e-06 -1.0433125e-05 -6.6707876e-06
000290 66 85 63 37 34 05 e9 36 fc 93 8f b7 80 49 89 b8
       1.3561314e-05 6.944547e-06 -1.7115839e-05 -6.5463595e-05
0002a0 d6 a7 18 38 9c 7e 48 38 ac ba 6e b8 4c 0a 80 b8
       3.6395933e-05 4.780163e-05 -5.6917474e-05 -6.1054336e-05
0002b0 14 d0 62 b8 a4 32 3b b8 60 1f 64 b8 0d 76 8d b8
       -5.4076387e-05 -4.4631437e-05 -5.4388656e-05 -6.7453926e-05
0002c0 8b de 64 b8 07 97 6d b8 e5 5c 65 b8 e4 c9 58 b8
       -5.4566695e-05 -5.664586e-05 -5.468437e-05 -5.168644e-05
0002d0 84 15 66 b8 39 79 69 b8 6a 72 a4 b8 97 b8 0a b9
       -5.485631e-05 -5.5664426e-05 -7.841441e-05 -0.0001322947
0002e0 08 fd 3f 38 19 20 e8 37 dd c4 98 38 df f5 09 b7
       4.5773602e-05 2.7671502e-05 7.2845934e-05 -8.223083e-06
0002f0 50 5d ed 38 73 05 4e 37 d2 e1 68 38 e4 4f a5 b4
       0.000113184215 1.2279826e-05 5.5523422e-05 -3.0791773e-07
000300 09 ef 09 37 e8 60 47 b9 ae bc a1 38 fa 3c 56 b7
       8.221491e-06 -0.0001901422 7.7122226e-05 -1.2769591e-05
000310 80 cf f0 37 79 5a ef 37 44 73 a3 b8 73 44 f8 b7
       2.8706854e-05 2.853315e-05 -7.7939156e-05 -2.9595778e-05
000320 6a df a5 b8 2c 4a 1f b9 01 e1 a5 b8 ac 04 83 b8
       -7.909427e-05 -0.00015191053 -7.909723e-05 -6.247437e-05
000330 70 2f a5 b8 22 11 16 b8 8e 30 a6 b8 c8 62 ce b8
       -7.876649e-05 -3.5778743e-05 -7.924541e-05 -9.841245e-05
000340 12 38 f5 b8 11 3c 94 b7 55 60 2d b8 fa 07 01 39
       -0.00011692954 -1.7670945e-05 -4.133613e-05 0.0001230537
000350 b6 96 9e b8 64 ba 2e 39 1e 7e 01 b9 44 ea b7 38
       -7.562099e-05 0.00016663369 -0.00012349381 8.7697554e-05
000360 d5 17 c7 b8 06 dc d5 b8 9e 22 44 38 1d d7 28 b9
       -9.4934985e-05 -0.00010197614 4.676228e-05 -0.00016101864
000370 2c a4 c4 37 a3 78 5e 38 6b 76 d6 b7 d4 c0 91 b7
       2.344147e-05 5.3041276e-05 -2.556593e-05 -1.737514e-05
000380 e6 e4 f3 b8 c3 4c 50 b8 da c4 f3 b8 82 44 b9 b8
       -0.000116297786 -4.9662554e-05 -0.000116238094 -8.834248e-05
000390 99 03 f2 b8 bf 60 dd b7 fb 1e f5 b8 d8 8b 57 b9
       -0.00011540129 -2.6390304e-05 -0.00011688281 -0.00020556094
0003a0 87 cf f5 b8 48 1f f3 b8 8c 3f 00 39 dc 41 6c 39
       -0.00011721165 -0.000115929695 0.00012230704 0.00022531248
0003b0 82 e9 15 b8 e1 85 3d b8 98 9f b0 35 02 32 3d b8
       -3.574184e-05 -4.5185796e-05 1.315947e-06 -4.5107685e-05
0003c0 00 8f 03 b8 21 20 aa b7 25 05 61 38 5f 5e 55 38
       -3.1366013e-05 -2.028054e-05 5.364897e-05 5.0871047e-05
0003d0 b3 65 68 b8 61 93 09 34 08 a6 5d 38 98 8c 8b b8
       -5.5407825e-05 1.2812735e-07 5.2845135e-05 -6.654224e-05
0003e0 3e f8 42 35 9c 5c 10 35 4a 4c fe 38 63 4c c9 37
       7.263187e-07 5.3778945e-07 0.00012125874 2.3996638e-05
0003f0 da 8a 00 39 0a be 51 39 86 e9 00 39 9d e8 01 39
       0.00012258757 0.00020002588 0.00012294026 0.00012389054
