script/checkpoint_new.tar (torch_old, 311354 bytes, 21 tensors)

lstm.weight_ih_l0 f4 [256, 26]
0	0x3df64b4c	0.120260805
1	0x3a410813	0.0007363569
2	0x3dc35f9f	0.09539723
3	0x3e9d5946	0.30732173
4	0x3bdddbec	0.0067706015
5	0xbe7fcab4	-0.24979669
6	0xbe65f2df	-0.22455929
7	0x3e47f0cd	0.19525452
8	0x3ca8063a	0.020510782
9	0xbe6910b1	-0.22760274
10	0x3e47b6ad	0.19503279
11	0x3e32c66d	0.17458506
12	0x3e475dfd	0.19469447
13	0xbdadcd28	-0.08486396
14	0x3e00d3dd	0.1258082
15	0xbd67efd1	-0.05662519
16	0x3dd1df44	0.10247663
17	0xbe8fd1b6	-0.28089684
18	0x3dd73166	0.10507469
19	0x3d227d8c	0.039670512
20	0x3e28c57d	0.16481586
21	0xbdfcad6e	-0.123377666
22	0xbcfbdacd	-0.03074398
23	0xbc1cd042	-0.009571137
24	0x3d68d763	0.056846034
25	0x3d9edfac	0.07757506
26	0x3e14ce18	0.14531744
27	0x3ad3b14c	0.0016150861
28	0x3d63515c	0.055497512
29	0xbd3c8251	-0.046022717
30	0xbddc1d4c	-0.107477754
31	0xbc96d8d2	-0.018413935
32	0xbce305d2	-0.027712736
33	0x3ed13f36	0.4086854
34	0x3e5b8799	0.21438445
35	0xbdadc3a9	-0.08484585
36	0xbe2e36a7	-0.17013036
37	0x3e3baaec	0.1832692
38	0xbc8f3a2f	-0.017483799
39	0xbe1e9f06	-0.1549035
40	0xbdf92ca5	-0.121667184
41	0xbd24f0aa	-0.040268578
42	0xbd57926a	-0.052629866
43	0x3d909bd1	0.070609696
44	0x3d8d75e3	0.06907251
45	0x3ea43982	0.32075125
46	0x3e2fd5dd	0.17171426
47	0x3e6a525b	0.22882979
48	0x3da5b7ac	0.08091673
49	0x3e1d5e6a	0.15368047
50	0x3e02cc79	0.12773313
51	0x3e0c63be	0.13709924
52	0xbda5dce2	-0.08098771
53	0x3c85f13e	0.016350385
54	0xbe1497a5	-0.14510973
55	0x3e44a87d	0.19204898
56	0xbdf0ff9a	-0.11767502
57	0xbcfebc80	-0.031095743
58	0x3e5188c2	0.20462325
59	0x3d51fee1	0.051268462
60	0x3e804627	0.25053522
61	0xbdb98396	-0.09058301
62	0x3cf9e73b	0.030505767
63	0x3e207814	0.15670806
64	0x3e17d192	0.14826038
65	0xbc72cf8f	-0.014819994
66	0xbdd824f8	-0.10553926
67	0xbdf2b01d	-0.11849997
68	0xbd850e8b	-0.064969145
69	0xbd68c410	-0.056827605
70	0x3dd89c43	0.105766796
71	0xbc4431ee	-0.011974795
72	0xbd502631	-0.050817672
73	0xbd62d90d	-0.055382777
74	0xbdcfa062	-0.101380125
75	0xbdc9fe89	-0.09863002
76	0x3dd8fe80	0.10595417
77	0xbd98cba6	-0.07460718
78	0x3dea75a8	0.114482224
79	0x3c5f4f22	0.013629707
80	0x3cd80687	0.0263703
81	0x3c6783b3	0.014130521
82	0xbd77719f	-0.060411092
83	0x3cc5353d	0.024073238
84	0x3d6b36e9	0.057425413
85	0xbc9724ea	-0.01845022
86	0x3e0bebf3	0.13664226
87	0xbd5168e7	-0.051125433
88	0x3db0d040	0.086334705
89	0xbd387fcf	-0.045043763
90	0xbe36d25d	-0.17853685
91	0xbdf03a4d	-0.1172987
92	0x3de3575f	0.11100649
93	0xbe20df70	-0.15710235
94	0xbd006537	-0.031346526
95	0x3de5c2e9	0.11218817
96	0x3cec5800	0.028850555
97	0x3d4ba050	0.049713433
98	0x3c581e19	0.01319077
99	0xbced1a67	-0.028943254
100	0xbd918047	-0.07104545
101	0x3e32d3e0	0.17463636
102	0xbc7569cb	-0.014978836
103	0x3dd1aadd	0.10237668
104	0x3e1f8338	0.155774
105	0x3b4b6bf3	0.0031039685
106	0xbd85cf21	-0.06533647
107	0xbc2f1f66	-0.010688638
108	0xbd19901c	-0.03749095
109	0x3e0e303f	0.13885592
110	0xbdfaff3e	-0.12255715
111	0x3a82322a	0.0009933163
112	0x3cdecda0	0.027197659
113	0x3ddf71dd	0.109103896
114	0xbde482dc	-0.11157772
115	0xbd1f426c	-0.038881704
116	0xbd8b4f89	-0.068022795
117	0xbdfbc598	-0.122935474
118	0x3bb3ece6	0.005490887
119	0xbe158fb5	-0.14605601
120	0xbcc67733	-0.02422676
121	0xbb9d5d65	-0.0048023933
122	0xbd0cc374	-0.034366086
123	0x3d5a25fb	0.053258877
124	0x3dbc6547	0.091990046
125	0xbb5b46eb	-0.0033459018
126	0x3d4000db	0.046875816
127	0x3d742980	0.05960989
128	0x3d0b694f	0.034035977
129	0x3d1ffc18	0.039058775
130	0xbdfc368b	-0.12315091
131	0x3cacf3ea	0.021112401
132	0x3db9f0f4	0.09079161
133	0x3d184d6e	0.037183218
134	0x3d84bdd5	0.0648152
135	0xbe72cf97	-0.23712002
136	0x3dd4a49c	0.10382959
137	0x3be69d57	0.0070377993
138	0x3df860e3	0.12127855
139	0x3d6794c5	0.056538362
140	0x3aee4fd3	0.0018181748
141	0x3e49239d	0.19642492
142	0x3e0bde9a	0.13659135
143	0x3e13930a	0.1441156
144	0x3ba80f2a	0.005128761
145	0x3d051d46	0.03249862
146	0x3dc88652	0.097912446
147	0x3dbfb3ee	0.09360491
148	0xbd222a67	-0.03959122
149	0xbd54faf2	-0.051997133
150	0x3cf855f9	0.030314432
151	0xbcca7fdb	-0.02471917
152	0x3d7b5596	0.061360918
153	0xbdc8304d	-0.09774838
154	0xbda3a2a3	-0.07990005
155	0x3cd510f4	0.02600906
156	0x3bf5f368	0.007505823
157	0x3b16b949	0.0022998622
158	0x3d100cb4	0.035168365
159	0x3d0b6936	0.034035884
160	0xbd9812a0	-0.074254274
161	0x3de0b667	0.109722905
162	0x3e3ffc5e	0.18748614
163	0xbda563a3	-0.08075645
164	0x3d44323c	0.04789947
165	0xbd2f7991	-0.042840544
166	0x3d7c219c	0.06155549
167	0xbd4a1a10	-0.04934126
168	0x3dd337dc	0.10313389
169	0x3c2424c6	0.010018533
170	0x3d795bd0	0.060878575
171	0x3da38c60	0.07985759
172	0x3b7280fd	0.0037003153
173	0x3c2c15b8	0.010503225
174	0x3d9f450f	0.07776844
175	0x3d134b04	0.035960212
176	0x3d9381a1	0.07202459
177	0xbdc4d5c5	-0.09611086
178	0xbda7dd51	-0.0819651
179	0xbdbd11d9	-0.0923192
180	0x3dabb5b6	0.08384268
181	0xbc0373e6	-0.008023238
182	0x3c276564	0.0102170445
183	0xbda0d236	-0.078525946
184	0x3e3fe8ab	0.187411
185	0x3d533557	0.05156454
186	0xbdd24d0d	-0.102686025
187	0xbd92391a	-0.071397975
188	0x3e38683a	0.1800851
189	0xbd708165	-0.05871715
190	0xbdfb9438	-0.1228413
191	0xbc73bc18	-0.014876388
192	0xbe14351d	-0.14473386
193	0x3e258cfd	0.16167064
194	0xbe06f9ea	-0.13181272
195	0xbab96a0a	-0.0014145982
196	0x3d951229	0.072788544
197	0x3d485bf7	0.04891583
198	0x3dee2604	0.11628345
199	0xbd62dec0	-0.055388212
200	0xbd811fd1	-0.063048966
201	0x3e2fc985	0.17166717
202	0xbc3441bf	-0.011002003
203	0x3c4316a2	0.011907252
204	0xbd95e412	-0.073188916
205	0x3e2ef975	0.17087348
206	0xbc574a34	-0.01314025
207	0x3e2726ae	0.16323349
208	0x3d08276d	0.033240724
209	0xbc86fb26	-0.016477179
210	0x3e3624e1	0.17787506
211	0x3e5a3758	0.21310174
212	0x3d45e834	0.04831715
213	0xbd63ba3b	-0.055597525
214	0x3e095c9a	0.13414231
215	0x3e412db6	0.18865094
216	0x3d9220aa	0.071351364
217	0x3ddb873b	0.107191525
218	0xbd971d66	-0.07378654
219	0xbdc99aee	-0.098440036
220	0x3d0b2814	0.03397377
221	0xbdcb333d	-0.09921882
222	0xbdbdee2e	-0.09273945
223	0x3d4e3531	0.050343696
224	0xbdae317d	-0.08505533
225	0x3d34bdf6	0.044126473
226	0x3d383a79	0.04497764
227	0x3e4a2e17	0.19744144
228	0x3db7742b	0.08957704
229	0x3e2df471	0.16987778
230	0x3db24892	0.08705248
231	0xbd8a9456	-0.06766574
232	0x3d912de9	0.07088835
233	0xbbe87c00	-0.00709486
234	0xbcd1f6a9	-0.025630312
235	0xbdad3bf3	-0.084587
236	0x3d3a5506	0.04549124
237	0x3e2a450d	0.16627903
238	0xbc7b35af	-0.015332623
239	0x3cd25c3b	0.025678745
240	0xbd919cf7	-0.07110017
241	0xbdd27780	-0.10276699
242	0x3c947da9	0.018126326
243	0xbdbf302a	-0.093353584
244	0x3e81cee5	0.2535316
245	0x3c8690d2	0.016426478
246	0xbc8a9493	-0.016916549
247	0xbd856203	-0.06512835
248	0x3cd79786	0.02631737
249	0xbd77bf0c	-0.06048493
250	0x3e41a7fb	0.18911736
251	0x3d83922d	0.06424365
252	0x3d816a9f	0.063191645
253	0x3cac8b20	0.021062434
254	0xbcfd9b9b	-0.030957988
255	0x3e30ef3c	0.1727876

lstm.weight_hh_l0 f4 [256, 64]
0	0xbdf61ab0	-0.12016809
1	0x3d201aec	0.039088175
2	0xbd9bdd3e	-0.07610558
3	0x3d094ed8	0.033522457
4	0x3dd88de4	0.105739385
5	0xbdc2b308	-0.09506804
6	0xbc9ad1e8	-0.01889892
7	0x3cf63230	0.030053228
8	0xbc05f010	-0.008174911
9	0x3de5b9ce	0.1121708
10	0xbdcb2c00	-0.09920502
11	0x3d314c04	0.043285385
12	0xbdf87036	-0.121307775
13	0x3dd1783c	0.10228011
14	0xbd890132	-0.06689681
15	0xbcc801b0	-0.024414867
16	0x3d25e83c	0.04050468
17	0x3d137384	0.035998836
18	0x3dd2d60c	0.102947325
19	0xbd4c5fd0	-0.04989606
20	0xbc0d5500	-0.008626223
21	0xbd53f06c	-0.051742956
22	0x3de489ea	0.111591175
23	0x3ce913f0	0.02845189
24	0xbdf44c0a	-0.11928566
25	0x3df5d040	0.12002611
26	0x3df60fee	0.12014757
27	0xbbfb6ce0	-0.007672891
28	0xbbedb200	-0.0072538853
29	0x3de39400	0.11112213
30	0x3de670a4	0.11251953
31	0xbd01ad90	-0.031659663
32	0x3d9c9258	0.076451
33	0xbce2d778	-0.027690634
34	0xbda12c86	-0.0786982
35	0xbd815584	-0.06315139
36	0xbd2290ec	-0.03968899
37	0xbcafb8f0	-0.02145049
38	0x3d17d964	0.037072554
39	0xbde3c1da	-0.111209586
40	0x3c22d7e0	0.009939164
41	0xbde78122	-0.11303927
42	0xbd9b8344	-0.07593396
43	0x3d6af7c0	0.05736518
44	0xbd80f416	-0.06296556
45	0x3d7d7efc	0.06188868
46	0xbdc778de	-0.097398505
47	0xbda476dc	-0.08030483
48	0x3dcb76a8	0.09934741
49	0x3d489ef8	0.04897973
50	0x3c6a1fa0	0.014289767
51	0x3d0b950c	0.03407769
52	0xbdd8130c	-0.10550508
53	0x3d8b6ee6	0.068082616
54	0xbcf09e58	-0.02937238
55	0xbd933a7c	-0.071888894
56	0x3c042880	0.008066297
57	0x3dd7bee6	0.10534458
58	0x3d9f0a28	0.07765609
59	0x3d2f1718	0.042746633
60	0xbca235f8	-0.019801125
61	0x3d8c2f48	0.06844956
62	0xbcdbf3a8	-0.026849583
63	0x3d81898c	0.06325063
64	0x3bd12a60	0.0063832253
65	0xbdc07252	-0.09396805
66	0xbda06700	-0.07832146
67	0xbd3f5b5c	-0.046717986
68	0xbdc5cd86	-0.09658341
69	0x3d18beb4	0.037291244
70	0xbd884180	-0.06653118
71	0x3dedd6fe	0.11613272
72	0x3df677f0	0.12034595
73	0x3c108d20	0.008822709
74	0xbde318ba	-0.110887006
75	0x3dbc4f88	0.09194857
76	0x3dd621e2	0.104556814
77	0xbd942c00	-0.07234955
78	0x3c807648	0.0156814
79	0x3d63b5dc	0.055593356
80	0xbd595aa4	-0.053064957
81	0xbcf074d8	-0.02935259
82	0xbd3988dc	-0.045296535
83	0x3da4b832	0.08042945
84	0xbc8aa178	-0.016922697
85	0xbd8a2900	-0.067461014
86	0xb9e31800	-0.00043314695
87	0x3dad8f00	0.08474541
88	0xbd8392ba	-0.0642447
89	0xbbdc1060	-0.0067158192
90	0xbca7d1f0	-0.020485848
91	0xbbc01c00	-0.005862713
92	0xbd2fd3b0	-0.04292649
93	0x3d54e8d0	0.05197984
94	0x3c77ecb0	0.015132114
95	0xbd7bc788	-0.061469585
96	0x3d8e8d58	0.06960553
97	0xbd1afdf4	-0.037839845
98	0xbddd6f52	-0.10812248
99	0xbd65f7b8	-0.056144446
100	0x3d1e17a4	0.038596764
101	0x3d79bc08	0.060970336
102	0x3ccd1fd0	0.025039583
103	0x3d855b1a	0.06511517
104	0xbc25c890	-0.010118619
105	0xbdf237ca	-0.11827047
106	0xbc1211d0	-0.00891538
107	0xbd3d3ee8	-0.04620257
108	0xbd7db71c	-0.061942205
109	0xbce72188	-0.028214231
110	0xbdad8f1c	-0.084745616
111	0xbdef9624	-0.11698559
112	0x3dc493ca	0.09598501
113	0x3d2fa528	0.042882115
114	0xbd25a030	-0.04043597
115	0xbd33d2f4	-0.043902352
116	0xbd8704ee	-0.06592737
117	0x3da61e00	0.08111191
118	0x3dc460be	0.095887646
119	0xbdc875ba	-0.097880796
120	0x3d1cb1ec	0.038255617
121	0x3ccf0fb0	0.025276035
122	0x3ded21b2	0.115786925
123	0x3df67838	0.12034649
124	0xbc8aced0	-0.016944319
125	0xbd85e1e0	-0.06537223
126	0x3dfa4b04	0.12221339
127	0x3d90ead4	0.0707604
128	0xbd6e9650	-0.058248818
129	0xbbba8400	-0.005692005
130	0x3c17f0d0	0.009273723
131	0x3dbdc1c6	0.09265475
132	0x3b3b1e40	0.0028551966
133	0xbca38dc8	-0.019965068
134	0xba666000	-0.0008788109
135	0xbdc55c22	-0.096367136
136	0xbd871768	-0.06596261
137	0xbdf195ea	-0.11796172
138	0x3dc220ce	0.09478913
139	0xbdf66770	-0.12031448
140	0x3db402a8	0.08789569
141	0xbd9ee19a	-0.07757874
142	0x3d1a6350	0.037692368
143	0x3d964a24	0.0733836
144	0x3dda37e2	0.1065519
145	0x3cdeed70	0.027212828
146	0xbd0a6694	-0.033789232
147	0x3dc43220	0.09579873
148	0x3d94a2e0	0.072576284
149	0x3d252a98	0.040323824
150	0x3da4163e	0.08012055
151	0xbad77f00	-0.0016441047
152	0x3c6d7200	0.014492512
153	0x3c391b60	0.011298031
154	0xbd1a58e4	-0.03768243
155	0xbd88849e	-0.0666592
156	0xbdadac2e	-0.08480106
157	0xbd13d2c4	-0.036089674
158	0x3d2c3670	0.042044103
159	0xbd3ca07c	-0.046051487
160	0xbdb2f532	-0.087381735
161	0x3db2fdda	0.087398246
162	0xbdf50ff4	-0.119659334
163	0xbd2a0764	-0.041510954
164	0xbda37eb0	-0.07983148
165	0xbc9f5228	-0.019448355
166	0x3dab6a6c	0.08369908
167	0x3da16bd4	0.07881895
168	0x3d7271b0	0.059190452
169	0x3d6042e0	0.054751277
170	0x3db3f9a4	0.087878495
171	0xbd8a4d3a	-0.06753011
172	0x3d395218	0.045244306
173	0xbd996a30	-0.07490957
174	0x3cc3b518	0.023890063
175	0xbdf965aa	-0.12177594
176	0x3dad4b20	0.084615946
177	0xbdd00e18	-0.10158938
178	0xbd78e9d0	-0.060769856
179	0xbdf4cd3a	-0.11953206
180	0x3ddd3190	0.10800469
181	0x3cbfdb20	0.023419917
182	0xbd3602e4	-0.04443635
183	0x3ce76cc8	0.028250113
184	0xbdb5147e	-0.08841799
185	0x3d76b8ec	0.06023495
186	0xbd0ccbb8	-0.03437397
187	0xbdf74380	-0.120734215
188	0xbdd03bdc	-0.10167667
189	0xbde7a1b8	-0.11310142
190	0x3ccf4870	0.025303096
191	0xbce6d998	-0.028179929
192	0xbd027828	-0.03185287
193	0xbd7cff8c	-0.061767146
194	0xbd340250	-0.043947518
195	0x3d19f870	0.037590444
196	0x3deecf78	0.11660665
197	0x3d113edc	0.035460338
198	0x3d4a94e4	0.0494584
199	0xbc4541c0	-0.012039602
200	0x3dba2d10	0.09090626
201	0x3df218cc	0.11821136
202	0xbc721300	-0.014775038
203	0xbcfc09a0	-0.030766308
204	0x3dc373d8	0.0954358
205	0x3d6246c8	0.055243284
206	0xbd876924	-0.06611851
207	0x3de4da4e	0.11174451
208	0x3b1aa140	0.0023594648
209	0x3d10a5fc	0.035314545
210	0xbdf72328	-0.120672524
211	0xbdcfe7fa	-0.10151668
212	0xbcd55288	-0.02604033
213	0x3ddbc96a	0.10731776
214	0xbcf2d0a8	-0.02964051
215	0x3d8c625c	0.06854698
216	0x3dc81954	0.09770456
217	0x3bbbd480	0.005732119
218	0xbdd89c40	-0.10576677
219	0xbb78b180	-0.0037947595
220	0x3dc43186	0.09579758
221	0x3dd1543c	0.102211446
222	0xbda2644e	-0.07929288
223	0xb9045400	-0.00012619793
224	0x3d3fbe20	0.046812177
225	0x3db7b428	0.08969909
226	0xbd450a78	-0.048105687
227	0x3ae4d500	0.0017458498
228	0x3d988420	0.07447076
229	0xbd8b1770	-0.0679158
230	0x3d1a7ae4	0.037714854
231	0x3d5dfabc	0.054194197
232	0xbdf9cc60	-0.121971846
233	0xbce8f0f0	-0.0284352
234	0xbd00d0b0	-0.03144902
235	0x3d80d1e4	0.062900335
236	0x3dc2e15a	0.09515639
237	0xbc146670	-0.009057626
238	0x3d44c4ac	0.048039123
239	0xbd700754	-0.05860074
240	0x3dd152a8	0.102208436
241	0x3bbedc40	0.0058245957
242	0xbd3229d0	-0.043496907
243	0xbc080b00	-0.008303404
244	0xbd30b834	-0.04314442
245	0xbce30b00	-0.027715206
246	0x3def1b5a	0.11675139
247	0xbd3181cc	-0.043336675
248	0x3dbf0f98	0.09329146
249	0x3dad9efe	0.08477591
250	0xbd825f8e	-0.06365882
251	0x3d9235da	0.071391776
252	0x3dc52fd0	0.0962826
253	0x3de6e38a	0.112738684
254	0xbdcb4f66	-0.099272534
255	0x3deeb1e4	0.11655024

lstm.bias_ih_l0 f4 [256]
0	0xbcf2102c	-0.029548727
1	0xbe06adb1	-0.13152196
2	0x3d879979	0.066210695
3	0x3dcc1af1	0.09966076
4	0xbd29d15d	-0.04145943
5	0xbda50ca1	-0.080590494
6	0xbce4ddc2	-0.027937774
7	0x3ce1cf0c	0.027564548
8	0xbde0ecdb	-0.109826766
9	0xbdc71e8e	-0.09722625
10	0xbd1ed994	-0.038781717
11	0x3dab970f	0.083784215
12	0xbd6ad106	-0.057328247
13	0xbd9189cf	-0.07106363
14	0x3cdc9010	0.026924163
15	0x3c46a591	0.012124435
16	0xbd173aa0	-0.036921144
17	0x3d02e03d	0.03195213
18	0x3e12c5e0	0.14333296
19	0x3b144d26	0.0022628992
20	0xbbea2721	-0.007145778
21	0xbca3e57a	-0.020006884
22	0x3d34b14e	0.044114403
23	0xbd70d3fd	-0.058795918
24	0xbe1a7b5e	-0.15086123
25	0x3d8bc38f	0.06824409
26	0xbdba5c78	-0.09099668
27	0x3e05d100	0.13068008
28	0x3d3cd543	0.04610182
29	0x3cf2444f	0.029573588
30	0xbbbe3e8e	-0.005805797
31	0xbd697e24	-0.057005063
32	0x3d211e0c	0.039335296
33	0x3cc4b475	0.02401183
34	0x3e02f640	0.1278925
35	0x3dbdd400	0.092689514
36	0xbc87b835	-0.016567329
37	0x3e2b7fae	0.16747925
38	0x3dc0ae5f	0.09408259
39	0xbdbd98ba	-0.09257646
40	0x3dcdf0b4	0.10055676
41	0xbdb3759d	-0.08762667
42	0x3dc5f32a	0.096655205
43	0xbe3d81da	-0.18506566
44	0xbdbaa224	-0.09112957
45	0xbe13ca47	-0.14432631
46	0x3d80ac15	0.06282822
47	0xbd86c441	-0.06580401
48	0x3d4f5eff	0.050627705
49	0xba282b31	-0.00064151274
50	0x3ddcd679	0.10783095
51	0x3df0aa1f	0.11751198
52	0xbd12b92f	-0.035821136
53	0x3d676282	0.05649043
54	0x3db31ff0	0.08746326
55	0xbe03b7f5	-0.12863143
56	0x3e2734ca	0.16328731
57	0x3d2ff03f	0.042953726
58	0x3d43dbdd	0.0478171
59	0xbd7bd9f3	-0.06148715
60	0x3c984493	0.018587386
61	0x3dbfa30a	0.09357269
62	0x3d043c89	0.032284293
63	0xbdbeb2c5	-0.09311441
64	0xbdfe9220	-0.12430215
65	0x3df5227a	0.119694665
66	0xbd8c382c	-0.068466514
67	0xbddbc75e	-0.10731386
68	0x3ddcbc3c	0.1077809
69	0x3d5e86d8	0.054327816
70	0x3d6dded0	0.05807382
71	0xbd0a1874	-0.033714727
72	0xbafb7680	-0.0019185096
73	0xbd8c2b14	-0.06844154
74	0x3bb13f60	0.005409166
75	0xbce9a520	-0.02852112
76	0xbdafbb16	-0.08580606
77	0x3dc78b2a	0.0974334
78	0xbd9440e4	-0.072389394
79	0xbd861bbe	-0.0654826
80	0x3cdddf78	0.027084097
81	0xbd055800	-0.032554626
82	0xbd879c62	-0.066216245
83	0xbddf4818	-0.10902423
84	0xbdb6ebd6	-0.08931701
85	0xbc97bb68	-0.01852198
86	0x3b904400	0.0044026375
87	0x3d8f0202	0.06982805
88	0x3c2052c0	0.009785354
89	0xbdd5e04a	-0.1044317
90	0xbd8400c2	-0.06445457
91	0xbd8390e8	-0.06424123
92	0xbd2b6cb0	-0.0418517
93	0xbd46bf88	-0.048522502
94	0xbd90db2c	-0.07073054
95	0x3dd7cfe0	0.10537696
96	0x3bc526a0	0.0060165673
97	0xbd950c50	-0.07277739
98	0xbdcd4418	-0.100227535
99	0x3de83b54	0.11339441
100	0x3d577c04	0.052608505
101	0xbd1fc898	-0.03900966
102	0xbdce6c02	-0.100791946
103	0x3dbb4954	0.091448456
104	0x3dede8cc	0.11616668
105	0x3d8bcf2c	0.06826624
106	0x3df9ef00	0.12203789
107	0xba00f200	-0.00049188733
108	0xbdd99e80	-0.106259346
109	0xbc53e190	-0.012932196
110	0xbdf962b8	-0.12177032
111	0xbd12e930	-0.035866916
112	0xbd8ca51e	-0.06867431
113	0xbdd8979a	-0.10575791
114	0xbd0f361c	-0.034963712
115	0xbd158b38	-0.036509722
116	0xbcd8c390	-0.026460439
117	0xbdf120ee	-0.11773859
118	0xbd191020	-0.037368894
119	0xbd6bd9e4	-0.057580844
120	0x3b8fa380	0.0043835044
121	0xbc4a0810	-0.012331024
122	0x3d9e1d14	0.0772039
123	0xbda7abe8	-0.081870854
124	0x3d41fe54	0.047361687
125	0xbd9a762a	-0.07542069
126	0x3d94c4a6	0.0726407
127	0x3dd8e66a	0.10590823
128	0x3d1c56f6	0.03816887
129	0xbc8657f0	-0.016399354
130	0x3dbb1256	0.09134357
131	0xbd86c6f6	-0.065809175
132	0xbdc7dd86	-0.09759049
133	0xbdde8d01	-0.10866738
134	0xbb505a12	-0.0031791967
135	0xbdfbcc6f	-0.12294852
136	0xbdec494b	-0.11537417
137	0xbc4a90a7	-0.012363589
138	0xbd909256	-0.07059161
139	0xbcb4ad34	-0.022055246
140	0x3d1bec94	0.038067415
141	0x3bd605f9	0.0065314737
142	0x3b71e399	0.003690934
143	0x3cfeb6d5	0.03109304
144	0xbdf6fcd3	-0.12059941
145	0x3d130e5e	0.035902373
146	0xbdbc9608	-0.09208304
147	0x3dbc3b5e	0.09191011
148	0x3cbae3ef	0.022813765
149	0xbe1146a0	-0.14187098
150	0xbdb4cc14	-0.08827987
151	0xbe04f9a1	-0.12985851
152	0x3e1343ca	0.14381328
153	0xbd2b67d0	-0.04184705
154	0xbe1e565e	-0.15462634
155	0x3d00f674	0.031485036
156	0xbda335bd	-0.07969234
157	0x3d04eeb0	0.032454193
158	0xbd805675	-0.0626649
159	0x3e40ef69	0.18841328
160	0xbd189abb	-0.037256937
161	0xbd2b5742	-0.041831262
162	0x3d816b5a	0.06319304
163	0xbd224d61	-0.039624576
164	0xbdcd0a29	-0.100117035
165	0x3de6a921	0.112627275
166	0x3e2b3e2f	0.1672294
167	0xbda2e996	-0.07954709
168	0x3c0fae0e	0.008769525
169	0xbd9c8681	-0.07642842
170	0x3d5f6599	0.05454025
171	0x3d72e85b	0.059303623
172	0x3de35b15	0.11101357
173	0xbe2e7398	-0.17036283
174	0xbd8ca168	-0.06866723
175	0xbcf873c4	-0.030328639
176	0x3c8e1fd5	0.017349163
177	0x3db0b7f8	0.08628839
178	0xbda7e218	-0.08197421
179	0xbd0747fa	-0.033027627
180	0x3d32d650	0.043661416
181	0xbdd7ec26	-0.105430886
182	0x3dab74c3	0.0837188
183	0xbbdba3ee	-0.0067028916
184	0xbda78555	-0.08179728
185	0xbdc0a5ee	-0.094066486
186	0x3d25058c	0.040288493
187	0xbc2f4f1f	-0.010700016
188	0xbbf2da6c	-0.007411292
189	0x3d4e9753	0.050437283
190	0xbb95ada7	-0.00456782
191	0x3d8ef0a3	0.069794916
192	0x3d102703	0.035193454
193	0xbe1082b1	-0.14112355
194	0x3d32ab83	0.043620598
195	0x3dd09fd5	0.101867355
196	0xbccb7035	-0.024833778
197	0xba8c4d50	-0.0010704193
198	0xbd4e1a25	-0.050317902
199	0x3e0fbd2a	0.14037004
200	0x3b68f8f8	0.0035548788
201	0x3dbeacab	0.093102776
202	0xbdb7ef9e	-0.0898125
203	0x3ddb1296	0.10696904
204	0xbdeb873e	-0.11500405
205	0xbd620684	-0.055181995
206	0x3e0d29d0	0.13785481
207	0x3de4fb0e	0.111806974
208	0x3df77aaa	0.12083943
209	0xbc8fbc32	-0.017545793
210	0x3e28c1e3	0.16480212
211	0x3dbbb4ca	0.09165342
212	0xbd4ec240	-0.05047822
213	0x3cc4c18d	0.024018073
214	0xbd652d33	-0.05595131
215	0x3d2c3126	0.04203906
216	0x3d1a6bf5	0.037700612
217	0x3d2d3178	0.042283505
218	0x3da3de5f	0.08001398
219	0x3dd9deb4	0.106381804
220	0xbde3c68e	-0.11121856
221	0xbd87135a	-0.06595488
222	0x3b9043f4	0.004402632
223	0x3c48b15e	0.012249319
224	0x3db22302	0.086980835
225	0xbc8cd8be	-0.017193194
226	0x3c7f7aec	0.015593272
227	0x3e1cc364	0.1530891
228	0x3d8a7c23	0.067619585
229	0x3e10054f	0.14064525
230	0x3e0f7b08	0.14011776
231	0xbd21525f	-0.039385196
232	0x3be664f3	0.007031077
233	0x3d2fea7c	0.04294823
234	0x3d016497	0.03159007
235	0xbd5b92b2	-0.053606696
236	0xbdb64664	-0.08900145
237	0x3dcc8a5b	0.09987327
238	0xbc2d3878	-0.010572545
239	0xbcff082c	-0.031131826
240	0xbc297f9c	-0.010345366
241	0x3d3ba329	0.0458099
242	0xbbe359ec	-0.0069382098
243	0x3ddd018d	0.107913114
244	0x3df0b6ca	0.11753614
245	0x3c19b317	0.009381077
246	0x3cfa2c23	0.030538624
247	0x3c39924c	0.011326384
248	0x3db23af0	0.08702648
249	0xbdb33a2b	-0.08751329
250	0x3de50364	0.11182287
251	0xbce513cc	-0.027963541
252	0x3c3b4d4c	0.011432003
253	0x3e1866f8	0.1488303
254	0x3dfecf4d	0.12441883
255	0x3d846625	0.06464795

lstm.bias_hh_l0 f4 [256]
0	0xbc4ae954	-0.012384731
1	0xbd749b01	-0.059718136
2	0x3d9c3d83	0.0762892
3	0x3cf6464a	0.030062813
4	0x3c5d56a2	0.013509424
5	0x3d2d4916	0.04230603
6	0x3ca3f88e	0.020015981
7	0x3e147ee9	0.14501537
8	0xbd03fce4	-0.032223597
9	0x3cf55cb3	0.029951429
10	0xbd888364	-0.06665686
11	0x3d75eacb	0.06003837
12	0xbd11f96c	-0.035638258
13	0xbd46f814	-0.04857643
14	0xbc240fc9	-0.010013529
15	0x3dd1dfde	0.102477774
16	0x3ca041db	0.019562652
17	0x3dd12fd4	0.102142006
18	0x3daae9c4	0.083453685
19	0xbc62790b	-0.013822804
20	0x3dd23684	0.10264304
21	0xbe009b4b	-0.1255924
22	0xbd21e18c	-0.03952174
23	0xbd4d958f	-0.05019146
24	0xbda2bf81	-0.07946683
25	0xbb32559a	-0.0027211667
26	0x3d23ab92	0.039958544
27	0x3d3b9f4c	0.045806214
28	0xbdba99ad	-0.091113426
29	0x3e14ded5	0.14538129
30	0x3d5337ed	0.051567007
31	0xbc922048	-0.017837659
32	0x3b22b214	0.002482538
33	0x3e2d2a8f	0.16910766
34	0x3c58bae9	0.013228157
35	0xbd0fffb6	-0.035155974
36	0x3df98064	0.12182692
37	0xba1f262e	-0.0006071058
38	0xbd2555be	-0.040364973
39	0xbd8af17c	-0.06784341
40	0x3e1de6d7	0.1542009
41	0xbd2e5458	-0.042560905
42	0xbd8017f6	-0.0625457
43	0xbde61742	-0.11234905
44	0xbe217e27	-0.1577078
45	0xbddb6ddd	-0.10714314
46	0x3d82ac7b	0.06380554
47	0xbd989e7f	-0.07452106
48	0xbe1c1d3f	-0.15245531
49	0x3d9db9ae	0.07701431
50	0x3ddedd99	0.1088211
51	0xbc219272	-0.009861575
52	0x3d9dcd99	0.0770523
53	0x3e1373f3	0.143997
54	0x3da469b8	0.08027977
55	0x3d2f7c56	0.042843185
56	0x3d57f586	0.052724384
57	0x3d770425	0.060306687
58	0xbc64994d	-0.013952565
59	0x3da3e0c7	0.08001857
60	0xbdcc0482	-0.09961797
61	0xbda7e10e	-0.08197223
62	0xbd61a7b5	-0.05509158
63	0x3bcdd54d	0.006281531
64	0xbdb7320c	-0.089450926
65	0xbdb213bc	-0.0869517
66	0x3d9c1a86	0.076222464
67	0xbd8e47a2	-0.069472566
68	0xbdff1596	-0.12455289
69	0x3d8d3386	0.06894593
70	0x3d6702a8	0.056399018
71	0x3da28d7c	0.07937142
72	0x3d26cdf0	0.04072374
73	0xbd2737a8	-0.040824562
74	0xbd66a3d0	-0.056308568
75	0xbcd59470	-0.026071757
76	0xbd5b0134	-0.053467944
77	0xbd371268	-0.044695288
78	0xbd91b896	-0.07115285
79	0xbdfbec62	-0.12300946
80	0xbd140b50	-0.0361436
81	0x3dc7536e	0.0973271
82	0x3dd0b098	0.101899326
83	0x3cfd1ca0	0.030897439
84	0xbd1e8898	-0.038704485
85	0x3dd5aeee	0.10433756
86	0x3db256e0	0.08707976
87	0xbb66c200	-0.0035210848
88	0xbdee2c7c	-0.116295785
89	0x3c07d550	0.008290604
90	0x3df56bf6	0.119834825
91	0xbd28b748	-0.041190416
92	0xbdc9cfb6	-0.09854071
93	0xbd7a3294	-0.06108339
94	0xbdd6e9e4	-0.1049383
95	0xbda25658	-0.07926625
96	0x3dcb1958	0.09916943
97	0x3d162da0	0.036664605
98	0x3dc467b2	0.09590091
99	0xbdb71682	-0.0893984
100	0xbd9c92a6	-0.076451585
101	0x3df87832	0.121323004
102	0xbdacd872	-0.08439721
103	0x3df88c28	0.12136108
104	0xbd2d954c	-0.04237871
105	0xbcc557a8	-0.02408965
106	0x3d8b0852	0.06788696
107	0xbd5ab860	-0.05339849
108	0xbd6a43e4	-0.05719365
109	0xbcff6e88	-0.031180635
110	0x3dfd834e	0.1237856
111	0x3c9714d8	0.018442556
112	0x3d85ff22	0.06542803
113	0xbd46bce4	-0.048519984
114	0xbdd20928	-0.10255653
115	0x3de412d6	0.11136405
116	0xbd11bbd4	-0.035579517
117	0xbd5fb41c	-0.054615125
118	0xbc28c500	-0.010300875
119	0xbce42ed0	-0.027854353
120	0xbdc59f56	-0.096495315
121	0x3deedec4	0.11663583
122	0xbd1099fc	-0.0353031
123	0xbddfe2ec	-0.10931954
124	0xbdbd43ee	-0.09241472
125	0x3d353fc0	0.04425025
126	0xbddf0002	-0.10888673
127	0x3cb084a8	0.02154763
128	0xbd9d0056	-0.0766608
129	0xbe24ee1a	-0.16106454
130	0xbcb566a5	-0.022143671
131	0xbde9cae6	-0.11415653
132	0xbdc54536	-0.096323416
133	0x3ad51731	0.0016257522
134	0x3ccc74bd	0.024958009
135	0xbd2d5ab1	-0.04232282
136	0xbe00b996	-0.12570795
137	0x3bbd7c33	0.005782628
138	0xbcc13405	-0.023584375
139	0x3df4b1e7	0.11947995
140	0x3b1de2b1	0.0024091417
141	0xbc96edee	-0.018424
142	0x3cd6e56b	0.026232442
143	0xbd91f86e	-0.07127462
144	0xbc7fccb1	-0.015612767
145	0xbdd8ab24	-0.105795175
146	0x3d927ae6	0.07152347
147	0xbd2c66de	-0.04209029
148	0x3df1ec5f	0.11812662
149	0xbdbc526c	-0.09195408
150	0xbca0e41c	-0.019640021
151	0xbd9eae1b	-0.07748052
152	0xbd98ddf1	-0.07464207
153	0x3d935986	0.071948096
154	0xbda2a4f5	-0.07941619
155	0x3dca9db2	0.09893359
156	0xbcc147af	-0.023593752
157	0xbdecf515	-0.11570183
158	0x3ddfca85	0.109272994
159	0xbb961468	-0.0045800693
160	0xbdab5377	-0.08365529
161	0xbdf6156b	-0.12015804
162	0x3da48bae	0.08034454
163	0x3dec7f40	0.115477085
164	0x3ceaf8f9	0.028683173
165	0x3dc21fcb	0.0947872
166	0xbd077fae	-0.03308075
167	0xbe06be7b	-0.131586
168	0x3c3acd98	0.011401556
169	0xbc8d9210	-0.017281562
170	0x3d57a0e1	0.05264366
171	0x3d7ff230	0.062486827
172	0x3d5073c1	0.05089164
173	0xbc989d39	-0.018629657
174	0xbdd02c6a	-0.10164721
175	0xbd8ed64f	-0.0697447
176	0x3d24f881	0.040276054
177	0x3d375a41	0.044763807
178	0x3d94d3a2	0.07266928
179	0x3d159cd8	0.03652653
180	0xbdfa2f4a	-0.12216051
181	0x3da602ea	0.081060246
182	0xbd3d5088	-0.04621938
183	0xbddbd32e	-0.10733639
184	0xbdccc271	-0.09998024
185	0xbe14e80c	-0.14541644
186	0x3cd7ef7c	0.026359312
187	0xbdb3afa5	-0.08773736
188	0x3d7c3c5f	0.06158101
189	0xbd0b29df	-0.03397548
190	0xbd59d90d	-0.05318551
191	0xbe176334	-0.14783937
192	0x3e2f876a	0.171415
193	0xbd9a1dde	-0.07525228
194	0x3d56dbfd	0.05245589
195	0xbcf73c2b	-0.030180058
196	0xbda2cc89	-0.07949168
197	0xbe129b43	-0.1431704
198	0xbe015c11	-0.12632777
199	0x3dd22f8c	0.10262975
200	0xbe011dcd	-0.12609024
201	0xbe0adbf3	-0.13560466
202	0x3d0cba68	0.03435746
203	0x3d0449c5	0.032296915
204	0xbd9a0fd8	-0.07522553
205	0x3df756f7	0.12077134
206	0xbd8aa604	-0.06769946
207	0xbdd00168	-0.10156518
208	0x3cc9e179	0.024643647
209	0xbdd55409	-0.10416419
210	0x3dd07f6f	0.10180556
211	0x3cd61a96	0.026135724
212	0x3d2ea7fc	0.04264067
213	0xbd67fec3	-0.056639444
214	0x3d8e37a5	0.06944207
215	0x3aa77667	0.0012776376
216	0xbdb82107	-0.089906745
217	0x3dae1534	0.08500138
218	0xbdbed7c1	-0.093184955
219	0xbd92a5d2	-0.07160534
220	0x3d76d2ef	0.060259756
221	0x3d43d63f	0.047811743
222	0xbd6aca07	-0.057321575
223	0x3df2c998	0.11854857
224	0x3d973e66	0.073849484
225	0x3d460984	0.04834892
226	0x3ca9a55c	0.020708732
227	0x3d23b7a0	0.03997004
228	0xbdcf7b84	-0.101309806
229	0xbd967c01	-0.073478706
230	0x3c6482d5	0.013947208
231	0xbcc066e1	-0.023486556
232	0x3e169bed	0.14707918
233	0xbd95d31f	-0.07315659
234	0x3b829e54	0.0039861593
235	0xbdbc61e3	-0.09198358
236	0xbdce116a	-0.10061915
237	0x3d9c9e73	0.07647409
238	0x3c1703d4	0.009217221
239	0xbd7270a8	-0.05918947
240	0x3d1544d3	0.03644259
241	0xbd22e167	-0.03976574
242	0x3c00907b	0.007846947
243	0x3d20be66	0.039244078
244	0x3dce4ff8	0.100738466
245	0xbd6c9af8	-0.057764977
246	0xbccbad71	-0.024862977
247	0x3e095aef	0.13413595
248	0xbc428271	-0.01187192
249	0xbdb1db0c	-0.08684358
250	0x3cf1cb99	0.029516028
251	0xbdee831e	-0.11646102
252	0xbdd20307	-0.10254484
253	0x3e0eb24e	0.13935205
254	0x3df6fac9	0.12059552
255	0x3c56b6af	0.013105079

linear.weight f4 [32, 64]
0	0xbe60adbd	-0.21941276
1	0xbe419217	-0.18903385
2	0x3e09b929	0.13449539
3	0x3dd30b2a	0.10304864
4	0xbd370b6f	-0.04468864
5	0xbcbc9f2c	-0.023025118
6	0x3ccf1e55	0.025283018
7	0xbe0f13a1	-0.13972332
8	0xbcc6d440	-0.02427113
9	0x3e23187f	0.15927313
10	0x3df6de60	0.120541334
11	0xbce6467f	-0.028109787
12	0x3de1b17e	0.11020182
13	0x3d9295ec	0.071575016
14	0x3be7d54e	0.0070749884
15	0x3c0365a7	0.008019841
16	0x3e4138bb	0.18869297
17	0x3e28b4d1	0.16475226
18	0x3e002288	0.12513173
19	0x3b3b7cea	0.002860839
20	0x3db65e36	0.08904688
21	0x3e8a4532	0.27005917
22	0xbd091b3a	-0.03347323
23	0x3e20a7c6	0.15689
24	0xbe0d8125	-0.13818796
25	0xbe0cdbbf	-0.13755701
26	0x3d40c108	0.04705909
27	0x3e12105b	0.14264052
28	0x3d84297f	0.06453227
29	0x3e0188f2	0.12649897
30	0xbd1d4213	-0.03839309
31	0xbdf4c417	-0.11951464
32	0x3d6917f2	0.0569076
33	0x3d5082b8	0.050905913
34	0x3e38c82f	0.18045114
35	0xbe0b6c84	-0.13615614
36	0xbd766c02	-0.060161598
37	0xbdf29d4c	-0.11846408
38	0x3e23f423	0.160111
39	0x3e3a9ae7	0.18223153
40	0x3e092aef	0.13395284
41	0xbe6f292f	-0.23355554
42	0x3e3463c5	0.17616184
43	0xbb9faec1	-0.004873127
44	0xbd75a262	-0.059969313
45	0x3d41ce18	0.047315687
46	0x3d58d97a	0.052941777
47	0xbdb76387	-0.0895453
48	0x3cf5af15	0.029990712
49	0x3dd95660	0.10612178
50	0xbd0679da	-0.03283105
51	0x3db9c911	0.090715535
52	0xbc7edaf1	-0.015555129
53	0xbde7abc5	-0.11312059
54	0xbde5bbc3	-0.11217453
55	0xbd3eac23	-0.04655088
56	0x3d6a3d58	0.05718741
57	0xbcd8342f	-0.02639207
58	0x3dfa6974	0.12227145
59	0x3c96d09c	0.01841002
60	0x3d9f3b97	0.07775038
61	0x3e25cad9	0.16190661
62	0x3e163499	0.14668502
63	0x3c8273ec	0.015924416
64	0xbe0392e7	-0.12849008
65	0xbd9261b3	-0.07147541
66	0x3d2d2f1a	0.042281248
67	0x3ce4e70f	0.027942209
68	0xbdfefeef	-0.124509685
69	0xbe0e4468	-0.13893282
70	0xbd67f565	-0.05663051
71	0xbd7969c2	-0.060891874
72	0xbe1e73b8	-0.1547383
73	0x3db2da7e	0.0873308
74	0x3d87ec8b	0.06636914
75	0x3c1f94bf	0.009740054
76	0xbd07fa82	-0.033197887
77	0x3dd9792e	0.10618816
78	0xbb34c4bb	-0.002758308
79	0xbd5e2157	-0.054231014
80	0x3e40846c	0.18800515
81	0x3d15339d	0.036426175
82	0x3e459113	0.19293623
83	0x3e0d4e3e	0.13799378
84	0xbe0c373c	-0.13692945
85	0x3e718a2a	0.23587862
86	0xbdefa398	-0.11701125
87	0xbd32a399	-0.04361305
88	0xbe1b334b	-0.15156285
89	0xbe292a3f	-0.16520022
90	0xbcccb6a6	-0.024989437
91	0x3e144e87	0.14483081
92	0x3e0a10c2	0.13482955
93	0x3caf39f7	0.021389944
94	0xbe0d4261	-0.13794853
95	0xbd21cb5e	-0.039500587
96	0xbde94b89	-0.1139136
97	0x3e33b890	0.17550874
98	0x3d90e66d	0.070752
99	0xbe5e9cd7	-0.21739517
100	0xbe12ae0f	-0.1432421
101	0x3cc74bb4	0.02432809
102	0xbd4981c8	-0.049196035
103	0x3d827dd1	0.06371654
104	0x3dba7d61	0.091059454
105	0xbeae00ec	-0.33985078
106	0x3c9c86fb	0.019107332
107	0xbd0dd43f	-0.03462624
108	0xbd404929	-0.04694477
109	0x3da95c52	0.08269562
110	0xbd62139a	-0.055194475
111	0x3a80f7af	0.000983944
112	0xbd774dc5	-0.0603769
113	0x3e23b544	0.15987116
114	0x3d2078da	0.039177753
115	0x3d7d1a87	0.061792877
116	0xbc1c4049	-0.009536811
117	0xbd38548b	-0.0450025
118	0xbdea5808	-0.11442572
119	0xbd3b4227	-0.045717385
120	0xbe191cca	-0.14952388
121	0xbcd023a7	-0.025407625
122	0xbd3333aa	-0.043750443
123	0xbcdb3d87	-0.026762737
124	0x3e682e74	0.2267397
125	0x3c739df9	0.014869207
126	0x3e218dbc	0.15776724
127	0x3e47dcef	0.19517873
128	0x3e377113	0.17914228
129	0x3e8ef57a	0.2792166
130	0xbd7c100b	-0.061538737
131	0xbc8253c2	-0.01590908
132	0x3cbfedc6	0.023428809
133	0x3dd790fa	0.10525699
134	0xbb9d7e84	-0.0048063416
135	0xbd61f1f1	-0.055162374
136	0x3e1c29bd	0.15250297
137	0xbd954a02	-0.072895065
138	0xbe2533cd	-0.16133042
139	0xbe221559	-0.15828456
140	0xbe1ff22c	-0.15619725
141	0xbd6a91bd	-0.057267893
142	0x3bdfb5d2	0.0068270946
143	0xbd0d2cb9	-0.03446648
144	0xbe7794ca	-0.24177852
145	0xbd7b6d9e	-0.061383836
146	0xbdd858d5	-0.10563818
147	0xbd5705e5	-0.052495856
148	0x3db46fe9	0.08810408
149	0xbe0a1b7a	-0.13487044
150	0x3d7d3887	0.061821487
151	0xbdd82125	-0.10553197
152	0x3d35d34f	0.044390973
153	0x3df84b06	0.121236846
154	0xbe18a6b2	-0.14907339
155	0xbe292d8b	-0.1652128
156	0xbd78acba	-0.0607116
157	0xbdd2a7fa	-0.10285945
158	0x3d4782de	0.04870879
159	0x3e0880b5	0.13330348
160	0xbd7ac287	-0.061220672
161	0xbe15d57a	-0.14632216
162	0x3cf0ecef	0.029409854
163	0x3cd51589	0.026011245
164	0x3e023ce9	0.12718548
165	0x3e19b701	0.15011217
166	0xbd7ba123	-0.06143297
167	0xbe5ac495	-0.21364053
168	0xbdcc5c2d	-0.09978519
169	0x3e089e92	0.1334174
170	0xbdf03ead	-0.117307045
171	0x3d80f9cd	0.06297646
172	0xbc36dc07	-0.011160857
173	0xbd0f05fa	-0.03491781
174	0x3e1713a7	0.1475359
175	0xbaed8355	-0.0018120805
176	0x3e207e3f	0.15673159
177	0xbe1a62ae	-0.15076706
178	0xbdd1deb2	-0.10247554
179	0xbcd98245	-0.026551375
180	0x3d2a1e9c	0.041533098
181	0x3d726623	0.059179436
182	0x3e14c326	0.14527568
183	0x3e2b1f54	0.1671117
184	0x3de11910	0.109911084
185	0xbe393104	-0.18085104
186	0xbe100f2c	-0.14068288
187	0xbbda8aa5	-0.0066693597
188	0xbd97a345	-0.07404188
189	0x3d20be50	0.039243996
190	0xbd6b09d0	-0.057382405
191	0xbe0da70d	-0.13833256
192	0xbe92c33b	-0.28664574
193	0xbea04186	-0.3129999
194	0x3e3bac45	0.18327434
195	0x3e02abe9	0.12760891
196	0x39f4c5aa	0.00046686578
197	0xbe112595	-0.14174493
198	0xbb011dec	-0.0019701673
199	0xbe275e35	-0.16344531
200	0x3cffe254	0.031235851
201	0x3e29221d	0.1651692
202	0x3e371415	0.17878754
203	0x3e260e24	0.16216332
204	0x3e4750c7	0.19464408
205	0x3d5c5c49	0.053798947
206	0xbca94798	-0.020664021
207	0xbd6f00a0	-0.058350205
208	0x3dcb52da	0.09927912
209	0x3e405a44	0.18784434
210	0xbd041bcc	-0.03225307
211	0xbcae195f	-0.021252332
212	0xbc81df97	-0.015853686
213	0x3e3ccfd7	0.1843866
214	0xbd8ac613	-0.06776061
215	0x3da4ddf3	0.08050146
216	0xbd405a7e	-0.0469613
217	0x3b3805f6	0.0028079725
218	0x3e1e734c	0.1547367
219	0xb9d9ea10	-0.00041563855
220	0x3e0a3cfe	0.13499829
221	0x3dab511b	0.08365079
222	0xbdf9e11e	-0.12201141
223	0xbbaa8ceb	-0.005204787
224	0xbe0ed331	-0.1394775
225	0x3d66fc71	0.05639309
226	0x3d272878	0.04081008
227	0xbd586ea8	-0.052839905
228	0xbdc405dd	-0.09571431
229	0xbd02efef	-0.0319671
230	0x3dbfb11f	0.09359955
231	0x3dec2a50	0.11531508
232	0x3d2dc281	0.04242182
233	0xbe86eb91	-0.26351598
234	0x3db61ad9	0.088918395
235	0xbe12e99d	-0.14346929
236	0xbd674a1d	-0.056467164
237	0x3da2016f	0.0791043
238	0xbe11930c	-0.1421625
239	0xbe1a060a	-0.15041366
240	0xbe28d073	-0.16485767
241	0xbd536e55	-0.051618893
242	0xbdb91dec	-0.0903891
243	0x3e2ba345	0.16761501
244	0xbbb9ecd2	-0.005673983
245	0x3ac53b90	0.0015047658
246	0xbdae2520	-0.08503175
247	0xbe0e1a11	-0.13877131
248	0x3d16d3ff	0.03682327
249	0x3d51dec5	0.05123784
250	0xbd9e9840	-0.07743883
251	0x3c7ccbf8	0.015429489
252	0x3e80c1be	0.25147814
253	0x3cd8f176	0.026482325
254	0x3e21dde3	0.158073
255	0x3e30e30d	0.17274113

linear.bias f4 [32]
0	0xbd72fafa	-0.05932138
1	0xba45fcf8	-0.0007552649
2	0xbd42b1ee	-0.04753297
3	0x3ddfe804	0.10932925
4	0x3dec7795	0.11546246
5	0xbc1594a6	-0.009129679
6	0x3d8edeea	0.06976111
7	0xbd8869c6	-0.066608
8	0xbdba049d	-0.09082911
9	0xbdcf6049	-0.10125787
10	0x3da47ea5	0.08031968
11	0x3da9163d	0.08256195
12	0xbd646ea8	-0.055769593
13	0xbdf170a1	-0.117890604
14	0xbd604321	-0.05475152
15	0xbdf2529b	-0.11832162
16	0x3d230fd4	0.039810017
17	0xbda419e7	-0.08012753
18	0x3d8bbcf8	0.06823152
19	0xbd7e317b	-0.062058907
20	0x3d4321f7	0.047639813
21	0xbd77ea5f	-0.060526248
22	0x3d780ba1	0.060557965
23	0x3e06ea6a	0.1317536
24	0xbd48de1f	-0.049039956
25	0xbbe92066	-0.007114458
26	0x3dae5052	0.08511414
27	0x3d53e0b6	0.051727973
28	0xbd0e62d5	-0.034762222
29	0x3d4d7323	0.05015863
30	0xbd879a07	-0.06621175
31	0x3da0277c	0.07820031

linear1.weight f4 [1, 32]
0	0x3e926c51	0.28598264
1	0x3e6c71e8	0.23090327
2	0xbe40cb39	-0.18827523
3	0x3e3629ba	0.17789355
4	0x3e2674f6	0.16255555
5	0xbe7368c4	-0.23770434
6	0xbe5f8377	-0.21827494
7	0x3e33630a	0.17518249
8	0xbe664749	-0.2248813
9	0x3e588e66	0.2114807
10	0xbe91b4fc	-0.28458393
11	0x3e88156f	0.26578853
12	0xbe52d275	-0.20588095
13	0xbe0b0f27	-0.13579999
14	0xbe8a074d	-0.26958695
15	0xbe8edbaf	-0.2790198
16	0xbe374c16	-0.17900118
17	0xbe836c04	-0.25668347
18	0xbe901b08	-0.28145623
19	0x3e877119	0.26453474
20	0x3e5a8208	0.21338665
21	0x3e2fbe65	0.17162473
22	0x3e309b70	0.17246795
23	0x3e1fa65d	0.15590806
24	0x3e552477	0.20814691
25	0xbe91028b	-0.28322253
26	0xbe9b535d	-0.3033704
27	0x3e2c3e32	0.168206
28	0x3e4a7707	0.19771968
29	0x3e535f50	0.20641828
30	0xbe637f73	-0.22216587
31	0x3e5c3b48	0.21506989

exp_avg f4 [256, 26]
0	0x39331ea8	0.0001708219
1	0xb7cd6a55	-2.4487419e-05
2	0x38226725	3.871987e-05
3	0xb9470291	-0.00018979075
4	0x38972be1	7.208414e-05
5	0xb941da8a	-0.00018487326
6	0x38c5d904	9.434114e-05
7	0xb9a4046f	-0.0003128382
8	0x37655187	1.3668446e-05
9	0x38de52f2	0.00010601235
10	0xb773371a	-1.4496758e-05
11	0x384876b0	4.7794252e-05
12	0xb8772fe0	-5.8933976e-05
13	0xb963f27f	-0.00021738744
14	0x394aab2a	0.00019327985
15	0x3948dc98	0.00019155664
16	0x3936f34a	0.00017447505
17	0x398d8eb2	0.00026999932
18	0x393876db	0.00017591885
19	0x39401aec	0.00018320576
20	0x393eb706	0.00018187994
21	0x39c8e174	0.00038314948
22	0x3943ee5b	0.00018685444
23	0x39b5abcc	0.0003465101
24	0x394a9c70	0.00019322499
25	0x39dc724b	0.00042046825
26	0xb8d57a14	-0.0001017937
27	0xb790fce1	-1.7283894e-05
28	0x38d7c803	0.00010289254
29	0x39cadeb4	0.0003869437
30	0xb8eb4b35	-0.000112196816
31	0x39c45ea3	0.00037454543
32	0x39a7ffd2	0.00032043323
33	0x37f952e2	2.9721708e-05
34	0xb906afd7	-0.00012844741
35	0xb97417e6	-0.00023278556
36	0x39f37ae5	0.00046440135
37	0x35b8f65a	1.3780766e-06
38	0x3949d8e8	0.00019249658
39	0xb994ba87	-0.00028367733
40	0xb9ad7ec3	-0.00033091576
41	0xb9a1a932	-0.00030834373
42	0xb8cfe395	-9.9129196e-05
43	0x384b5ff9	4.8488353e-05
44	0xb8caac02	-9.6641495e-05
45	0x384b28c2	4.843693e-05
46	0xb8ca2748	-9.639427e-05
47	0xb8587910	-5.161116e-05
48	0xb8d04272	-9.930589e-05
49	0xb94dce2b	-0.00019627127
50	0xb8cb9a93	-9.708586e-05
51	0x3830b3fb	4.212929e-05
52	0x390323d5	0.00012506482
53	0x39bf6b56	0.0003651033
54	0xb8b8ae74	-8.806298e-05
55	0x38cb3643	9.689901e-05
56	0xb927e0e0	-0.00016010134
57	0x39293bfc	0.00016139442
58	0xb8d6667a	-0.00010223403
59	0x39084d57	0.00012998782
60	0xb8ad766a	-8.271339e-05
61	0xb9232473	-0.0001555847
62	0x39449b9e	0.00018749989
63	0x37fc564f	3.0080932e-05
64	0x37c941ad	2.399165e-05
65	0x383b902f	4.4718556e-05
66	0x37897b0c	1.638897e-05
67	0x37d0cb2f	2.4890147e-05
68	0x390756f6	0.00012906999
69	0x3985cf0e	0.00025522005
70	0x390a682f	0.00013199517
71	0x3967e23e	0.00022114158
72	0x390c52ee	0.00013382334
73	0x39305c24	0.00016818993
74	0x390f9980	0.00013694726
75	0x397190b1	0.00023037453
76	0x3914b771	0.00014182717
77	0x39a6ccd9	0.0003181461
78	0x39098a93	0.00013116961
79	0x39069611	0.0001283514
80	0xb7fe02c7	-3.0280453e-05
81	0xb7898a04	-1.6395941e-05
82	0xb7345868	-1.074942e-05
83	0x37309246	1.0524474e-05
84	0x36979a42	4.5181087e-06
85	0xb57d1bb4	-9.429016e-07
86	0xb7a33104	-1.9453939e-05
87	0xb7a4e8de	-1.965876e-05
88	0x3761243d	1.34194825e-05
89	0x3839e4d2	4.4320543e-05
90	0xb89a575a	-7.359563e-05
91	0xb6a55543	-4.927309e-06
92	0x3828bb71	4.022889e-05
93	0x382328bb	3.890016e-05
94	0x39090715	0.00013067976
95	0x3887f24f	6.482435e-05
96	0x390886a6	0.00013020131
97	0x3888efbf	6.5296415e-05
98	0x3908a1eb	0.0001303029
99	0x38bae893	8.9124915e-05
100	0x390777f6	0.00012919292
101	0x380e3f56	3.3914424e-05
102	0x3907adf7	0.0001293941
103	0x38c00136	9.155499e-05
104	0x3910a79f	0.00013795354
105	0x3a276daa	0.00063868857
106	0xb95ddf1f	-0.00021159321
107	0x398b5e76	0.00026582525
108	0xb9aaf253	-0.00032605472
109	0x39826408	0.0002487006
110	0xb9864978	-0.0002561321
111	0x3992d6f0	0.0002800743
112	0xb991bac8	-0.00027795718
113	0xb9c68493	-0.00037864278
114	0x39a91482	0.0003224947
115	0x38b93c2c	8.832695e-05
116	0x39a4add6	0.00031410035
117	0xb71b5689	-9.258868e-06
118	0xb8800797	-6.104929e-05
119	0xb6c21f44	-5.7852903e-06
120	0x39160353	0.00014306353
121	0x39a34a42	0.0003114511
122	0x391d49bc	0.00015000155
123	0x39d9db81	0.00041553008
124	0x391d1894	0.00014981843
125	0x38baea5f	8.912826e-05
126	0x391f7962	0.0001520864
127	0x39535623	0.00020154617
128	0x3924401e	0.00015664144
129	0x39a3c510	0.00031236606
130	0x392eea52	0.00016681224
131	0x39b5e4c0	0.00034693442
132	0xb82d5aea	-4.1331085e-05
133	0x380a1974	3.292547e-05
134	0xb878afc8	-5.9291517e-05
135	0x370c1079	8.348486e-06
136	0xb85d76c1	-5.2801104e-05
137	0xb7b3b7b8	-2.1424014e-05
138	0xb83ec64b	-4.5484205e-05
139	0xb88692a7	-6.416934e-05
140	0x38c81cc8	9.542104e-05
141	0x38caf526	9.677773e-05
142	0xb6e31114	-6.7671153e-06
143	0x3770c252	1.43503585e-05
144	0x3871909c	5.7593556e-05
145	0x3873da0b	5.8138783e-05
146	0x39315444	0.00016911427
147	0x395b159a	0.00020893515
148	0x3930fba3	0.0001687841
149	0x38cd2722	9.782451e-05
150	0x39332db8	0.00017087802
151	0x3955f828	0.00020405708
152	0x39356172	0.00017297806
153	0x39599ffc	0.00020754331
154	0x3938f847	0.00017640098
155	0x398e99c5	0.00027198918
156	0x38a9eddf	8.102855e-05
157	0x3984361d	0.0002521732
158	0xb87ef599	-6.078705e-05
159	0x3782f714	1.5612262e-05
160	0xb808d451	-3.2622662e-05
161	0xb8d83e48	-0.000103112834
162	0xb93c8ad0	-0.00017980789
163	0x37d438c8	2.529881e-05
164	0xb8c7a68d	-9.520082e-05
165	0xb865060a	-5.460348e-05
166	0x387e6be9	6.065882e-05
167	0xb7e4cd56	-2.7275335e-05
168	0x38b8de0d	8.815164e-05
169	0xb8ed893f	-0.00011326605
170	0x388f810e	6.84281e-05
171	0x38a14a88	7.690961e-05
172	0x38ad144f	8.2530656e-05
173	0x38f7a7bf	0.00011809123
174	0x38aa89a4	8.131869e-05
175	0xb53c6fab	-7.0197956e-07
176	0x38b0114e	8.395557e-05
177	0x39341820	0.00017175125
178	0x38b66c64	8.6986256e-05
179	0x394b09c4	0.00019363227
180	0x38bd62f9	9.0306574e-05
181	0x395ede65	0.00021254418
182	0x3914f038	0.00014203868
183	0x396e1576	0.00022705444
184	0xb94aebfb	-0.00019352131
185	0xb75105f7	-1.245876e-05
186	0xb970e221	-0.00022972423
187	0xb89d0179	-7.486618e-05
188	0xb963739f	-0.00021691479
189	0x373c581a	1.1226186e-05
190	0xb9051fa2	-0.00012695653
191	0xb8e69204	-0.00010994452
192	0x396ecbde	0.00022773395
193	0xb8b73e6b	-8.737746e-05
194	0x397d8e13	0.00024180887
195	0xb96822f0	-0.0002213826
196	0x39037bbc	0.00012539228
197	0x3903581e	0.0001252596
198	0x39121a06	0.0001393334
199	0xb7c7fdfa	-2.3840916e-05
200	0x39142f3d	0.00014131978
201	0x3941b19a	0.00018472076
202	0x39157d91	0.00014256524
203	0x391b2002	0.00014793876
204	0x3912576d	0.00013956214
205	0xb83c6d8f	-4.4924727e-05
206	0x3912dda9	0.0001400622
207	0x38eb834d	0.0001123013
208	0x399d6f79	0.00030028427
209	0x3a11b203	0.0005557837
210	0xb934e468	-0.00017251226
211	0x38d57644	0.0001017866
212	0xb973d2ca	-0.00023252811
213	0x390975f0	0.00013109273
214	0xb92f692f	-0.00016728484
215	0x3923aede	0.00015610034
216	0xb940fc33	-0.00018404498
217	0xb955f057	-0.00020402797
218	0x3944fb5d	0.00018785657
219	0x391a3894	0.00014707661
220	0x382d7940	4.1359337e-05
221	0x37d963d5	2.5914904e-05
222	0x391ab963	0.00014755646
223	0x391764d2	0.0001443804
224	0x39a0559c	0.00030581362
225	0x39e49b50	0.00043603266
226	0x39a05197	0.00030578367
227	0x3954e9c8	0.00020304986
228	0x39a09574	0.0003062893
229	0x39681f20	0.00022136839
230	0x39a0f5f7	0.00030700836
231	0x3973a798	0.0002323672
232	0x39a2c078	0.00031042448
233	0x39bb0a14	0.00035674928
234	0xb9300af0	-0.00016788743
235	0xb9e7b87e	-0.0004419721
236	0x393f2dfa	0.00018232307
237	0x39595e73	0.00020729918
238	0x37c8ea64	2.3951005e-05
239	0x39119af0	0.00013885996
240	0xb843f00e	-4.671519e-05
241	0x395c7541	0.00021024515
242	0xb8c87694	-9.55883e-05
243	0xb97c5771	-0.00024065167
244	0x3903a05c	0.00012552872
245	0xb8bf5ef1	-9.125274e-05
246	0x37ec9570	2.820298e-05
247	0x388f6065	6.836726e-05
248	0x396aeab2	0.0002240341
249	0x396b918c	0.00022465567
250	0xb936697d	-0.0001739617
251	0xb9c3726e	-0.00037278555
252	0xb9388850	-0.00017598388
253	0xb95bb271	-0.00020951942
254	0xb93c2884	-0.0001794417
255	0xb98db161	-0.00027025773
