script/checkpoint_new.tar (torch_old, 311354 bytes, 21 tensors)

lstm.weight_ih_l0 f4 [256, 26]
00000000: 377f c9be d197 b03c 157e 003d a313 d53d
00000010: f3ca a5bd d69f 7bbd 66a3 113e ca9d 1bbe
00000020: 0477 edbd 1b62 4fbd 6969 81bd dee2 a5be
00000030: ddef 083e afae 89bd 1580 b33c ae86 d3bc
00000040: 5719 91be 6125 8ebd cf58 b2be 5251 80bd
00000050: 71fb 59be ef14 91bd 6049 7dbe 177b 5abe
00000060: 0a21 b4be c3e7 1f3d 9834 b23c 1c1e d43d
00000070: 6585 f23d 4ea4 85bd 7471 b9bd c114 fdbd
00000080: 0d6e 8ebd 9629 0fbe e769 03ba 83a6 0fbe
00000090: 6eb7 eabd 705b a6bb a36f 053d f857 d53d
000000a0: 3dce b0bd 68d6 04be 75ae 3bbd c8d2 98bc
000000b0: 77f3 253d f77e cc3c c1b0 b43d 2b06 44bd
000000c0: 5846 9f3d 62ca 063c ee1c ca3d 5a7f 7ebd
000000d0: a470 8d3d 54dd 46bd e1c9 b73a 4bf5 543e
000000e0: 264c 803d 1893 b73d d309 393e 9f23 083e
000000f0: e4e8 47bd e559 e43d 9d4c c73d e61f ae3d
00000100: 9bdd 813d 281b ca3d 4382 64bd 87c5 03bd
00000110: 2261 32bc 71c5 4ebe 4e25 013e 9b2f f0bd
00000120: 18eb b13c ac10 893e 54b3 b33d ddb2 6b3e
00000130: a1f3 0e3e 697f 623a 80f5 913d bc46 3c3d
00000140: c183 2e3d dbd8 3e3d 7c71 2dbe 9bac dbbd
00000150: 5d89 5b3e 3305 29be 0e0d 0d3e e9c0 a4bd
00000160: 97f5 20be 736a 143c c125 223e eb0f 80bc
00000170: 369e edbc d057 943b d76e 043e f166 aa3d
00000180: 9b0f 253d de1c 0d3d 3def a0bd 7a7c 5cbd
00000190: b6ec d4bd 82de 9dbb 8881 803d e461 e7bd
000001a0: 74ef c73d 3824 ac3d 7b90 cb3d fdc2 c93d
000001b0: 97df 46bc 2dec b0bd 6f28 8c3d 230b d5bb
000001c0: 896c 1f3d 1590 b6bd 0525 c03d d783 7a3e
000001d0: b138 05be 879a ec3d 403d 5dbd 7f7b c33d
000001e0: cdbf 013e e0aa 62bd 0c30 883e aee8 6fbd
000001f0: 7ecb 883e 01ed cf3d 5e78 123e 88a5 873d
00000200: cb6a 8a3d c3fe 65bc 0229 fb3c 2254 223d
00000210: 4a62 5abd 2ab3 be3d 680b e8bd cc5a 1f3e
00000220: 082a 0d3e bacb 523d fde5 d6ba 916f a5bd
00000230: 434d 2fbd cfe2 3f3d c5aa 06be d656 4f3e
00000240: 2e2a 1a3d c836 b9bd fec3 783d 4837 2a3d
00000250: c77c a7bc 5312 233d 7702 8b3d 17ab 3e3e
00000260: 0649 4a3d be2a 27be 9753 583d 3251 e8bd
00000270: 99b8 eabd 67bc 213c dd10 44bd d18f e83d
00000280: 3a41 5ebd 0668 8dbd 6c17 903e adf1 95bd
00000290: 5875 ce3d 7195 a83d 5e53 833c d714 953d
000002a0: 5a76 6c3d edf6 023d c313 c6bc 215f 97bd
000002b0: 92d9 c6bc 45fa 3e3c ab1a 8fbd b7ec e03d
000002c0: 269f fdbc 2c36 073e b63a 08be 8761 5dbd
000002d0: dd10 e7bd 4b51 8f3e 4853 5ebd 7008 063e
000002e0: 3206 3f3e 8440 acbd a5ef 383d 8002 15bd
000002f0: f441 b73d b7f3 523d aea3 a2bd 3459 4bbe
00000300: f6f9 ccbb d4c2 513e 7094 3cbe b93c 103e
00000310: a775 d6bd 141b 993d ce7a 403d 1cc2 0e3e
00000320: b095 43bd 4148 09bc d9cc 27bd 6c65 00be
00000330: 2e4d f53d 569d e4bc 3aae fcbc 6be6 c8bc
00000340: 56ff 073e 5d19 7c3d 51d8 593c 5509 8f3d
00000350: 5fbe 11bd d60a 08bc 5982 aa3d 3e07 bcbd
00000360: 5090 d23c 9263 b0bd da6e 0ebc ccb0 bd3d
00000370: caa3 96bd 5f81 05be 2b80 9d3c 7bed 3a3d
00000380: 69a3 433d a0a4 adbd 25ea 1e3e e300 c4bd
00000390: 2c17 0f3e 7f8e 8ebd 00c4 973d 08ee 84bd
000003a0: 2ccf d13d 7c67 813d 0120 033e 004d 653d
000003b0: ba28 84be cabc 3e3e eb5d 44be 3f6b 323e
000003c0: 0aab 8f3c d1d9 12be bd0d 553e faa1 503a
000003d0: 02f4 1e3b b74b 89bd b40a 33be 89bf bebc
000003e0: 515e b63d d05c 3fbe 7985 423e 2846 bb3d
000003f0: f9ea 9b3d 006a 1e3d 2e72 313e cb4f 823d
-0.3935487 0.021556767 0.03137024 0.10404136 -0.0809535 -0.06143173 0.14222488 -0.1519691
-0.11594966 -0.05063067 -0.063189335 -0.32399648 0.1337275 -0.067227714 0.02191166 -0.025821056
-0.28339645 -0.06940723 -0.3483338 -0.062655106 -0.21287324 -0.07084071 -0.24735022 -0.21336018
-0.35181457 0.039039385 0.021753594 0.103573054 0.11841849 -0.06525479 -0.090548426 -0.12357474
-0.06954584 -0.13980708 -0.0005013034 -0.14028363 -0.11460768 -0.005076818 0.03257717 0.10417169
-0.08633087 -0.12972414 -0.045820672 -0.018655196 0.04051539 0.024962885 0.08822776 -0.047857445
0.07777089 0.008226963 0.09868799 -0.06213317 0.0690625 -0.04855092 0.0014021957 0.20796697
0.06264524 0.08963603 0.18070154 0.13294838 -0.048806086 0.111499585 0.0973141 0.08502178
0.06341096 0.09868461 -0.05578829 -0.0321708 -0.010887416 -0.20192505 0.12611887 -0.1172783
0.021718547 0.26770532 0.087744385 0.2301745 0.13960125 0.00086402014 0.071269035 0.045965895
0.04260612 0.04659353 -0.16937822 -0.10726281 0.21439119 -0.1650589 0.13774511 -0.08044607
-0.15718685 0.009058583 0.15834714 -0.01563259 -0.029006105 0.0045270696 0.12932907 0.08320416
0.040298086 0.034451358 -0.07858131 -0.053829648 -0.103967115 -0.0048177848 0.06274706 -0.11297968
0.09762469 0.08405346 0.09939667 0.09851644 -0.012138269 -0.08638797 0.068436496 -0.0065015717
0.038921867 -0.089142 0.09382061 0.24464355 -0.13009907 0.11552911 -0.05401349 0.095450394
0.12670822 -0.05533874 0.26599157 -0.05857151 0.26717752 0.10152627 0.14303729 0.066233695
0.067586504 -0.014037791 0.030659202 0.039631017 -0.053316392 0.093115166 -0.113303006 0.1556198
0.13785565 0.05146382 -0.0016395446 -0.0807792 -0.042798292 0.04684716 -0.13151081 0.20247969
0.037637882 -0.09043652 0.060733788 0.041556627 -0.02044524 0.039812397 0.067875795 0.18619953
0.049386047 -0.16324899 0.052814092 -0.11343612 -0.114609905 0.009871579 -0.047867645 0.11355556
-0.054261424 -0.069046065 0.2814287 -0.073214866 0.10080975 0.08231629 0.016030964 0.072793655
0.057730056 0.031973768 -0.024179345 -0.07391191 -0.024273667 0.011656349 -0.069875084 0.1098265
-0.030959677 0.13204259 -0.13303646 -0.054048087 -0.11282513 0.2799171 -0.054278642 0.13089156
0.18654707 -0.08410743 0.045150418 -0.036379337 0.089481264 0.051501956 -0.07941376 -0.19858247
-0.0062553836 0.20484477 -0.18416 0.14085664 -0.10471659 0.07475868 0.046992116 0.13941234
-0.047750175 -0.008379043 -0.040966842 -0.1253869 0.119776115 -0.027907055 -0.030844796 -0.024523934
0.13280997 0.061547626 0.013296203 0.06984202 -0.035581943 -0.008303365 0.08325643 -0.09181069
0.02570358 -0.086127415 -0.008693421 0.09262237 -0.07355459 -0.13037632 0.019226154 0.045636635
0.047763262 -0.08478665 0.15519007 -0.09570482 0.13973683 -0.06960773 0.07410431 -0.06490713
0.10244593 0.06318566 0.12805177 0.055981636 -0.25812322 0.18626705 -0.19176452 0.17423724
0.017537612 -0.14340903 0.20806022 0.00079587067 0.0024254327 -0.067038946 -0.17484552 -0.02328469
0.08904708 -0.18687749 0.18996228 0.091442406 0.07613177 0.03867531 0.17328712 0.063628756

lstm.weight_hh_l0 f4 [256, 64]
00000000: 38e1 e83c f45b cc3d 0c55 acbd da09 c23d
00000010: 6497 27bd 54f7 d4bd 4a2c d2bd 100e ec3c
00000020: 8837 843d c0db 08bb 68fd 813c 1c3c fd3d
00000030: c051 5cbb 9c88 3ebd 1e35 bc3d feb3 e2bd
00000040: 846d c9bd b8c7 b5bc 1438 553d 00e4 a9ba
00000050: 0079 cbbc bc15 eebd b085 c03c 9cc6 72bd
00000060: 0027 a83d ba86 87bd f888 d0bd 0090 6339
00000070: 0cd0 043d 66e5 88bd b876 343d b2a6 83bd
00000080: 68f1 e3bc b854 a9bc 002a 643d 0c8b 333d
00000090: b83e 7a3d aa00 94bd 00d7 523d 3015 57bc
000000a0: bcf4 c9bd f0c4 59bd 7235 b33d 6824 4cbd
000000b0: d067 4e3c 60c4 6c3c 584a a9bd 04af 613d
000000c0: 8a49 a2bd 0c23 163d 920c c23d b429 28bd
000000d0: e0c7 763d 5e87 b1bd b0d3 77bd 08a6 a83c
000000e0: 98d7 ed3d a434 583d dce7 aebd 5879 263d
000000f0: e08e 84bc 6062 4abc 3402 6ebd d88d bc3c
00000100: 9cb9 04bd 005c 1abc 986d 79bd 6080 57bd
00000110: f81c 0cbd 2a8a 8a3d 6417 76bd 54eb 9f3d
00000120: c437 a63d d048 55bc f23a a63d ee07 a3bd
00000130: f213 fabd a85a 0abd 806e 183b aa27 a13d
00000140: fcff 2cbd 6857 5abd aa40 de3d 9c82 5f3d
00000150: b6e5 e6bd c00c 18bc a0b6 273d 248b f5bd
00000160: b8b3 e73d 9ea5 97bd 248c 90bd 88cb f33c
00000170: 5c5f f1bd a46f e9bd e0a6 dc3c 4e47 9b3d
00000180: 78bc 85bc e84b 273d 98c6 bd3d fca3 a5bd
00000190: f0da a6bd a606 e63d 80ac 6fbd 826f 863d
000001a0: 40f6 f1bc 00e1 813a d83c de3c 94fb 6c3d
000001b0: f045 e73c 8473 db3d 8016 4d3d 7ec9 af3d
000001c0: 4840 6d3d 0691 963d 648d 223d fc83 893d
000001d0: 0238 c23d 5c76 f2bd 0828 dbbd c4fb 543d
000001e0: 78e1 8a3d 305c 9e3c 28e0 f13c 0e13 d23d
000001f0: 9a7e 903d 448e 75bd c807 e7bc d00e eabd
00000200: 0853 44bd f017 4bbd 7446 55bd 3a82 cbbd
00000210: 8030 89bc fca7 e7bd 0026 a739 88f0 d5bd
00000220: aed9 ab3d bce1 d63d 2061 743c 84fb 48bd
00000230: 6cff 653d b0c4 3dbd 506b 3f3c d4c3 093d
00000240: 9061 e13d 5231 983d a010 79bc 025c e0bd
00000250: 4c99 323d aa71 f73d 6c30 cd3d 608a d73d
00000260: 6214 86bd 64b7 b8bd 1a84 a83d 1855 d4bd
00000270: c0a1 f6bb a8c4 a9bd cea0 b03d 7e60 a6bd
00000280: aab6 debd 58aa 36bd defc cebd b002 813d
00000290: 8890 653d 4413 33bd 386e 7cbd d6f3 ebbd
000002a0: 407f 50bc 70d5 8a3d 04eb 9d3d a041 63bc
000002b0: 3e0d cb3d 26da f8bd 50e1 cebc 84ec bc3d
000002c0: 7e70 983d b81a fb3c 4a73 de3d 88ad d8bd
000002d0: 64cd 6e3d 8025 2d3b 807e ec3a d831 d73c
000002e0: e0d1 edbd 6482 0a3d a819 be3d e006 4b3d
000002f0: b222 813d 80dc 9eba 609d bc3d 5884 93bd
00000300: 28fb 123d 2af4 8e3d da30 9f3d 700b 9c3c
00000310: 7c1b 4e3d 0c21 283d 00a1 25bc 805f 9ebc
00000320: 701b 9e3d 7a7b 9a3d c017 4cbd b660 88bd
00000330: 907f 143d b0c3 de3d 3622 f3bd 7041 413c
00000340: 5862 a9bd b482 ddbd 8850 983d f898 bebc
00000350: f021 633c 6079 32bd c400 5c3d a4c2 c0bd
00000360: 0895 da3c 8809 d8bd 80d2 2bbc 3c10 2f3d
00000370: 747a 6e3d 2ce8 423d 8035 333c c471 bebd
00000380: d8a6 70bd 06c1 f13d 3a20 cbbd 2c22 86bd
00000390: 103e 63bd b8b1 853c 18d1 a43c 208f 26bd
000003a0: 305a a83d 20de c2bb e0a9 a8bc c01a 093d
000003b0: e839 8ebc 9c4e 8c3d 5cfe 8cbd a8e5 dcbc
000003c0: 920e 99bd 1053 30bd dc2d 9dbd d034 08bd
000003d0: 78b4 28bd d056 8b3d e21e 8a3d 28a0 ba3d
000003e0: a868 6fbd 7096 41bc a474 22bd 8248 b73d
000003f0: 301a cd3c b0ec 873c 90df 043d c03d 1b3c
0.028427705 0.09978476 -0.08414659 0.09474535 -0.04091586 -0.103987366 -0.10262354 0.0288153
0.06455904 -0.0020882934 0.015867904 0.123649806 -0.0033618063 -0.046517 0.09189819 -0.11069487
-0.098353416 -0.02218996 0.052055433 -0.0012961626 -0.02483797 -0.11625239 0.023501247 -0.05927144
0.08210564 -0.06617494 -0.10182375 0.00021702051 0.03242497 -0.06684379 0.04405853 -0.06428279
-0.027825072 -0.02067028 0.055704117 0.043833777 0.06109497 -0.07226689 0.05147457 -0.01312761
-0.098611325 -0.05316633 0.08750428 -0.049839407 0.012597993 0.014451116 -0.08266133 0.05509855
-0.07924183 0.036654517 0.09475054 -0.041055396 0.06024921 -0.08668397 -0.060504615 0.020586982
0.11613387 0.052784577 -0.085403174 0.040643066 -0.01618141 -0.012352556 -0.05810757 0.023016855
-0.032403573 -0.009421349 -0.060895532 -0.052612662 -0.034207314 0.06764634 -0.0600809 0.07808557
0.08116105 -0.013017848 0.08116712 -0.07960497 -0.122108355 -0.033777863 0.0023259223 0.078688934
-0.042236313 -0.053306013 0.108521774 0.05456792 -0.11274283 -0.009280384 0.04094565 -0.119894296
0.113135755 -0.07404636 -0.0705798 0.029760137 -0.117857665 -0.11398247 0.026935041 0.0758196
-0.01632522 0.040843874 0.092663944 -0.08087918 -0.08147228 0.11231737 -0.05851412 0.06564237
-0.029536366 0.0009908974 0.027128622 0.05785711 0.028231591 0.10715392 0.050070286 0.085833535
0.05792263 0.0735188 0.03968562 0.06714627 0.09483339 -0.118389815 -0.10700995 0.051997915
0.06781286 0.019331068 0.029525831 0.10257541 0.07055397 -0.05995013 -0.028201953 -0.114286065
-0.047930747 -0.049583375 -0.052069142 -0.09936948 -0.01674676 -0.11311337 0.00031881034 -0.10446268
0.083911285 0.10492274 0.0149157345 -0.04906799 0.056151792 -0.046330154 0.0116833 0.033634022
0.11004937 0.07431282 -0.015201718 -0.10955049 0.043603227 0.120822266 0.10019001 0.1052444
-0.065468565 -0.09019354 0.082283214 -0.10367793 -0.0075266063 -0.08289462 0.08624421 -0.08123873
-0.10874684 -0.044596046 -0.10106824 0.06299341 0.05604604 -0.043719545 -0.06162855 -0.115211174
-0.012725651 0.06778991 0.07710841 -0.013870627 0.09914635 -0.121509835 -0.025253922 0.09224799
0.07443331 0.030652389 0.108618334 -0.105799735 0.058301345 0.0026420057 0.0018043071 0.026268885
-0.11612296 0.033815756 0.09282237 0.049567103 0.06305446 -0.0012120157 0.092097044 -0.07202977
0.035884053 0.06980164 0.077729896 0.019048423 0.05031918 0.04104714 -0.010109186 -0.019332647
0.07720077 0.075430825 -0.049827337 -0.06659071 0.036254466 0.10877168 -0.118717596 0.011795387
-0.08270711 -0.10815945 0.07437235 -0.0232663 0.013863072 -0.043572783 0.053711668 -0.09412125
0.026682392 -0.10548693 -0.010487199 0.04274009 0.05822225 0.047584698 0.010938048 -0.09299043
-0.058752865 0.118043944 -0.09918256 -0.065494865 -0.05547911 0.016320094 0.020119235 -0.04066384
0.08220327 -0.0059468895 -0.020588815 0.033472776 -0.017361596 0.06850931 -0.06884453 -0.026964977
-0.07473482 -0.043047965 -0.076747626 -0.03325349 -0.041187733 0.068036675 0.06744172 0.09112579
-0.058449417 -0.011815652 -0.03966202 0.08949377 0.025036901 0.016592354 0.03243977 0.009475172

lstm.bias_ih_l0 f4 [256]
00000000: 49ca c43d f95a 1d3d 97b3 f93d 968c fabb
00000010: 46cd 103d 4557 cfbd 9d8f 80bd d669 e23b
00000020: 9f83 08bc c155 f03d f06a cb3c a0e2 1a3e
00000030: 9f93 ff3c 03d5 803d 6b28 30bd 2c39 4fbe
00000040: 2fd6 a83c d279 62bd 400b 0e3e d50d 133c
00000050: 6653 063e 54f9 163e c6a3 3cbd 7f51 143e
00000060: 3b81 2cbd d039 033e 905c 683c e6a1 17bd
00000070: 5005 6abe f312 a13c f41e 28bd 6263 89bd
00000080: 100b e33d b0e7 cb3b c704 19be c7c5 033c
00000090: 5fcd 3d3d 296b 2fbd dec8 debd f9c9 3bbd
000000a0: 1c62 033e 1382 2d3d 0cc3 e03d 781f 9abc
000000b0: 90d2 eb3d fd17 33bd a4b3 1fbc 2ddf e73d
000000c0: d938 d33c 8b10 633d be84 ba3d d086 c83a
000000d0: 59aa ae3d 3089 003e 2ac4 7c3d 9640 94bc
000000e0: 5d8b c6bd 3124 20be 0d74 8a3c fffa 6ebd
000000f0: fee1 053e d84b b33d 5918 193e 108e 653d
00000100: f42e 983d 7c64 40bd 0aba fdbd d846 66bd
00000110: a80a c93c d889 4f3d cace bf3d e8e1 83bc
00000120: c0ec 2c3c 7e81 e53d 3a8e ecbd 6a0b c6bd
00000130: c835 e13c 403e 09bd ca45 debd 948b 6fbd
00000140: 4c9b 6bbd 5046 a7bc e0a3 f7bc dc3c 833d
00000150: a4d1 01bd 2820 61bd e047 753c 644f 133d
00000160: e26a a43d 1002 863d b4aa 183d 7c7c a2bd
00000170: b6cf 8b3d ba4a c33d a08a 92bc e8c0 e1bc
00000180: 6449 aebd d08b 28bd a0ba 8cbc 3811 a9bd
00000190: d23c b6bd 9605 fc3d c0ac 343c 601e 2abd
000001a0: b4a2 90bd e056 acbd 6ef0 a1bd 9ad3 f23d
000001b0: 3a9a fb3d 0a88 fe3d b831 7dbd 00d3 9dbc
000001c0: c017 153d f64d a5bd 72e6 c83d 78aa a6bc
000001d0: b086 bfbc fe64 fcbd c895 153d 907f f4bc
000001e0: f45d bd3d 50fc de3d 4cef c23d 00f3 f23a
000001f0: d01a dfbc d813 d23c a854 ba3d 7ac7 eb3d
00000200: e551 193e 1771 cf3c baef 9b3d de33 2cbe
00000210: 3103 9a3d 3bc6 c03c 1ebf a83d 2fd3 2b3d
00000220: 7ec5 223d 5cb9 00be c350 2ebd 4487 a13c
00000230: de0d 563d 46c5 603d 1d74 b53d d2f3 5b3c
00000240: 994d 36bd 4e05 b33d 0531 28be a8d7 13be
00000250: c2f9 093d 702b 3a3d 67db 843c 79a5 1dbc
00000260: 1ce9 25bd b524 223e a1db 053e 4cb8 2b3c
00000270: c862 8cbc 672a d6bd 612e 8a3c facb 1abe
00000280: 0cbb 42bd e502 043e 45b6 c63d 0770 aebb
00000290: b1a1 3d3d 669a c0bd 4dea 08be 646d 5ebd
000002a0: 7264 02be 1404 04be 6fd7 0fbd 083a aabc
000002b0: 64fc 5fbd 6f0c 0d3e 2cd6 f13d c70d 10bd
000002c0: 8d4e 18bc a55e bb3c fc90 9cbb 6318 1dbd
000002d0: b2f5 17bd 7e6c 78bb 34e7 43bd 55a7 ebbd
000002e0: d030 cbbd 4b98 d5bd f8bc 143d 59ac ecbd
000002f0: 8399 383d dbc6 eb3d f6f1 cf3d a2c0 d33d
00000300: 38b5 bf3c ad04 5a3d da32 a53d 655c 123e
00000310: 6667 ee3d 59b5 ebbd 7ffa fcbc d2e7 b0bc
00000320: e398 903d 955a 53bd 0421 143d 91cc ef3d
00000330: 1740 2a3b 4ccb 85bd 2e87 083d b1fa 493d
00000340: e4b7 d93d 41d2 f63d 6d90 38bd 0bc5 623d
00000350: adbf e23d 6be8 8dbb 84af d13c 07cb 02bd
00000360: 830e 48bc e7e7 26bd 3ec1 fabd 9c64 883c
00000370: c66d 34bd b3ed ad3d 5ef7 1b3e ad84 aabd
00000380: 32ca d5ba 744c 9d3d 2809 48be 4019 d2bd
00000390: 139f 223e ee2a 49bd 0d44 b23d 51ae fa3c
000003a0: a363 c2bd fa44 d1bd e7c4 b9bc ba0a bf3d
000003b0: d36a 263e a321 a8bc 85f2 ca3d a6b9 093d
000003c0: 0b50 cd3c cad4 613b 6bdf b53c 96b5 b53d
000003d0: dcf5 ab3b fe82 b93d 1bf4 34bd 5bd0 83bd
000003e0: aba4 a93d e2a2 34be 2884 8e3d 701d ed3c
000003f0: 3ae3 213e 8f4b f33d 11dd 213d caf0 50bb
0.09608895 0.038416836 0.12192457 -0.0076461537 0.035352014 -0.10124067 -0.06277392 0.0069095893
-0.008332162 0.11735106 0.024831265 0.15125513 0.03119832 0.06290629 -0.043007296 -0.20236653
0.020609943 -0.05529196 0.13871479 0.008975466 0.13117751 0.14743549 -0.046054624 0.14484213
-0.04211543 0.12815022 0.014182225 -0.037019633 -0.22853589 0.019662356 -0.041045144 -0.06708409
0.110860944 0.0062226877 -0.14943229 0.008042759 0.046338435 -0.042826805 -0.10878156 -0.045846913
0.12830395 0.042360377 0.10974702 -0.018813834 0.11514771 -0.04372405 -0.0097474195 0.11321864
0.025783943 0.0554357 0.0910735 0.0015298966 0.08528585 0.12552333 0.061710514 -0.018097203
-0.0969455 -0.15638806 0.01690104 -0.058344837 0.1307449 0.087547004 0.14950694 0.056043684
0.074308306 -0.04697083 -0.12389 -0.056219906 0.024541214 0.050668567 0.09365614 -0.016098931
0.0105544925 0.11206339 -0.11550565 -0.09670146 0.027491465 -0.03350663 -0.10853155 -0.05848272
-0.05752115 -0.02041927 -0.030229509 0.064080924 -0.03169407 -0.054962307 0.01497075 0.035964385
0.08028199 0.06543362 0.03727217 -0.079339 0.06826727 0.09535737 -0.017888367 -0.027557805
-0.08510092 -0.04114896 -0.017178833 -0.08255237 -0.08898319 0.12305753 0.011027515 -0.041532874
-0.07062283 -0.084150076 -0.079071864 0.11856766 0.12285276 0.12428291 -0.061814994 -0.019265652
0.036399603 -0.080715105 0.09809579 -0.020344958 -0.023379654 -0.1232395 0.036519796 -0.029845983
0.09246436 0.108879685 0.095182985 0.0018535554 -0.027234465 0.025644228 0.09098178 0.115126565
0.14972647 0.02532248 0.076140836 -0.16816661 0.0752014 0.023532024 0.08239578 0.041949447
0.039739124 -0.12570709 -0.04255749 0.01971782 0.05225932 0.054875635 0.088600375 0.0134248305
-0.044507597 0.08741246 -0.1642495 -0.14437735 0.033685453 0.04545158 0.0162179 -0.009621971
-0.040505514 0.15834315 0.13072063 0.0104809515 -0.017136946 -0.10457306 0.016867818 -0.15116873
-0.047541663 0.12891729 0.09702734 -0.0053234133 0.04629678 -0.09404449 -0.13370629 -0.05430354
-0.1273363 -0.1289218 -0.035117563 -0.020779625 -0.054684058 0.13774274 0.11808428 -0.03516939
-0.009296072 0.022872278 -0.0047780257 -0.038353335 -0.037099548 -0.0037906463 -0.047827914 -0.115065254
-0.099214196 -0.10429438 0.036313027 -0.1155631 0.045068275 0.11512538 0.10153572 0.10339476
0.023401842 0.053227115 0.0806634 0.14293058 0.116408154 -0.11509199 -0.030881165 -0.021594916
0.07060411 -0.051600058 0.0361643 0.1170894 0.0025978142 -0.065329164 0.033332042 0.049311344
0.106307775 0.120518215 -0.04505961 0.055363696 0.110717155 -0.004330685 0.025596388 -0.031931903
-0.012210491 -0.040748503 -0.12243889 0.016649537 -0.04405 0.08492603 0.15231082 -0.08326087
-0.0016310869 0.07680598 -0.19534743 -0.10258722 0.15880994 -0.049113207 0.08704386 0.030600699
-0.094916604 -0.10218234 -0.022676898 0.09328218 0.16251688 -0.020523852 0.09909538 0.033624314
0.025062582 0.0034459108 0.02220126 0.088725254 0.0052478146 0.09058188 -0.04417811 -0.06436225
0.08283361 -0.1764026 0.069588006 0.028944701 0.15809336 0.11879646 0.039517466 -0.0031881803

lstm.bias_hh_l0 f4 [256]
00000000: efa9 be3d 53a2 6d3d 7cb6 47bd be5b 853b
00000010: 17be 1cbd 3006 873c dd35 c73d 8592 15bd
00000020: 8aac 8bbd 8e74 85bd 476a ba3d ea91 723d
00000030: 547c 563d 148b dc3d a64c a23c e64f 27be
00000040: 97dc a8bd 6da8 91bd e45b 233e 2cf1 423d
00000050: 96aa fd3d 489f 0ebb 8e7b 363d 543f b63d
00000060: 7aab cc3d 5237 f13c 3a3f 5dbd 6644 86bc
00000070: b6a7 71be 6eca 9fbd c8d6 0ebd 68f6 38bd
00000080: 88b9 cabd eb9b 4cbc 3543 d1bd 0a93 f5bc
00000090: 727a a2ba 0b16 fabd 7702 d4bd 9757 313d
000000a0: f2b9 0a3e 2d7a 80bd 3414 ca3d 24eb 9fbd
000000b0: 65ed 553e 3ddc 063d 524e 193e 1610 a53d
000000c0: 6066 d03d e11c 0e3e e2ca 1f3d c6fa 3a3d
000000d0: ff77 cd3d 019c d73d 1484 bdbd 4fd6 0b3d
000000e0: 670f 13be de47 f33c 46f0 3dbd efc0 bbbd
000000f0: 51c2 f73d c024 cfbd 6a00 f83c 4fa9 673d
00000100: d0e5 cdbd d4e7 a03d b2c6 8b3d 5449 14bd
00000110: 54fc b0bd 6694 d83d 4085 d53d 004d 8f3c
00000120: 10fa b83c 782a 8dbd 149e 6e3d c008 d8bb
00000130: 86e1 f8bd bc59 313d d43b 2cbd b075 2abc
00000140: de5a afbd e0f7 f7bd c850 bdbc d07c 583d
00000150: 3ecb a33d 8051 d8bd 8044 863a f8a9 913d
00000160: f02f f73d ac0f febd 004c 20bd dc60 02bd
00000170: a061 9fbd d4c4 2bbd dc25 e7bd 48ae 6bbd
00000180: 66fa f1bd d27c 9dbd 0c21 1ebd 98a9 4fbd
00000190: c829 eb3d 485f a63d dc28 f4bd d858 f93d
000001a0: 105d 90bd 80bf b73a a607 f1bd 7cc0 f2bd
000001b0: c0c0 e03c bce7 3fbd 6c6b 133d a075 e3bd
000001c0: 9ec6 833d 98d4 81bd c0b9 703b beac f0bd
000001d0: a83d 9c3c 9e9b 8b3d 9ef2 97bd c49c c9bd
000001e0: 56f3 fd3d ca7f 9abd 201d a23d 6003 a2bb
000001f0: 304c 4e3c dc81 f63d 80ea ff3d b0af 82bd
00000200: 003a 033d 4b1d c3bc 7363 88bc 28a4 14bd
00000210: c976 1e3e 518b cabc a059 cb3d a2ca ed3b
00000220: 6c20 883d 3801 9d3d 8db1 2a3c 7629 17be
00000230: 500b 95bd 27d4 89bd eca7 ed3d 2553 ad3b
00000240: 02fb c13d 2e88 47bd 5685 a53d 9ee0 01be
00000250: 5957 ed3b fd1a 82bd 0492 213c ffde 153d
00000260: 0d9f 113e 2d35 d3bc dcf1 52bd 968b 253e
00000270: ff21 1e3e fc81 7cbd d927 c53d fad5 d8bd
00000280: f59c 853d 39ba 903d 7662 2d3d 97cf 01be
00000290: 31f6 1abd 28ec c0bd 5ba3 02be deba 62bd
000002a0: 3c53 23be ec72 ffbd b189 c9bd 19bc 70bc
000002b0: c2a1 7d3c 7c47 f53d 208a 1c3b 3593 9c3d
000002c0: 8586 643c d995 8abc d715 cfbd 0990 c23c
000002d0: fabc f0bd c244 343a eea3 8f3d 5587 71bd
000002e0: 5255 96bc 90f8 003c 4a15 60bd b5a5 6f3c
000002f0: c9b2 0cbe 506d 733d 8f54 ed3d 2e45 2ebc
00000300: e510 3c3c 90a0 39bb 8e2d d53d 762e 90bd
00000310: 1d68 e83d 1700 afbd 130a 463d 4474 223c
00000320: 2fb6 843d 1bda 083e 7785 42ba 5cec 873c
00000330: f7f0 113d 3572 04be b577 953d bb32 99ba
00000340: c710 8f3d bee5 e6bc 3eb8 a0bd 3e0a 013e
00000350: 2b50 b63d b4ca fc3d 9fbe ca3d 29d1 bdbd
00000360: 7643 653d cc3c 82bb 3ce9 0dbd bdf5 ba3d
00000370: 63e3 5ebe 8764 e33c 07fc 8f3d cff4 eb3d
00000380: dedd 2c3d b8dd 7abd ae52 80be 3452 b73c
00000390: 132e 073e b02f 4f3d 45f5 c1bb a472 373d
000003a0: e508 0cbc 11e8 f13c 1665 053b 3a4f f93c
000003b0: 696c 66bd 0f01 6c3d 5aa1 0f3e e122 ccbd
000003c0: 3311 bcbc 522c cc3d 2972 72bd 75a7 0d3e
000003d0: 589d 93bd e672 3abc bb8b 003d ffe2 1e3e
000003e0: f29c db3c 4569 95ba 1b48 173c 5696 75bc
000003f0: d508 0e3b 7730 3ebd 51ef 203d 49c2 a0bd
0.09309756 0.058016133 -0.048758015 0.0040697744 -0.03826722 0.016482443 0.097270705 -0.036516685
-0.068200186 -0.06516372 0.09102302 0.059221186 0.052364662 0.107687145 0.01981194 -0.16339073
-0.08245199 -0.07112203 0.15953022 0.04759328 0.12386052 -0.002176242 0.044551425 0.08898798
0.09993644 0.029445324 -0.054015376 -0.016390037 -0.23599133 -0.07802282 -0.0348728 -0.045156866
-0.098986685 -0.012488346 -0.10217897 -0.02997734 -0.0012396111 -0.122112356 -0.10352033 0.043296423
0.13547495 -0.06273303 0.09867135 -0.078085214 0.2089134 0.03292488 0.14971283 0.08059709
0.101757765 0.13878204 0.039011844 0.045649312 0.10032653 0.10527802 -0.092537075 0.034139927
-0.14361344 0.029697355 -0.04637172 -0.091676585 0.1209761 -0.101144314 0.030273635 0.05655795
-0.10053599 0.07856718 0.068250075 -0.036202744 -0.08641878 0.1057518 0.10425806 0.017492771
0.022580177 -0.06892866 0.058256224 -0.00659284 -0.1215239 0.043298468 -0.042049244 -0.010404035
-0.085622534 -0.12107825 -0.023109809 0.052853405 0.0799775 -0.1056242 0.0010243803 0.07112497
0.1206969 -0.12405333 -0.03913498 -0.031830654 -0.07782292 -0.041935757 -0.11286518 -0.057539254
-0.11815338 -0.07689823 -0.038605735 -0.050698847 0.114825785 0.08123642 -0.11921856 0.12175149
-0.07049 0.0014018863 -0.11769037 -0.1185312 0.02743566 -0.04685186 0.035991117 -0.111064196
0.064343676 -0.06339377 0.003673181 -0.11751698 0.019072369 0.06816791 -0.074193224 -0.09844354
0.12399928 -0.07543905 0.079157114 -0.00494425 0.012591407 0.120364875 0.12495899 -0.06381166
0.032037735 -0.023817679 -0.016648984 -0.036289364 0.15475 -0.024724634 0.09929204 0.0072568217
0.06646809 0.07666248 0.010418308 -0.1476191 -0.07277548 -0.06729918 0.11604294 0.0052894526
0.09471704 -0.048713855 0.080820724 -0.12683341 0.0072430787 -0.06352804 0.009861473 0.03658962
0.1422083 -0.025782192 -0.051500186 0.16166529 0.15442656 -0.0616474 0.09626741 -0.10587688
0.06524078 0.07066769 0.042330228 -0.12676845 -0.037832443 -0.09420043 -0.12757628 -0.05535399
-0.1594972 -0.124730915 -0.09840716 -0.0146932835 0.015480461 0.11976525 0.002388604 0.07645265
0.013948088 -0.016917156 -0.101115875 0.023750322 -0.117547944 0.0006876701 0.07013689 -0.058966953
-0.01835123 0.007871762 -0.054707803 0.01462691 -0.13740076 0.05943042 0.11588394 -0.010636611
0.011478637 -0.0028324462 0.104090795 -0.07040112 0.11347983 -0.08544939 0.04834945 0.009915415
0.06480061 0.1336445 -0.00074204005 0.016592197 0.035630193 -0.12934192 0.07298223 -0.0011688092
0.06985622 -0.028185721 -0.078476414 0.12601563 0.089020096 0.1234335 0.09899639 -0.0926841
0.05597254 -0.0039745327 -0.034646258 0.09128902 -0.21766429 0.027757896 0.07030492 0.11521303
0.042203777 -0.061246604 -0.2506308 0.022378065 0.1320117 0.050582588 -0.005919131 0.044787064
-0.0085470425 0.029529603 0.0020354441 0.030433286 -0.05625573 0.057618197 0.14026394 -0.0996759
-0.02295742 0.09969391 -0.059190903 0.13833411 -0.07207745 -0.011379933 0.031383257 0.1551628
0.026808236 -0.0011399171 0.0092335 -0.014989456 0.0021672745 -0.04643294 0.03929073 -0.07849557

linear.weight f4 [32, 64]
00000000: a2ce 743c 148b 89bd f420 033e 23ad 36bd
00000010: 0374 bdbd 2e25 903d 4bde 3dbd e358 433e
00000020: 87e3 07bd 9431 49bd 51fd 423e f283 1cbd
00000030: 36d4 3abe ef80 f73d ad75 4abe 6654 393d
00000040: 50f5 8abc 7e47 96bc a58e 0d3d f017 33be
00000050: 2f74 233b 288b 8a3d 302a 303c 91c0 bfbd
00000060: e28c 8e3c f70c 70bd d390 96bd 04bf f7bb
00000070: d61c edbd 8e7d 103e 1bd3 fbbb b8ff 12be
00000080: 75ea 223e 139d 933c 98fe d3bc b193 c33d
00000090: 1105 bd38 4758 1a3e 5b25 14be 7eae 04bd
000000a0: ad13 0cbd 1654 453e b2d9 fdbd a19d c1bd
000000b0: 7c2f c6bc 4c39 343c b94b ee3d 975b df3c
000000c0: 40b1 b13d 9cf2 0fbe abba 12be b0a9 63bd
000000d0: adf3 88bd fbaf 143e 14fd f9bc 768d 9fbb
000000e0: b1ae dcbc b552 28be ee34 b93b 4827 bc3d
000000f0: 2e1d 983d 9edb 06be 3253 e9bd 2b2c 3f3e
00000100: d7ab 3e3e 2c9c 173e e796 ce3d b1aa f2bd
00000110: 8d90 dfbd 46f4 f6bc c39f 12be cfa7 d23d
00000120: 4f0a 24bd eef1 43be 30c1 373e 5e68 0cbe
00000130: 1e5d f8bc f534 713e a0d0 d7bc 6f90 bbbd
00000140: f160 903d 2cfe 623d 7249 143e bf58 abbd
00000150: f977 453e ce2f abbc 0c73 4c3e e771 43be
00000160: 47c1 a63b 8478 d1bd 08ae 4cbd 515d aabd
00000170: 5733 a7bd e271 193e 59ac c13d 1ef0 a43d
00000180: f5c1 153d 36f8 7c3d a21c 64bd 6e13 c03d
00000190: d183 a83d a90f 363e e593 4abe 1a93 d0bd
000001a0: 3c4d 0bbd 51a2 4a3e 5a3a da3c b4a3 51be
000001b0: bd48 a63b 1195 cdbc 314d fabb 3859 ed3d
000001c0: 48d4 1d3e 7028 36be 3143 43bd 9ebe e8bd
000001d0: 8130 143d 965f 263d ac47 423d 7102 12bd
000001e0: 1208 293d c9d4 4cbe 2c40 193d 466f 1e3e
000001f0: f676 ae3d 39fa 8d3d 5565 9ebd 5b8e 373e
00000200: 319a e8bd 2bd6 8a3d 8592 8ebe d8b5 1e3e
00000210: 5fbc 963d 959e 86be 28d2 a33d ec9f 6abe
00000220: 74bc fb3d 2434 223e e76b 99bd 1383 0c3e
00000230: abf0 243e 164d 9abe 5ed9 2d3e a79f 143e
00000240: 5e73 0d3d a621 813c a7b9 45be 4205 c43d
00000250: a246 68be e70e b33d e7a6 163c e42f 1e3e
00000260: b299 52be 9037 983e 9236 2d3e 1b0c 693e
00000270: 7883 aa3e 7031 b4bc 2778 853c 5f03 023d
00000280: 273b 9fbd 8300 aa3d d927 7b3e 9af7 4ebe
00000290: 1d25 563d 8566 cdbd e0f8 3c3e 3c0d 863d
000002a0: b16e b33d 2ecd b8bd b7aa fe3d cf00 b63e
000002b0: 47cd 73be a43d 0b3d 75d8 5f3d fdbf 37be
000002c0: 95b5 1ebe 4e51 de3c e9b5 f33c 9d99 e43d
000002d0: fd99 123d 0435 62bd aff6 94bc 5b1f 583d
000002e0: 12b1 f73c 1b6f 823e 1bc1 d9bc ea99 b23c
000002f0: 7be7 0dbe 9801 3ebd f3b2 953e 1bff 0cbe
00000300: cbd1 683c df2d a83d c778 6e3d c935 15bc
00000310: 9258 d8bd 913d b03d fe01 8cbd a1ad 01bd
00000320: 4ce8 f5bd 1036 d1bc 2d68 b53d c5b0 b9bd
00000330: a606 46be fecb 733e afe8 0dbc af63 4ebe
00000340: b4d3 b33a 9907 f33b c9c4 3f3e 6de0 8abc
00000350: 0f35 b03d c6fa 2ebe bdae 383e a872 863c
00000360: 2d9c 58bd eeef 57be 2d8a 05be 34a9 65bd
00000370: bc56 18be cd25 b33d 6fee 4abd 3028 00be
00000380: dfb3 a5bc cc85 263d 35cd 51be 3f7e a73d
00000390: a777 1dbe 02a4 813d 8780 6bbe 890f d1bd
000003a0: baf0 603d 6772 b93d 7b6b 83bd c0e8 f2bd
000003b0: dce0 4f3e 3b96 3e3d 8909 293e 8b0c 0b3d
000003c0: 9e27 a23d 17c2 17be 1ca8 bbbb f12e aebd
000003d0: 15a0 49bd fb35 0f3e 01b6 1d3d 1561 04bd
000003e0: 8a31 02bd c82d 7ebe 3b20 373d 2ff7 8b3d
000003f0: 3465 ae3d 7533 b3bd 61da 8bbe f018 3c3e
0.014941843 -0.0671598 0.1280554 -0.04459871 -0.09250643 0.070383415 -0.046354573 0.19076876
-0.03317597 -0.049119547 0.19041945 -0.03821177 -0.18245015 0.12085139 -0.19771452 0.045246504
-0.016962677 -0.018344637 0.034559865 -0.174896 0.0024941077 0.06764823 0.010752246 -0.09362901
0.017401163 -0.058606114 -0.07351842 -0.0075606126 -0.11577766 0.14110395 -0.007685078 -0.14355361
0.15909751 0.018019235 -0.025878236 0.09549654 9.013166e-05 0.15072738 -0.14467375 -0.03239297
-0.03419845 0.19270357 -0.12395038 -0.094538935 -0.024192564 0.010999989 0.11635537 0.027265353
0.08676386 -0.14057392 -0.1432902 -0.05558175 -0.066871025 0.14520256 -0.030516185 -0.0048691584
-0.026938768 -0.164378 0.0056520617 0.0918718 0.074274406 -0.13169715 -0.11392821 0.18669192
0.18620239 0.14805669 0.10087376 -0.11848963 -0.10916243 -0.030145776 -0.14318757 0.10285913
-0.040048894 -0.19135258 0.17944789 -0.13711688 -0.03031784 0.23555358 -0.026344597 -0.09158408
0.0704974 0.05541818 0.14481142 -0.08366536 0.19284047 -0.020896818 0.19965762 -0.19086419
0.0050889584 -0.10228065 -0.049970657 -0.0831858 -0.08164089 0.14984849 0.09456701 0.08053611
0.036561925 0.06176015 -0.05569137 0.09378706 0.08228267 0.17779411 -0.1978298 -0.101843074
-0.034009203 0.19788481 0.026639152 -0.20472604 0.005074589 -0.025095494 -0.0076385965 0.11589283
0.1541301 -0.17788863 -0.0476715 -0.11364482 0.03617907 0.0406185 0.047431633 -0.03564686
0.041267462 -0.20003046 0.037414715 0.15472135 0.08518784 0.06932492 -0.07734171 0.17925398
-0.11357535 0.067791305 -0.2784616 0.15499055 0.07360148 -0.26292863 0.079990685 -0.22912568
0.12291804 0.15840203 -0.07491284 0.13721876 0.16107433 -0.30136937 0.1697745 0.14514028
0.03453385 0.015763115 -0.19309102 0.09571315 -0.22683194 0.08743077 0.009195066 0.15447956
-0.20566443 0.2972989 0.16915348 0.22758524 0.33303428 -0.02199623 0.016292645 0.031741496
-0.07774954 0.08300879 0.2452692 -0.2021164 0.052281488 -0.1002932 0.18454313 0.06545493
0.08761347 -0.0902351 0.12434905 0.35547492 -0.23808776 0.033994332 0.05464979 -0.17944331
-0.15498956 0.027138378 0.029749827 0.11162112 0.035791386 -0.05522634 -0.018184034 0.052764278
0.0302358 0.25475392 -0.026581338 0.021801908 -0.13857834 -0.04638824 0.2923809 -0.1376919
0.014210175 0.08211874 0.05822065 -0.009107062 -0.105637684 0.08605493 -0.068363175 -0.031659726
-0.12007198 -0.025538474 0.088577606 -0.09066919 -0.19338474 0.23808286 -0.008661433 -0.20155214
0.0013719709 0.007416677 0.18727411 -0.016952718 0.0860387 -0.1708785 0.18035407 0.016412094
-0.052883316 -0.2108762 -0.13040991 -0.056069568 -0.14876837 0.08747444 -0.049543794 -0.1251533
-0.02022737 0.040654942 -0.20488437 0.081783764 -0.15377675 0.0633011 -0.22998248 -0.10208041
0.054917075 0.09055024 -0.06416985 -0.118608 0.20300621 0.04652999 0.16507544 0.03394751
0.07917713 -0.14820133 -0.0057268273 -0.08505047 -0.04922493 0.13985436 0.03850365 -0.032319147
-0.031785525 -0.24822152 0.04470847 0.06834256 0.08515397 -0.08750049 -0.27315047 0.18368888

linear.bias f4 [32]
00000000: 184d 923d c59d 55bc f635 bdbd 27a1 8e3d
00000010: 0b24 51bd 0415 c3bd d8ad d63d 8b92 1bbc
00000020: 087f e83d 1a70 d53d e0f0 b0bd 0802 60bd
00000030: 4da6 af3d 6867 edbd 2273 643b 8a7f ab3d
00000040: 64fa 643c 0c94 40bc 8635 b5bd e951 b9bd
00000050: 95dd 123c b922 f63d 5434 443d fed4 a4bd
00000060: 176e 273d 487b 713d 7ede 253d 2ea0 f5bb
00000070: 969a 123e c658 9ebc 109a 223d 0b4f be3d
0.07143611 -0.0130381035 -0.09238808 0.06964331 -0.051059764 -0.09525493 0.10482377 -0.009495388
0.11352354 0.10421772 -0.08639693 -0.054689437 0.08576641 -0.11591989 0.0034858664 0.083739355
0.013975713 -0.011754047 -0.088480994 -0.09048826 0.008963962 0.120183416 0.047901466 -0.080484375
0.040876474 0.05895546 0.04049539 -0.0074959015 0.14316782 -0.01932944 0.039697707 0.0929242

linear1.weight f4 [1, 32]
00000000: f8d1 803e 6295 3c3e 9363 31be dc85 0b3e
00000010: 57ef 393e 722e 673e 1f27 5c3e 1c6a 283e
00000020: 22b5 2d3e 55df 15be 57f3 8bbe 332d 74be
00000030: a2fa fbbd 73c8 30be 1c74 a5be 5aa9 433e
00000040: 6b19 88be 2377 693e ebe6 02be e29d 8dbe
00000050: 568d 40be 7cd5 903e b2d0 89be a284 603e
00000060: 8e1a 733e fde2 7d3e c0ea 473e bf59 3dbe
00000070: 74e5 623e 2fbc 313e add1 823e d47a 243e
0.25160193 0.1841636 -0.17323141 0.13625282 0.18157707 0.22576311 0.21499299 0.16446728
0.16963628 -0.14635976 -0.2733409 -0.23845367 -0.12303664 -0.17263965 -0.32315147 0.19107571
-0.26581892 0.22799353 -0.127834 -0.27659518 -0.18803915 0.28287876 -0.26917034 0.21925595
0.23740599 0.2479362 0.19523144 -0.18491267 0.22157842 0.17356943 0.25550595 0.1606248

exp_avg f4 [256, 26]
00000000: 4869 8a37 d4d1 95b8 74ef 8a38 b0ab 2c37
00000010: 8186 0c39 7110 44b8 7ef5 4838 949f ddb8
00000020: f821 4239 58c3 0339 f0fc 0fb9 2c9e 0eb7
00000030: f7ff 0139 8e3e 01b8 50ed 18b8 9157 a3b7
00000040: 3b11 8137 94b6 0fb8 553c 7d37 f464 12b6
00000050: f41c 7337 168b a4b7 b9e7 8137 171b 8438
00000060: a3ac 7737 c94c e3b7 3fd6 2bb7 7da5 4bb8
00000070: 37cd e6b6 7da4 b035 ebfb 1337 db02 6837
00000080: af20 8037 ad6c 43b7 1eb5 5738 1608 d537
00000090: b4c3 03b8 17fa 54b7 7763 ce36 f697 e4b7
000000a0: 1752 9137 a313 9e36 025c 29b7 f414 5bb5
000000b0: 711a 20b7 0c23 8c37 4239 22b7 f85c 66b7
000000c0: e051 24b7 dac1 67b7 ca68 1eb7 a0ec 4037
000000d0: 364f 84b9 a2da a338 e766 9bb7 41fe 0d39
000000e0: 9e88 17b9 f65f 1538 1450 0a38 b18b 1638
000000f0: fdf9 9bb9 508d 83b9 b0c8 9339 772d 69b9
00000100: 5f24 d136 8018 9db7 c783 4338 ce70 af37
00000110: 61be 84b9 aa43 53b9 0f82 84b9 27fa 1bb9
00000120: 646f 83b9 70a6 b4b8 999a 82b9 8047 ddb8
00000130: 66e3 82b9 db4a 63b9 3cbd 8ab8 224e 7db9
00000140: b6a8 e038 36fb 40b8 4993 4039 bed7 f9b5
00000150: e2b8 9138 c659 3cb7 5fb8 8139 0292 2c39
00000160: 7159 2db9 67aa 2eb9 8f36 2338 bd0e 08b9
00000170: 4b25 59b6 632e f336 18cc 89b8 ab1f d8b7
00000180: 0e18 8ab8 e2c4 4fb8 f3bb 8ab8 718b 89b8
00000190: 6b15 8cb8 49fa aeb8 fee0 86b8 5a58 ad38
000001a0: 8058 35b9 29d3 d8b8 9333 0639 3225 09b9
000001b0: 2855 5d39 60a5 61b9 7e39 0338 2b71 f7b8
000001c0: 9fe0 32b7 8dae 0539 313f 05b8 ec81 8fb9
000001d0: 0932 ddb7 6f70 b837 7989 fcb7 b5ae 0738
000001e0: efef 33b9 59a1 7db8 b6d2 38b9 2c37 a3b9
000001f0: 2a1a 39b9 745e 1ab9 2ed4 3ab9 5892 65b9
00000200: c920 39b9 c182 46b8 dca6 6638 791a aab8
00000210: 009c cbb8 9242 06b9 6c82 90b8 0d10 0938
00000220: eb26 2db8 4d3c 1f37 39ab de38 1fea d138
00000230: bd7b e9b8 3ecc fdb5 a365 af38 5739 4bb8
00000240: 4f4e 0637 e46e 5438 6c60 6838 827a 5f38
00000250: bda6 6838 cfa1 2538 c696 6538 cd84 9536
00000260: 849b 6a38 a6a7 d938 a47a 6d38 af52 a538
00000270: f474 0539 1ef8 3f39 b210 1cb8 e969 70b8
00000280: 7d62 87b8 9176 b836 cd4b 04b9 5073 e838
00000290: 93c4 3ab8 d30c d3b7 793e 85b7 4600 f838
000002a0: a314 35b7 6bb0 2d38 9958 ffb7 5602 84b7
000002b0: 2479 0639 ad09 0239 4101 0539 c9e0 d637
000002c0: 7779 0539 7fd4 f938 4866 0539 52e2 c038
000002d0: 2a6e 0439 3948 4238 8150 b8b6 5361 d6b8
000002e0: 3073 fab8 2c28 c6b8 06b5 deb8 9969 d638
000002f0: 229a 1136 938f bbb7 ecc0 3639 6fc6 fc38
00000300: 8eab 06b9 c052 0f38 379e b3b7 f042 6d38
00000310: fc1e 2e38 0ab4 ad37 1a5b 34b7 fdb4 63b9
00000320: a0c2 0ab7 ca8b cd38 2c8c 0db7 68a7 78b7
00000330: bf4f 32b7 0bdf fdb8 1584 0fb7 ed49 d838
00000340: fb73 40b8 0fa6 13b9 b283 44b8 2ed0 3ab9
00000350: 28b3 8b38 9959 14b9 bf69 6f38 c744 63b9
00000360: f2e1 3439 cf03 7839 e660 5bb9 1083 7db7
00000370: fa30 2eb8 b261 efb8 4311 8cb7 8dc8 a2b4
00000380: fc0f 41b8 9bb6 18b8 5667 48b8 7da5 dbb8
00000390: f443 47b8 7c69 bab7 82f5 47b8 0e27 3ab8
000003a0: c069 43b8 e4e6 b937 883f a438 9433 4638
000003b0: fb92 17b8 6d74 80b8 a276 e7b7 1570 0fb9
000003c0: 266f 28b9 86cf 8a38 cc45 5ab9 397e c2b8
000003d0: d249 cd38 b61a 6737 6416 20b7 b513 b538
000003e0: 221a 02b8 e10b 4937 654b a338 e103 0d38
000003f0: 9e46 9b38 aecd e7b8 d0f1 9838 1b61 95b5
1.6499907e-05 -7.143957e-05 6.6249544e-05 1.0291973e-05 0.00013401547 -4.6745354e-05 4.791235e-05 -0.00010567825
0.00018513936 0.00012565905 -0.0001373177 -8.500687e-06 0.00012397753 -3.0814255e-05 -3.646064e-05 -1.947189e-05
1.5386022e-05 -3.4263896e-05 1.5094022e-05 -2.1814458e-06 1.449067e-05 -1.961509e-05 1.5485903e-05 6.2992964e-05
1.4762542e-05 -2.7096265e-05 -1.0242277e-05 -4.8553095e-05 -6.8784243e-06 1.3160894e-06 8.820537e-06 1.3828942e-05
1.5274009e-05 -1.1648209e-05 5.1428673e-05 2.5395344e-05 -3.1415097e-05 -1.2694413e-05 6.1508576e-06 -2.725048e-05
1.7323573e-05 4.711053e-06 -1.0094607e-05 -8.161435e-07 -9.5428995e-06 1.670562e-05 -9.669284e-06 -1.3730714e-05
-9.794225e-06 -1.38138075e-05 -9.441932e-06 1.1499185e-05 -0.0002523602 7.813169e-05 -1.8525358e-05 0.00013541525
-0.00014451376 3.561374e-05 3.2976342e-05 3.5892885e-05 -0.0002975016 -0.00025091553 0.0002818755 -0.00022237549
6.2329195e-06 -1.8727267e-05 4.661435e-05 2.0914154e-05 -0.00025318845 -0.00020147735 -0.00025273903 -0.00014875141
-0.0002506926 -8.61407e-05 -0.00024910716 -0.00010551419 -0.00024964957 -0.00021676293 -6.6156004e-05 -0.00024157067
0.00010712577 -4.6010326e-05 0.00018365415 -1.8614735e-06 6.948576e-05 -1.1226575e-05 0.00024742165 0.0001645759
-0.00016531885 -0.00016657413 3.891304e-05 -0.00012975461 -3.2357227e-06 7.2473645e-06 -6.5706845e-05 -2.5763953e-05
-6.584833e-05 -4.9536007e-05 -6.615361e-05 -6.558642e-05 -6.6797096e-05 -8.343586e-05 -6.431526e-05 8.2657396e-05
-0.00017294474 -0.00010339014 0.00012798449 -0.00013079194 0.00021107926 -0.00021519279 3.1286378e-05 -0.00011798957
-1.0661925e-05 0.00012748894 -3.1768523e-05 -0.00027371885 -2.6368552e-05 2.1986865e-05 -3.0104757e-05 3.2349217e-05
-0.00017160152 -6.0470167e-05 -0.00017626103 -0.0003113089 -0.00017652722 -0.00014721771 -0.00017817385 -0.00021893659
-0.00017655188 -4.7328653e-05 5.4991673e-05 -8.1111626e-05 -9.7088516e-05 -0.00012804035 -6.890748e-05 3.2678294e-05
-4.128266e-05 9.491178e-06 0.000106176776 0.00010009505 -0.00011133354 -1.8909411e-06 8.3635816e-05 -4.8452373e-05
8.005255e-06 5.0648014e-05 5.540291e-05 5.3281437e-05 5.5468397e-05 3.948976e-05 5.4738273e-05 4.456006e-06
5.5934783e-05 0.00010378593 5.661942e-05 7.883214e-05 0.00012727437 0.0001830761 -3.7208847e-05 -5.7319096e-05
-6.4556465e-05 5.4974303e-06 -0.00012616739 0.00011084101 -4.452893e-05 -2.5159132e-05 -1.5883927e-05 0.000118256125
-1.0793246e-05 4.1410716e-05 -3.0439625e-05 -1.5736714e-05 0.00012824364 0.0001240137 0.00012684336 2.5615462e-05
0.00012729118 0.00011912826 0.00012721971 9.197429e-05 0.0001262954 4.6320467e-05 -5.492999e-06 -0.00010222443
-0.00011942384 -9.448858e-05 -0.00010619503 0.00010223984 2.16964e-06 -2.2358994e-05 0.00017428742 0.000120532575
-0.00012843145 3.4170924e-05 -2.1412137e-05 5.6567544e-05 4.151369e-05 2.0707044e-05 -1.0750047e-05 -0.0002171583
-8.270756e-06 9.8011995e-05 -8.436891e-06 -1.4820929e-05 -1.0628194e-05 -0.00012105525 -8.554217e-06 0.000103134524
-4.5884382e-05 -0.00014080874 -4.6852692e-05 -0.00017815895 6.661407e-05 -0.00014147758 5.7080524e-05 -0.00021674029
0.00017250309 0.00023652542 -0.00020921565 -1.51104905e-05 -4.1530446e-05 -0.00011414605 -1.6697339e-05 -3.032077e-07
-4.6029672e-05 -3.640969e-05 -4.7779955e-05 -0.00010473558 -4.7508584e-05 -2.2222048e-05 -4.7673944e-05 -4.438223e-05
-4.659011e-05 2.2161235e-05 7.831963e-05 4.7254915e-05 -3.613809e-05 -6.1252016e-05 -2.7592589e-05 -0.00013679297
-0.00016063135 6.619007e-05 -0.00020816101 -9.274152e-05 9.788912e-05 1.3774892e-05 -9.541956e-06 8.634423e-05
-3.1018753e-05 1.1983299e-05 7.786489e-05 3.3620632e-05 7.4041294e-05 -0.00011053249 7.292966e-05 -1.1129627e-06

exp_avg_sq f4 [256, 26]
00000000: 0a1b 1234 dee1 4234 f364 cf34 4788 ea34
00000010: 7e92 d834 00c9 cd34 b887 dc34 7df8 0e35
00000020: a94c d834 a880 0035 4395 f734 63e0 4934
00000030: f58b a234 c4ab e934 3ea7 1c33 ba8f 3133
00000040: 70ed 0f34 d339 7d34 8c89 0e34 a4c8 2634
00000050: f4a3 0d34 b60f 4334 4de3 0c34 24cf 4f34
00000060: 699d 0c34 faff 8534 64f3 8534 eb56 9134
00000070: 9852 5033 2260 2033 6790 6133 5e6e a133
00000080: 48bf fb33 c7a8 dc33 870a a433 0aa9 7f33
00000090: 21a5 4633 a6ae 6734 938b 2833 9aca 8933
000000a0: 9700 3333 afb2 b632 3cb1 8834 98b5 1235
000000b0: 38ed 8934 6280 9234 4164 8b34 cd8f d134
000000c0: 7974 8c34 18e1 aa34 ab58 8e34 50ee ee34
000000d0: 8801 6d36 40f1 b836 b8c2 ac35 fd56 b435
000000e0: 6810 dc35 fd26 f735 90be 0a36 a2ee 3236
000000f0: d15b 0436 88f3 0636 4b6f da35 66ff 5636
00000100: 2184 a135 b1fe cf35 2e2f 7e34 ee2b 4234
00000110: 2ab1 6e36 ba36 b736 3dda 7036 81a3 8636
00000120: 918f 6f36 bd0c 3236 3771 6e36 655f 3536
00000130: 72d7 6f36 6173 9d36 7961 fa35 9afb 1e36
00000140: 6ea2 de34 19f5 c334 0b20 e234 5ff7 c334
00000150: 8720 f434 0465 1335 ff88 e134 a7bd de34
00000160: acb3 cc34 428b d635 8726 4135 5aea 1935
00000170: 1037 c032 13af 8032 d8f3 fb35 12f9 f835
00000180: af1e fc35 399b a535 2049 fd35 4969 0d36
00000190: 3af1 fc35 65dc cc35 6219 fe35 2b6c 1036
000001a0: e960 2e35 52d9 2735 92da 6435 6abf 4435
000001b0: ec4e d035 cc82 0036 ab80 0236 53d7 5636
000001c0: 89a2 0336 5888 f335 63d7 ac35 7803 8a35
000001d0: be47 c635 538d b635 1030 f634 40cd b734
000001e0: fee2 2e35 e659 3c36 1eb4 2f35 07f4 c535
000001f0: feb5 2f35 791f 8435 6160 2f35 94a2 5135
00000200: 7084 2f35 62d1 8535 ab61 8c35 187c 9735
00000210: 23d3 1335 e8d9 5935 6801 ea34 4187 d734
00000220: f89e b034 cc19 2535 86e2 8834 6a40 3535
00000230: 8bb7 3a35 b8bd 6235 114d 5a34 0044 a734
00000240: aa8e 2b35 198f 2435 eaa7 8c35 1b9c 7f35
00000250: 72de 8d35 8b2a 9835 f028 8f35 ebd9 fa35
00000260: 5e97 8f35 486a a235 1024 9135 9364 f235
00000270: 3a9f 4235 a420 0e35 dcae ef34 8944 a534
00000280: ef13 c134 f0a0 0d34 54c4 1f34 b5ee 1a34
00000290: 245e 3834 eae9 6134 82a4 8d34 6a4b 2d35
000002a0: 9cd3 1034 0781 7534 1e96 1a33 ed64 f632
000002b0: a376 4235 5dfa f134 fedb 4135 f104 0235
000002c0: 7f95 4035 abfd f234 e581 4035 bcc5 3835
000002d0: 50fa 4035 6bf9 3335 f7ba a735 cfee b035
000002e0: ae4e af34 3800 d234 91a6 8934 7343 dc34
000002f0: 183f 1135 31cb 4f34 e4ee 9934 a0b6 aa34
00000300: 5906 bc34 8ef9 3435 001d 3b34 a634 c134
00000310: a3b1 1e34 0727 3434 b66a a835 93af b535
00000320: 178e a935 fa67 a935 19e7 a935 5586 9f35
00000330: 2ec6 aa35 1a9e c735 7e1c ab35 c126 a235
00000340: 987e e535 db40 f235 4e2c 1135 b67d 1235
00000350: 2f50 1235 219b 1d35 2b1a 3e35 c07e 4735
00000360: 9611 1d35 1f40 1f35 37eb 1335 e145 c735
00000370: 918d 3435 9f8a 1d35 d337 2a33 8cab db32
00000380: 8c96 e735 564a 1736 094b ea35 3c10 1c36
00000390: 0e37 ec35 12d8 1f36 81ba ed35 3ad4 1036
000003a0: 20b1 ef35 e622 2736 667e 9934 c2f1 8634
000003b0: 60ab 0835 9c8d 3835 4cf8 cb34 fca9 4a35
000003c0: 4248 6435 05c4 b034 c53d f234 bd0b 1d35
000003d0: 5786 2735 3210 fe34 875a 8134 6da5 5e34
000003e0: 8506 2234 9632 3734 c583 9934 c7fc 1e35
000003f0: aee6 9834 aa3b d534 2577 9834 3fae 9434
1.3607146e-07 1.8149828e-07 3.8630205e-07 4.368505e-07 4.0339722e-07 3.8330472e-07 4.1076942e-07 5.326072e-07
4.0288913e-07 4.7870935e-07 4.6115937e-07 1.8801215e-07 3.0276684e-07 4.3524608e-07 3.6473686e-08 4.1341742e-08
1.3404292e-07 2.3583497e-07 1.327482e-07 1.5532947e-07 1.3191294e-07 1.8166506e-07 1.3121208e-07 1.9353735e-07
1.3095782e-07 2.4959428e-07 2.495027e-07 2.7071596e-07 4.8503892e-08 3.7340335e-08 5.2518228e-08 7.5172224e-08
1.1722892e-07 1.0275249e-07 7.63876e-08 5.9525554e-08 4.625065e-08 2.1577088e-07 3.924249e-08 6.416413e-08
4.167722e-08 2.1268844e-08 2.546093e-07 5.465349e-07 2.5690838e-07 2.728803e-07 2.5963712e-07 3.9033912e-07
2.6161777e-07 3.1828745e-07 2.6514076e-07 4.450435e-07 3.5316643e-06 5.5117125e-06 1.2871669e-06 1.3436362e-06
1.6396052e-06 1.8414281e-06 2.0674524e-06 2.666297e-06 1.9722977e-06 2.010931e-06 1.6274656e-06 3.2037146e-06
1.2033889e-06 1.5496827e-06 2.3672757e-07 1.808364e-07 3.5567887e-06 5.460196e-06 3.5889818e-06 4.0125456e-06
3.5697342e-06 2.6531482e-06 3.5530663e-06 2.7026629e-06 3.573918e-06 4.6923965e-06 1.865482e-06 2.3690286e-06
4.1468905e-07 3.6499912e-07 4.2119095e-07 3.6501567e-07 4.5472208e-07 5.4908764e-07 4.2009194e-07 4.1488713e-07
3.812869e-07 1.5984772e-06 7.195417e-07 5.733797e-07 2.2376781e-08 1.4980776e-08 1.8771925e-06 1.8549929e-06
1.8784393e-06 1.2338634e-06 1.8871251e-06 2.1071921e-06 1.8845669e-06 1.5263328e-06 1.8931862e-06 2.1520634e-06
6.4961074e-07 6.252859e-07 8.525468e-07 7.3294234e-07 1.5520177e-06 1.914962e-06 1.9446404e-06 3.201382e-06
1.961513e-06 1.8144592e-06 1.2877684e-06 1.0282811e-06 1.4773029e-06 1.3601187e-06 4.585604e-07 3.4235745e-07
6.515037e-07 2.806651e-06 6.5454685e-07 1.4748665e-06 6.5457414e-07 9.843926e-07 6.533283e-07 7.809515e-07
6.53853e-07 9.970211e-07 1.0459238e-06 1.1286493e-06 5.506901e-07 8.1155895e-07 4.358692e-07 4.014528e-07
3.289822e-07 6.150483e-07 2.5496792e-07 6.752149e-07 6.955749e-07 8.446764e-07 2.0330869e-07 3.115565e-07
6.391007e-07 6.1302995e-07 1.0479682e-06 9.5222066e-07 1.0570059e-06 1.1337264e-06 1.0666245e-06 1.8689874e-06
1.0698384e-06 1.2100872e-06 1.0813837e-06 1.8059676e-06 7.2502337e-07 5.294662e-07 4.4644446e-07 3.078351e-07
3.5963555e-07 1.3190197e-07 1.4879453e-07 1.4429209e-07 1.7170584e-07 2.1039855e-07 2.6382992e-07 6.4557264e-07
1.3488028e-07 2.2864343e-07 3.599245e-08 2.8684065e-08 7.244327e-07 4.507191e-07 7.2218234e-07 4.8435965e-07
7.174312e-07 4.526058e-07 7.1714595e-07 6.8833083e-07 7.1889826e-07 6.704565e-07 1.2496884e-06 1.3182524e-06
3.2653537e-07 3.9115707e-07 2.5639432e-07 4.102727e-07 5.410852e-07 1.9352298e-07 2.8672287e-07 3.1797845e-07
3.5022347e-07 6.7418375e-07 1.7426282e-07 3.5987358e-07 1.477952e-07 1.6778004e-07 1.2548032e-06 1.353665e-06
1.2632835e-06 1.2621742e-06 1.265874e-06 1.1885519e-06 1.2723665e-06 1.4872669e-06 1.2748785e-06 1.208122e-06
1.7098673e-06 1.804928e-06 5.408118e-07 5.457217e-07 5.450592e-07 5.87128e-07 7.0818595e-07 7.431772e-07
5.851265e-07 5.9325424e-07 5.510405e-07 1.4846993e-06 6.726123e-07 5.868878e-07 3.963198e-08 2.5572966e-08
1.7254656e-06 2.2544023e-06 1.7456197e-06 2.325526e-06 1.7599393e-06 2.3818616e-06 1.7712156e-06 2.1581204e-06
1.7858438e-06 2.4905253e-06 2.8590438e-07 2.5135347e-07 5.091333e-07 6.875141e-07 3.7992356e-07 7.5498224e-07
8.504177e-07 3.2925178e-07 4.5120956e-07 5.850414e-07 6.240784e-07 4.732297e-07 2.409399e-07 2.0735543e-07
1.5089798e-07 1.7061606e-07 2.8594346e-07 5.9227426e-07 2.8480048e-07 3.9717753e-07 2.8398895e-07 2.769393e-07
