script/checkpoint_new.tar (torch_old, 311354 bytes, 21 tensors)

lstm.weight_ih_l0 f4 [256, 26]
0	0xbd55f465	-0.052235026
1	0x3d80b603	0.06284716
2	0xbd9b18ed	-0.075731136
3	0x3e2320f9	0.15930547
4	0xbddde1fb	-0.10834118
5	0x3d82dfa2	0.06390311
6	0xbe2b3702	-0.16720203
7	0xbd7fd293	-0.06245668
8	0x3bbe8d4b	0.0058151833
9	0x3ca76140	0.020432115
10	0xbe15e856	-0.1463941
11	0x3e1d0def	0.15337346
12	0xbde83844	-0.11338857
13	0x3db2d026	0.087311074
14	0x3d1cadf4	0.038251832
15	0xbd9ce74f	-0.07661306
16	0xbdf65ae4	-0.12029055
17	0x3d995ddf	0.074886076
18	0x3d6e785a	0.058220245
19	0x3e190de5	0.14946707
20	0x3d2c5053	0.04206879
21	0x3c9e140b	0.019296667
22	0x3dc8fb71	0.09813584
23	0x3d9b4117	0.07580774
24	0x3d770d4b	0.06031541
25	0x3ceb4cfb	0.02872323
26	0x3e1a186b	0.15048377
27	0x3dcfcd3d	0.10146568
28	0x3df3583c	0.11882064
29	0xbd35df07	-0.04440215
30	0xbd970f74	-0.07375994
31	0x3d04199c	0.032250986
32	0xbd968bc0	-0.07350874
33	0x3d0b8e8c	0.03407149
34	0xbe7be87f	-0.24600409
35	0x3c0a57ae	0.008443756
36	0xbdccc529	-0.09998543
37	0xbdf5e758	-0.12007016
38	0xbdd564f2	-0.104196444
39	0xbdf6a08f	-0.12042343
40	0xbe16dcc3	-0.14732651
41	0xbd657bae	-0.056026153
42	0x3d8396d4	0.064252526
43	0x3d89085c	0.066910475
44	0xbcc7f922	-0.024410788
45	0x3d9ed51f	0.077554934
46	0x3cc76900	0.02434206
47	0x3bb8451c	0.005623473
48	0x3cd101f0	0.02551362
49	0xbc220bc6	-0.009890502
50	0x3e2173fc	0.15766901
51	0x3d90c7d0	0.07069361
52	0x3e3e763c	0.1859979
53	0x3d20d446	0.03926494
54	0x3dc43a45	0.095814265
55	0xbd1164c4	-0.03549649
56	0x3d3cda75	0.046106774
57	0xbe27480a	-0.16336074
58	0xbe0be13e	-0.13660142
59	0x3d3b0b4e	0.045665078
60	0xbe80aaaf	-0.2513022
61	0xbc6e11e1	-0.01453063
62	0xbe5bb940	-0.21457386
63	0xbe6f0397	-0.23341213
64	0x3d6d33af	0.057910617
65	0xbc9001c0	-0.01757896
66	0x3dcda2d0	0.1004082
67	0xbd6e5c8f	-0.05819374
68	0x3d21dcc7	0.03951719
69	0x3cb87f54	0.022521652
70	0x3e35b872	0.17746142
71	0x3cdc9b18	0.026929423
72	0x3d159e0f	0.03652769
73	0x3d5bfbdb	0.053706985
74	0x3e2432d3	0.16035013
75	0xbd4dc8d0	-0.050240338
76	0x3e21d9b2	0.158057
77	0x3d8957ad	0.06706176
78	0x3cbfe531	0.023424717
79	0xbc82bc9b	-0.015959075
80	0x3e109f79	0.14123334
81	0xbdf31051	-0.118683465
82	0xbd54f285	-0.051989097
83	0xbdccaeb3	-0.09994259
84	0xbe161647	-0.14656936
85	0xbe17295c	-0.14761871
86	0xbd12b4bc	-0.035816893
87	0xbd257543	-0.040395033
88	0x3ce01ad4	0.027356543
89	0xbe2ea014	-0.17053252
90	0xbd9211fc	-0.071323365
91	0xbc57d51c	-0.013173368
92	0xbd8adf2a	-0.067808464
93	0x3e098010	0.13427758
94	0xbe03287a	-0.1280841
95	0x3d44925b	0.047991138
96	0xbdb88a53	-0.09010758
97	0xbde9bca8	-0.114129364
98	0x3cb7fddf	0.022459922
99	0x3d6d63ec	0.05795662
100	0xbe12de25	-0.14342554
101	0x3d77ae43	0.060468923
102	0xbd87bd37	-0.06627887
103	0xbd50f9a7	-0.051019337
104	0x3c9d6d3b	0.019217124
105	0x3d8f1aab	0.069875084
106	0xbda5e6c7	-0.08100658
107	0xbcc25248	-0.023720875
108	0x3d91f4d7	0.071267776
109	0x3a074ecc	0.0005161583
110	0xbd994be7	-0.0748518
111	0x3b78eb11	0.0037981907
112	0xbd8545a8	-0.065074265
113	0xbbcbbf1a	-0.0062178494
114	0xbd407cb9	-0.046993945
115	0xbe18164a	-0.14852253
116	0xbd54e5e1	-0.051977042
117	0xbd47aeb0	-0.04875058
118	0x3cbf95be	0.023386832
119	0x3c63712a	0.013881961
120	0x3cbd2bde	0.023092207
121	0x3d998271	0.07495583
122	0x3db90d8d	0.09035788
123	0x3d9f48ea	0.07777579
124	0xbcb236b1	-0.021754595
125	0x3dbae6cd	0.09126053
126	0xbd3e6e5f	-0.046491977
127	0x3df3ae5d	0.118984915
128	0xbdb93eab	-0.09045156
129	0x3bea715c	0.007154627
130	0x3d4fc99b	0.050729375
131	0x3e1963b3	0.14979438
132	0x3b962343	0.0045818402
133	0x3d2f6bd8	0.042827457
134	0xbc0eede5	-0.008723711
135	0x3e160699	0.14650954
136	0xbe2aa89b	-0.1666588
137	0xbdcf9859	-0.1013648
138	0xbdd2dffa	-0.102966264
139	0x3dd43474	0.10361567
140	0x3d1916ee	0.037375383
141	0xbe6d1958	-0.23154199
142	0x3cb61b77	0.022229893
143	0x3c95f5a2	0.018305603
144	0xbe15dc4d	-0.1463482
145	0x3c20172a	0.009771148
146	0x3d612cac	0.054974243
147	0x3e157143	0.14593987
148	0x3d87e316	0.0663511
149	0x3c7b7350	0.015347317
150	0xbdab18c0	-0.0835433
151	0x3dddbb14	0.10826698
152	0xbba31a10	-0.004977472
153	0x3c93ae7b	0.018027535
154	0xbd8167c5	-0.063186206
155	0xbda99f2e	-0.08282314
156	0xba5883f7	-0.00082594104
157	0x3e0b66dc	0.13613456
158	0xbc24b646	-0.010053223
159	0x3e5e4718	0.21706808
160	0x3db5cd16	0.08877008
161	0x3cb045fe	0.02151775
162	0xbe85b619	-0.26115492
163	0xbdd8bc72	-0.10582818
164	0x3dd95645	0.10612158
165	0xbdf639ae	-0.1202272
166	0xbdaf27fa	-0.08552547
167	0x3c392ee9	0.011302688
168	0x3cf68fbb	0.030097833
169	0x3d84a4be	0.064767346
170	0x3d5fb1af	0.05461281
171	0xbd5b1949	-0.05349091
172	0xbd428414	-0.04748924
173	0xbc744d56	-0.014911016
174	0x3deed583	0.11661818
175	0x3d4b84a0	0.049687028
176	0xbbab89da	-0.005234939
177	0xbc5c1ab5	-0.013434102
178	0x3e15b88f	0.14621185
179	0xbdf20c02	-0.118186966
180	0xbd9bd50e	-0.07608996
181	0xbe06b302	-0.13154224
182	0xbc7e85dc	-0.015534844
183	0x3c3ca7be	0.011514602
184	0xbd9818d8	-0.074266136
185	0xbd56b058	-0.05241427
186	0x3d3a336f	0.045459207
187	0xbd3be7c7	-0.045875337
188	0x3d487f64	0.048949614
189	0x3d100615	0.03516205
190	0xbe68788c	-0.22702235
191	0xbc3db52b	-0.011578838
192	0x3ce00317	0.027345223
193	0xbe14e14b	-0.14539067
194	0x3db05e21	0.08611704
195	0xbd8f28b2	-0.06990184
196	0xbd26e961	-0.04074991
197	0xbd6e5807	-0.05818942
198	0x3e12f1c9	0.14350046
199	0xbc53dfd9	-0.012931787
200	0x3d2fdd75	0.042935807
201	0xbaa441d5	-0.0012531827
202	0x3d99ef3b	0.07516333
203	0xbe13c210	-0.14429498
204	0x3be8af46	0.0071009723
205	0x3c79de19	0.015250706
206	0x3ddddabc	0.10832736
207	0xbc392aed	-0.011301738
208	0x3df8111b	0.121126376
209	0x3d6ba1dc	0.057527408
210	0x3d607c02	0.054805763
211	0xbe02a55a	-0.12758389
212	0x3c862a65	0.016377637
213	0x3e37ab78	0.17936504
214	0x3cdade7a	0.026717413
215	0x3d01536e	0.031573705
216	0xbca65e0b	-0.020308515
217	0xbc926456	-0.01787011
218	0x3e0de323	0.13856177
219	0x3c86f996	0.016476434
220	0x3e325e6f	0.17418836
221	0x3dc9e9b5	0.09859029
222	0xbc4f9e97	-0.012672088
223	0x3d079427	0.033100273
224	0xbd6d2a21	-0.057901505
225	0x3dc7b57d	0.09751413
226	0x3d22ce5f	0.039747592
227	0x3d6dd079	0.058060143
228	0xbca36f5f	-0.019950567
229	0x3ccf379c	0.025295071
230	0xbda663e5	-0.08124522
231	0xbe07e8ee	-0.1327245
232	0x3deab87d	0.114609696
233	0x3d368220	0.04455769
234	0xbd5386fe	-0.05164241
235	0xbd9ccab1	-0.07655848
236	0x3e6d7326	0.23188457
237	0x3d3da6c1	0.046301607
238	0x3dd5141a	0.10404225
239	0xbde48efe	-0.11160086
240	0xbe35ad78	-0.17741954
241	0xbd35bb4f	-0.044368085
242	0xbde89e44	-0.11358312
243	0x3d1742d3	0.036928963
244	0xbda0b71e	-0.07847427
245	0xbd7c96e8	-0.061667353
246	0xbcbc12bf	-0.022958158
247	0xbc0f87ee	-0.0087604355
248	0xbd80331d	-0.06259749
249	0x3e248aee	0.16068622
250	0x3e06787e	0.13131902
251	0x3dba76de	0.09104703
252	0xbcc5e6ce	-0.024157908
253	0xbd035b32	-0.032069393
254	0x3d0b297b	0.033975106
255	0x3e07e1ea	0.13269773

lstm.weight_hh_l0 f4 [256, 64]
0	0x3d21bca0	0.039486527
1	0x3d93f900	0.07225227
2	0xbdbc9c4c	-0.09209499
3	0xbde9faca	-0.11424787
4	0x3ce8faf0	0.028439969
5	0x3cfc1808	0.030773178
6	0xbcf883d8	-0.030336305
7	0xbbb1c820	-0.005425468
8	0xbd4b9d38	-0.049710482
9	0x3d435654	0.04768975
10	0xbd87286a	-0.06599505
11	0xbd13a2d0	-0.036043942
12	0x3d3ec058	0.046570152
13	0xbd0ef97c	-0.034905896
14	0xbdea243e	-0.11432694
15	0xbd81d8ee	-0.06340204
16	0xbdbec03c	-0.093140095
17	0xbd8aeeb2	-0.06783809
18	0x3d5f4820	0.054512143
19	0xbdecbd0a	-0.11559494
20	0xbbece760	-0.0072297305
21	0x3c9d32b8	0.019189224
22	0x3c662830	0.014047667
23	0xbdfd1da2	-0.12359168
24	0xbde1a4e4	-0.110177785
25	0xbdd9815a	-0.10620375
26	0x3d4faf64	0.050704375
27	0x3dc348dc	0.09535381
28	0xbda9b986	-0.08287339
29	0x3d8ff0e2	0.070283666
30	0x3d9b86e0	0.07594085
31	0xbdfe3486	-0.12412362
32	0x3dfdca72	0.12392129
33	0x3d8be4a2	0.068307176
34	0x3cf39e38	0.02973853
35	0x3d15f728	0.03661266
36	0xbdb6cae0	-0.08925414
37	0xbd9c5a8a	-0.076344565
38	0x3d9656a2	0.07340743
39	0x3dff53fc	0.124671906
40	0xbdc11e20	-0.09429574
41	0xbdec7f10	-0.11547673
42	0xbd9d0a78	-0.076680124
43	0x3c95aec0	0.018271804
44	0xbd7a2ca8	-0.061077744
45	0x3ddf0c14	0.108909756
46	0xbb37e240	-0.002805844
47	0x3c376170	0.0111926645
48	0xbd92a5e4	-0.071605474
49	0x3caf2e10	0.021384269
50	0xbce36f90	-0.027763158
51	0x3cc26328	0.023728922
52	0x3dac94da	0.08426829
53	0xbdd305aa	-0.10303815
54	0xbda68ce6	-0.08132343
55	0x3c20d130	0.009815499
56	0x3d1c7c6c	0.038204595
57	0x3de0a970	0.10969818
58	0x3de9268c	0.11384305
59	0xbc789090	-0.015171185
60	0xbd3fcde8	-0.046827227
61	0xbda7edb4	-0.08199635
62	0xbdce52be	-0.100743756
63	0xbddb9268	-0.10721284
64	0x3d98db6c	0.074637264
65	0x3b072980	0.00206241
66	0xbd9ca3c2	-0.07648422
67	0xbdca8bca	-0.09889944
68	0x3d9d6664	0.07685545
69	0xbd227a80	-0.039667606
70	0xbcb96f30	-0.022636026
71	0x3cd119c0	0.025524974
72	0x3dcac1e4	0.09900263
73	0x3d303fe0	0.043029666
74	0xbda017a6	-0.078170106
75	0xbd9c7730	-0.07639921
76	0x3d9ad3f2	0.075599566
77	0xbdde65a0	-0.10859227
78	0x3c25c750	0.010118321
79	0x3dc94126	0.09826879
80	0xbce84af8	-0.02835606
81	0xbd561298	-0.052263826
82	0x3d6acc50	0.057323754
83	0x3d8f1d54	0.06988016
84	0x3dfee9ec	0.12446961
85	0xbd22fd44	-0.039792314
86	0xbdd7f73e	-0.105452046
87	0x3d07d578	0.033162564
88	0xbdba6638	-0.09101528
89	0xbdafcd1a	-0.08584042
90	0xbd10e454	-0.035374
91	0xbd7dcfd0	-0.061965764
92	0xbcd2b2f8	-0.025720105
93	0x3c9e7558	0.019343063
94	0xbde27976	-0.11058323
95	0xbd34dd38	-0.044156283
96	0x3d46e374	0.04855676
97	0x3d01c868	0.031685263
98	0xbd9a1bea	-0.075248554
99	0x3cd71160	0.026253402
100	0x3d172714	0.036902502
101	0xbd43aff4	-0.047775224
102	0x3ddeebf0	0.10884845
103	0x3da996c8	0.08280712
104	0xbcb1ed88	-0.021719709
105	0x3da1deae	0.07903801
106	0xbd8cb7d6	-0.068710014
107	0xbda08c06	-0.07839207
108	0x3d3393b8	0.043842047
109	0x3dccf5a0	0.10007787
110	0xbc0fcfc0	-0.008777559
111	0x3d66c02c	0.056335613
112	0xbc5b31e0	-0.01337859
113	0x3c6ea2b0	0.014565155
114	0x3d3d7070	0.046249807
115	0xbdc4230a	-0.09576996
116	0xbdec8862	-0.115494505
117	0xbb62a040	-0.003458038
118	0x3d9adefa	0.07562061
119	0x3cc6bb20	0.02425915
120	0x3d9d6604	0.076854736
121	0x3d7bb7e8	0.061454684
122	0xbd3fcfac	-0.04682891
123	0xbde3be9c	-0.1112034
124	0x3db04936	0.08607714
125	0x3d823a4e	0.06358777
126	0xbd9a05e2	-0.07520653
127	0x3d813106	0.063081786
128	0xbd476b58	-0.048686355
129	0x3d199acc	0.03750114
130	0x3d3596cc	0.044333264
131	0x3d3fc538	0.04681894
132	0xbdf7e94c	-0.12105045
133	0xbd835164	-0.064120084
134	0x3d813840	0.06309557
135	0xbdb53e2e	-0.088497505
136	0xbd4e0dec	-0.050306246
137	0x3c7c1810	0.015386596
138	0x3df47daa	0.11938031
139	0x3cd05a10	0.02543357
140	0xbd4b9c34	-0.049709514
141	0x3b319180	0.0027094781
142	0x3d88f320	0.066869974
143	0xbd807412	-0.06272139
144	0x3df47ba8	0.11937648
145	0xbc9a66c8	-0.018847838
146	0x3cbf94c8	0.023386374
147	0xbd91ff38	-0.07128757
148	0x3d74dcc0	0.059780836
149	0xbc0450d0	-0.008075908
150	0x3dfb1afa	0.12261005
151	0xbddbab1a	-0.107259944
152	0x3dd71ba4	0.10503319
153	0xbd7a2c24	-0.061077252
154	0x3dc4976c	0.09599194
155	0x3cce9c20	0.02522093
156	0xbdf8b23c	-0.121433705
157	0xbca9fd98	-0.020750806
158	0x3d775e14	0.060392454
159	0xbbaff8e0	-0.0053702444
160	0x3da594ce	0.08085023
161	0xbd6fcd14	-0.058545187
162	0xbdcca406	-0.099922225
163	0x3c441cf0	0.01196979
164	0x3dbeea04	0.09321979
165	0xbdc81a0c	-0.09770593
166	0x3d98b7fe	0.07456969
167	0x3dba180e	0.09086619
168	0xbd836446	-0.0641561
169	0x3dbb10fc	0.09134099
170	0x3db53772	0.08848466
171	0xb9f8e800	-0.000474751
172	0xbdfdcf48	-0.123930514
173	0xbd001558	-0.031270355
174	0xbcfc70d0	-0.030815512
175	0xbc894188	-0.01675488
176	0xbd1836cc	-0.037161633
177	0xbda6b304	-0.08139613
178	0xbd434804	-0.0476761
179	0x3d145c50	0.03622085
180	0xbdefdd34	-0.11712113
181	0x3c8e7848	0.017391339
182	0x3d834dbc	0.06411311
183	0xbd988600	-0.074474335
184	0xbd8ac93e	-0.06776665
185	0x3d047810	0.032341063
186	0xbde74910	-0.112932324
187	0xbdea924e	-0.11453687
188	0xbd910cbc	-0.07082507
189	0xbdfea8d0	-0.12434542
190	0x3a6b3500	0.0008972436
191	0xbd6b92d4	-0.057513073
192	0xbd3a8254	-0.045534447
193	0xbc1777f0	-0.009244904
194	0xbcb0b878	-0.021572337
195	0xbb304200	-0.0026894808
196	0x3d96b886	0.07359414
197	0x3df2f9f2	0.118640795
198	0xbdc9ee9c	-0.09859964
199	0xbdb26648	-0.08710915
200	0xbcd1b600	-0.02559948
201	0x3a971900	0.0011527836
202	0x3d40e308	0.047091514
203	0xbd8cd1bc	-0.06875941
204	0x3dc2399a	0.09483643
205	0x3d03dbf4	0.032192186
206	0xbd666eec	-0.056258127
207	0x3d9e5a78	0.07732099
208	0xbd246b88	-0.040141612
209	0xbd8431b6	-0.06454794
210	0xbdb8113c	-0.08987662
211	0x3deed49c	0.11661646
212	0x3c942908	0.018085971
213	0xbd3b7ac0	-0.04577136
214	0xbd601a20	-0.054712415
215	0x3d571cdc	0.052517757
216	0x3db1a2ec	0.08673653
217	0x3dacafe6	0.084319875
218	0xbde7f09a	-0.11325188
219	0x3d0e1ce4	0.03469552
220	0xbdbd6442	-0.09247638
221	0xbdd76c70	-0.1051873
222	0xbd2e6fc8	-0.04258707
223	0x3c086d30	0.008326814
224	0xbd393238	-0.045213908
225	0x3ca0f320	0.019647181
226	0xbd0f283c	-0.03495048
227	0x3ddae8fa	0.10688968
228	0x3dd7476c	0.105116695
229	0x3ce9c578	0.028536543
230	0xbdbfa166	-0.09356956
231	0x3c4747d0	0.0121631175
232	0xbdbbd42c	-0.09171328
233	0xbdb01658	-0.08598012
234	0x3d9b0874	0.07569972
235	0xbbfbe140	-0.007686764
236	0x3d5dd9d8	0.05416283
237	0xbcc88598	-0.024477765
238	0xbb8965a0	-0.004193023
239	0xbcbcdd40	-0.023054719
240	0xbd97448c	-0.07386121
241	0x3d29b248	0.041429788
242	0xbd0ea6b0	-0.034826934
243	0x3ce6b658	0.02816312
244	0xbcd33be0	-0.025785387
245	0x3d037338	0.032092303
246	0xbd94c4b2	-0.07264079
247	0xbdd9d446	-0.10636191
248	0x3c514360	0.012772411
249	0xbdfc0132	-0.123049155
250	0x3d7e71c8	0.06212023
251	0x3c881ee0	0.016616285
252	0x3db083b2	0.08618869
253	0xbd6e3400	-0.05815506
254	0x3d103c68	0.035213858
255	0xbcddf1f0	-0.027092904

lstm.bias_ih_l0 f4 [256]
0	0x3dba12f7	0.090856485
1	0x3e4a22c5	0.19739826
2	0x3d10cee4	0.035353556
3	0xbd373791	-0.044730727
4	0x3cbbb184	0.022911794
5	0xbd8b9a2e	-0.06816517
6	0x3deafadf	0.11473631
7	0x3dcc8d16	0.099878475
8	0x3d21413f	0.039368864
9	0xbd27caae	-0.040964775
10	0xbd93a42f	-0.0720905
11	0x3d9cbf54	0.076536804
12	0x3d89d3d7	0.06729858
13	0x3d5e998a	0.054345645
14	0x3d483915	0.048882563
15	0x3dd31b07	0.103078894
16	0xbcabad00	-0.020956516
17	0x3caab6bc	0.020839088
18	0x3e16e49f	0.1473565
19	0xbc64c395	-0.013962646
20	0xbcfa25f9	-0.030535685
21	0xbe199b27	-0.15000592
22	0xbd8823ed	-0.06647477
23	0x3cf9e988	0.030506864
24	0x3e1cdfb0	0.15319705
25	0x3c71f295	0.014767309
26	0x3e11342d	0.1418006
27	0x3da5d81b	0.080978595
28	0xbd2b4396	-0.0418125
29	0x3e0e64d3	0.13905649
30	0xbd85f0e1	-0.06540085
31	0x3e26f71b	0.16305201
32	0xbd462349	-0.048373494
33	0x3cf5d898	0.030010507
34	0x3dc34979	0.09535498
35	0xbcac0719	-0.020999478
36	0x3e0a3bdf	0.13499402
37	0x3d73c364	0.05951251
38	0x3d9307ac	0.07179198
39	0x3db7ebfe	0.08980559
40	0xbd604db3	-0.0547616
41	0x3db8684a	0.090042666
42	0xbcad23b6	-0.021135192
43	0x3d144bd5	0.03620513
44	0x3daf86f4	0.08570662
45	0x3d8a2ace	0.067464456
46	0x3e2aa0c0	0.16662884
47	0x3ca0d1f9	0.019631373
48	0x3cea3c69	0.028593259
49	0x3dc52fa5	0.09628228
50	0xbd364f07	-0.04450896
51	0xbd800617	-0.062511615
52	0x3d88500e	0.06655894
53	0x3d9bb5ee	0.0760306
54	0x3e1f39d9	0.15549411
55	0xbd593bdd	-0.053035606
56	0x3e20090e	0.15628454
57	0xbd3ecd91	-0.046582762
58	0xbc934e6d	-0.017981732
59	0x3dcce31c	0.10004255
60	0xbbcd3a22	-0.0062630335
61	0x3d2283de	0.03967654
62	0xbcf0cc84	-0.029394396
63	0x3d961061	0.07327343
64	0xbdece76c	-0.11567578
65	0xbd47e888	-0.048805743
66	0x3db8eed6	0.09029929
67	0xbca923c0	-0.02064693
68	0x3dccde42	0.1000333
69	0xbdb97e46	-0.09057288
70	0xbdaab556	-0.08335368
71	0xbddfe934	-0.10933152
72	0xbd85ab92	-0.06526865
73	0x3d10228c	0.035189196
74	0x3dd5c8a4	0.1043866
75	0xbdaf9d40	-0.08574915
76	0x3db65316	0.08902566
77	0xbcbd7a08	-0.023129478
78	0x3d477f9c	0.048705682
79	0x3cb06400	0.021532059
80	0xbdd9e6d6	-0.106397316
81	0x3d895582	0.067057624
82	0x3db22292	0.08698
83	0xbdda35f2	-0.106548205
84	0x3db1f984	0.086901695
85	0x3dc550f4	0.09634581
86	0x3de0e4b4	0.10981122
87	0xbc58c000	-0.01322937
88	0x3d8676d4	0.065656334
89	0x3d9f9a96	0.07793157
90	0xbdafa6c2	-0.085767284
91	0xbc580460	-0.013184637
92	0xbd11a118	-0.03555402
93	0xbdb0b5d2	-0.086284295
94	0x3d303fe0	0.043029666
95	0x3d60dc94	0.05489786
96	0x3dab435a	0.08362456
97	0xbd89e5c8	-0.067332804
98	0x3dfbb95a	0.122912124
99	0x3dd64bd4	0.10463682
100	0x3beb0480	0.0071721673
101	0x3dd603d0	0.10449946
102	0xbd983310	-0.074316144
103	0xbc6f2760	-0.01459679
104	0xbd9cb0e4	-0.07650927
105	0x3d9ce0f0	0.07660091
106	0x3de66f7c	0.11251733
107	0xbd5ba05c	-0.053619727
108	0xbdcc03ee	-0.09961687
109	0xbd750c14	-0.05982597
110	0xbdebb902	-0.11509897
111	0x3deff200	0.1171608
112	0xbdd7b4c0	-0.10532522
113	0x3c857c58	0.016294643
114	0xbdbff2ca	-0.0937248
115	0x3dacbd5a	0.084345534
116	0x3de0b70e	0.10972415
117	0xbda4fc80	-0.08055973
118	0x3d5adbbc	0.05343221
119	0xbcca5200	-0.024697304
120	0xbdd122c0	-0.10211706
121	0x3dda37b2	0.10655154
122	0x3db92e58	0.090420425
123	0xbd1cdd34	-0.038296893
124	0xbdcc65c4	-0.09980348
125	0x3dde1f10	0.108457685
126	0x3cd56190	0.026047498
127	0xbd36b5a8	-0.044606835
128	0xbd341f46	-0.043975137
129	0xbe10b391	-0.14130999
130	0x3cdb6e33	0.026785946
131	0xbde13bb9	-0.10997719
132	0xbb5960ec	-0.0033169342
133	0xbc3539f5	-0.011061181
134	0x3e122b23	0.14274268
135	0x3ce3cbb5	0.027807096
136	0x3d941b0d	0.07231722
137	0x3d154c36	0.036449634
138	0x3de8b38d	0.113623716
139	0xbd7030fa	-0.058640458
140	0x3d6a308d	0.057175208
141	0xbc822d0c	-0.01589062
142	0x3aad5fdb	0.001322742
143	0xbd9f65d0	-0.07783091
144	0xbcbcdd6d	-0.023054803
145	0xbc659a33	-0.014013815
146	0xbd37b63e	-0.044851534
147	0x3d56db64	0.05245532
148	0xbd99595b	-0.07487746
149	0xbddf5314	-0.10904518
150	0xbc59552a	-0.013264934
151	0xbe1ca332	-0.15296629
152	0x3d9f3659	0.07774038
153	0xbc6e6633	-0.014550733
154	0xbd899263	-0.06717374
155	0xbc2e2dce	-0.010631038
156	0x3c9bc9ca	0.019017119
157	0x3db07723	0.086164735
158	0xbbd40d2a	-0.006471296
159	0x3dc4bc02	0.09606172
160	0x3d73af32	0.05949325
161	0x3dce7348	0.10080582
162	0x3b807f04	0.0039213914
163	0x3d7e3ab1	0.06206769
164	0xbce86872	-0.028370116
165	0x3d31003a	0.043213107
166	0x3dda8d98	0.10671538
167	0xbdcca50d	-0.099924184
168	0x3df68ee4	0.12038973
169	0xbc8ab7b0	-0.016933292
170	0x3dec7d31	0.11547316
171	0xbd125640	-0.035726786
172	0x3b74fcbd	0.003738209
173	0x3dc85a85	0.0978289
174	0xbda723b8	-0.0816111
175	0xbd49f721	-0.049307946
176	0x3da5d944	0.08098081
177	0x3dca8833	0.09889259
178	0x3cc38c4a	0.023870606
179	0xbd8c119f	-0.068392985
180	0xbce50ba1	-0.027959647
181	0x3d5fd9ee	0.054651193
182	0xbd309284	-0.04310848
183	0xbd266f09	-0.040633235
184	0x3e0d9dd2	0.13829735
185	0x3ddb76e9	0.1071604
186	0x3c667a8a	0.0140673015
187	0x3caa6d97	0.02080421
188	0x3d9a43f5	0.07532493
189	0x3d936ad1	0.07198108
190	0x3c196972	0.009363519
191	0x3d12f941	0.03588224
192	0x3d95c62c	0.07313189
193	0x3a6bb8cc	0.00089920755
194	0xbd6f339f	-0.05839884
195	0x3d7e0b68	0.062022597
196	0x3cb1e9f4	0.021718003
197	0xbd71ad71	-0.059003297
198	0x3dbbb1ca	0.0916477
199	0x3df940d6	0.121705696
200	0x3d99cd1d	0.075098254
201	0xbdcadf6e	-0.09905897
202	0x3c8dbf08	0.017303005
203	0x3ddb9d1f	0.10723328
204	0xbce5d4ae	-0.028055515
205	0x3d24f985	0.040277023
206	0x3ddc1079	0.107453294
207	0x3d9c9d24	0.0764716
208	0x3e0e5046	0.1389781
209	0x3d8de09a	0.06927605
210	0xbd9ac975	-0.07557956
211	0xbdfb3eea	-0.12267859
212	0x3d822c31	0.06356085
213	0x3d417c18	0.047237486
214	0xbcbbb345	-0.02291263
215	0x3da1f8c6	0.07908778
216	0xbcd0ea45	-0.025502333
217	0x3da4c023	0.0804446
218	0xbcbd6d0e	-0.02312329
219	0x3db9af1a	0.09066601
220	0xbd498968	-0.049203306
221	0xbd0d1526	-0.034443997
222	0xbd236879	-0.039894555
223	0xbd59ef11	-0.053206507
224	0x3d0640a8	0.032776505
225	0xbdbb4de9	-0.091457196
226	0xbd511a53	-0.051050495
227	0x3da1376f	0.07871901
228	0xbd5d3225	-0.0540029
229	0x3db82b63	0.0899265
230	0x3e1f35d9	0.15547885
231	0x3cf7947c	0.03022217
232	0xbba2ef2e	-0.00497236
233	0x3e412e19	0.18865241
234	0x3d9bfff8	0.076171815
235	0xb94229b0	-0.00018516812
236	0xbd8cb759	-0.06870908
237	0xbc4130d1	-0.011791424
238	0x3d528af8	0.051402062
239	0x3dddd4b8	0.108315885
240	0xbe088b5a	-0.13334408
241	0xbd960151	-0.0732447
242	0x3d3db352	0.04631359
243	0xbd9629e9	-0.073322125
244	0x3d1d83aa	0.038455643
245	0x3dead43d	0.114662625
246	0xbc7d00b0	-0.015442058
247	0x3de19505	0.11014751
248	0xbcd77b71	-0.026303979
249	0xbe048735	-0.12942202
250	0x3d6d36b5	0.0579135
251	0xbd6b8ee3	-0.057509314
252	0x3cfbfd88	0.030760542
253	0x3e20c678	0.1570071
254	0xbdaa945d	-0.08329079
255	0x3de05dd4	0.10955396

lstm.bias_hh_l0 f4 [256]
0	0x3cc1207f	0.023575066
1	0x3d703f50	0.05865413
2	0x3e006225	0.12537439
3	0xbd50b371	-0.05095238
4	0x3d0d6e23	0.034528863
5	0x3c50665f	0.01271972
6	0x3d9465f6	0.0724601
7	0x3d39c531	0.045354072
8	0x3dcb797c	0.09935281
9	0x3dc26327	0.09491568
10	0x3d326e6d	0.04356234
11	0xbd6f4762	-0.058417685
12	0x3da7c4a9	0.08191807
13	0x3df923a1	0.12164999
14	0x3d192913	0.037392687
15	0x3db1e0f5	0.08685485
16	0x3de46e37	0.11153834
17	0x3da8855d	0.08228562
18	0x3dcd2c22	0.10018183
19	0x3d88b92a	0.06675942
20	0xbdc8de30	-0.09808004
21	0xbdf3c00b	-0.11901864
22	0xbdd881a6	-0.105716035
23	0x3d570c9c	0.05250226
24	0xbd29eb4d	-0.041484166
25	0x3cd76b5b	0.026296308
26	0x3d8c7dba	0.06859918
27	0x3bfd61bd	0.0077325986
28	0xbcb6dd6f	-0.022322385
29	0x3dde7706	0.10862546
30	0x3c4bdee0	0.012443274
31	0xbd88c974	-0.06679049
32	0xbb6f6513	-0.003652875
33	0x3e182eea	0.14861646
34	0xba500802	-0.00079357636
35	0x3dae451c	0.08509275
36	0x3e05f94d	0.13083382
37	0xbd308804	-0.043098465
38	0x3d478e35	0.048719604
39	0xbd48e639	-0.049047682
40	0x3db9991e	0.09062408
41	0x3e05825d	0.13038011
42	0x3e1136b6	0.14181027
43	0x3dfa94e7	0.12235432
44	0xbca1b552	-0.01973978
45	0x3d409772	0.04701943
46	0x3c1ab1d8	0.009441815
47	0x3dd32d26	0.10311346
48	0xbdd8d876	-0.10588162
49	0x3d737509	0.059437785
50	0x3dd343ac	0.10315642
51	0x3e26dbc7	0.16294776
52	0xbd41520a	-0.04719738
53	0xbcb15fae	-0.021652069
54	0xbd5df6c1	-0.0541904
55	0x3d8d39cd	0.0689579
56	0x3e27c6d2	0.16384438
57	0xbd1b9472	-0.037983365
58	0x3d663c55	0.05620988
59	0xbd2ab797	-0.04167899
60	0x3e1853d0	0.14875722
61	0xbdd74602	-0.105114
62	0x3d3df3a4	0.046374932
63	0x3dec89fb	0.11549755
64	0xbd82f780	-0.06394863
65	0xbd9b4d44	-0.075830966
66	0xbda587c0	-0.08082533
67	0xbd76cbac	-0.06025283
68	0xbc3be500	-0.011468172
69	0xbd9fc256	-0.078007385
70	0xbdd000b0	-0.10156381
71	0xbcfd0c50	-0.03088966
72	0xbc8c9da0	-0.017165005
73	0x3da265c2	0.07929565
74	0x3cfa6890	0.030567437
75	0xbda0caaa	-0.07851155
76	0x3d5ad598	0.053426355
77	0xbd9fd1e6	-0.07803707
78	0xbd060d80	-0.03272772
79	0x3d1d3cbc	0.038388
80	0xbd5c9808	-0.053855926
81	0xbdd8d1a0	-0.10586858
82	0x3de20ba6	0.11037378
83	0xbdc1bedc	-0.09460232
84	0x3dcab7e4	0.098983556
85	0x3cee8d58	0.029120132
86	0xbd947142	-0.07248165
87	0x3d448820	0.04798138
88	0xbb833240	-0.004003793
89	0xbcce5338	-0.025186166
90	0x3ac36580	0.0014907569
91	0xbdd6228a	-0.104558066
92	0x3da88a92	0.08229555
93	0xbcb01278	-0.021493182
94	0x3d448b20	0.047984242
95	0xbde6f47e	-0.11277102
96	0x3d17d760	0.037070632
97	0x3d2e562c	0.04256265
98	0xbd505760	-0.050864577
99	0x3de23f00	0.110471725
100	0xbcc984b8	-0.024599418
101	0x3d2f8a84	0.04285671
102	0x3cb40e58	0.021979496
103	0xbd3a7160	-0.04551828
104	0xbcb054a0	-0.021524727
105	0x3d7eba2c	0.062189266
106	0xbdc6a74a	-0.096998766
107	0xbdf7ac12	-0.12093367
108	0xbdc54ac0	-0.09633398
109	0xbd26cdd8	-0.04072365
110	0x3d4bf204	0.04979135
111	0x3cde3f50	0.0271298
112	0xbd3541d0	-0.044252217
113	0xbd159750	-0.036521256
114	0x3ddebef2	0.10876264
115	0xbdce739a	-0.10080643
116	0x3d806bea	0.06270583
117	0xbd6cddb8	-0.057828635
118	0xbd0db980	-0.034600735
119	0xbd717a58	-0.058954567
120	0xbd9e52e6	-0.07730655
121	0xbde6ea0a	-0.11275108
122	0x3caaff60	0.020873725
123	0xbd349a44	-0.04409243
124	0xbb83be40	-0.0040204823
125	0x3d5a509c	0.05329953
126	0x3cb7e5f0	0.02244851
127	0xbdfe76b2	-0.12424983
128	0x3b999437	0.004686858
129	0xbd7b53e6	-0.06135931
130	0x3c56e918	0.013117097
131	0x3d8fa537	0.07013934
132	0xbe232854	-0.15933353
133	0x3d06aacf	0.03287774
134	0x3d0fd4d1	0.035115067
135	0xbd5d4ba8	-0.05402723
136	0xbde0627f	-0.10956287
137	0x3d779142	0.060441263
138	0x3e009f9d	0.12560888
139	0x3dbb25fa	0.09138103
140	0x3c845e5d	0.016158277
141	0x3debe73b	0.11518713
142	0xbd8c099b	-0.068377696
143	0x3c817ea8	0.015807465
144	0xbdd11bcc	-0.1021038
145	0x3de8ca77	0.11366742
146	0x3e040840	0.12893772
147	0x3d4caad0	0.049967587
148	0xbd964a7d	-0.07338426
149	0x3d4e3eff	0.050353047
150	0xbd33ee59	-0.043928478
151	0x3d475111	0.048661295
152	0x3c0c9199	0.008579635
153	0x3dc521f9	0.096256204
154	0x3d7f6d07	0.062359836
155	0x3c0cc444	0.008591715
156	0x3d5de90d	0.054177333
157	0x3d344e92	0.044020243
158	0x3d14739f	0.036243077
159	0xbdd6e38a	-0.104926184
160	0x3e1dfc58	0.15428293
161	0xbcd37f04	-0.025817402
162	0xbb2ce17c	-0.0026379516
163	0xbcc0b806	-0.02352525
164	0xbd6775c9	-0.056508813
165	0x3e0cbb2f	0.1374328
166	0x3cff1c34	0.031141378
167	0x3d266297	0.040621366
168	0x3da80af0	0.08205211
169	0x3e043524	0.12910897
170	0x3dcf05d5	0.10108534
171	0xbd7a214a	-0.061066903
172	0x3d2a1ec7	0.041533258
173	0x3df09eb9	0.11749024
174	0xbdd07680	-0.10178852
175	0x3c4332fd	0.011914012
176	0x3b7ce402	0.0038588052
177	0x3db8efd1	0.09030116
178	0x3d9cefb9	0.07662911
179	0x3d08be1c	0.033384427
180	0xbb4d6e83	-0.0031346388
181	0x3d0b3261	0.033983592
182	0xbbed714b	-0.0072461716
183	0x3d562ee9	0.05229083
184	0xbd484047	-0.048889425
185	0xbd76ab1b	-0.060221773
186	0xbe0996fb	-0.134365
187	0x3c848249	0.016175406
188	0x3dec05d5	0.1152455
189	0xbd0e25d6	-0.034704052
190	0x3cb97c5f	0.022642313
191	0x3da9080b	0.08253487
192	0xbd3d7691	-0.04625565
193	0x3d81e916	0.06343286
194	0x3c8d4739	0.017245876
195	0xbd8f9507	-0.070108466
196	0xbd171339	-0.036883567
197	0xbd858af3	-0.06520643
198	0xbd9d534b	-0.076819025
199	0x3ca64020	0.020294249
200	0xbd990749	-0.07472093
201	0xbdc1db28	-0.09465629
202	0x3d498040	0.049194574
203	0xbcdb11a9	-0.02674182
204	0x3d7ef1af	0.062242206
205	0xbd24fdbf	-0.040281054
206	0x3b866f35	0.0041026124
207	0xbd655530	-0.055989444
208	0x3d6b02b6	0.057375632
209	0x3de76402	0.11298372
210	0xbd10159d	-0.035176862
211	0xbdd205e6	-0.10255031
212	0xbd8b8ae1	-0.068135984
213	0xbd5ac00e	-0.053405814
214	0xbdb68a1f	-0.08913063
215	0xbdb03cf0	-0.08605373
216	0x3e04a138	0.12952125
217	0x3df1b84f	0.11802732
218	0x3dc4b62e	0.096050605
219	0x3dba43da	0.09094973
220	0x3deac7ba	0.11463876
221	0xbd4098d9	-0.047020767
222	0xbd28a7bc	-0.04117559
223	0x3e0390ca	0.12848201
224	0x3df1b94c	0.11802921
225	0x3d0aa37d	0.03384732
226	0x3de08f94	0.10964885
227	0x3e14139e	0.14460608
228	0x3c4be433	0.012444544
229	0xbbadd268	-0.0053046234
230	0x3b8fed48	0.0043923
231	0x3e18e262	0.14930108
232	0x3d704334	0.05865784
233	0x3e37c260	0.17945242
234	0xbd4c28f7	-0.049843755
235	0x3d749e0d	0.05972104
236	0x3bc44128	0.0059892125
237	0x3dd24959	0.10267896
238	0x3e020f76	0.1270121
239	0xbdacf866	-0.08445816
240	0x3d246cc8	0.040142804
241	0x3d1797c1	0.03700996
242	0xbbd7451e	-0.0065695187
243	0xbb1b30d6	-0.0023680232
244	0x3e36a907	0.17837916
245	0xbcbd45a6	-0.0231045
246	0x3e1acff0	0.15118384
247	0x3e156f84	0.14593321
248	0xbd1327fa	-0.035926796
249	0x3d139f42	0.036040552
250	0x3dcffc31	0.101555236
251	0x3c028f44	0.0079687275
252	0xbd452eea	-0.048140444
253	0xbce1a8b0	-0.027546257
254	0x3ca509a1	0.020146193
255	0x3e09b6b1	0.13448597

linear.weight f4 [32, 64]
0	0x3bb33094	0.0054684374
1	0xbe4690bf	-0.19391154
2	0xbd5acbab	-0.05341689
3	0xbd620154	-0.055177048
4	0xbd74cdf7	-0.059766736
5	0x3dbc3afe	0.09190939
6	0x3e137ef1	0.14403893
7	0xbd0096e4	-0.0313939
8	0xbdf4b082	-0.11947729
9	0x3d0ef122	0.03489793
10	0x3d2eb083	0.042648803
11	0x3e002a2f	0.12516092
12	0xbd4f9ce5	-0.050686736
13	0xbdb7eff1	-0.08981312
14	0xbe0d71d3	-0.13812952
15	0xbdbb9e1c	-0.09161016
16	0x3dc8ffbc	0.098144025
17	0x3e0ba011	0.13635279
18	0x3e37fa14	0.17966491
19	0x3e071f3a	0.13195506
20	0xbded1f98	-0.11578292
21	0xbdcef8ac	-0.10106024
22	0xbe24cda2	-0.16094068
23	0x3c0ead2a	0.008708278
24	0xbd6dec80	-0.058086872
25	0xbe03adfe	-0.12859342
26	0x3c364d20	0.0111267865
27	0x3dba1f94	0.09088054
28	0xbd1f5ac0	-0.038904905
29	0xbd427b5f	-0.047480937
30	0x3daadc17	0.0834276
31	0xbe09fdf8	-0.13475788
32	0xbd68322b	-0.05668847
33	0x3dc61f7b	0.09673973
34	0x3d43617a	0.047700383
35	0xbdc3b88b	-0.09556683
36	0xbe27d89d	-0.16391225
37	0x3d65c557	0.0560964
38	0xbdb64ccd	-0.08901367
39	0xbd77bcd2	-0.060482807
40	0x3d1cc5a7	0.038274433
41	0xbd503505	-0.050831813
42	0xbda0d868	-0.07853776
43	0x3d382718	0.044959158
44	0xbd67ccfd	-0.056591976
45	0xbe26f353	-0.16303758
46	0xbccb3293	-0.02480439
47	0xbca0bcaa	-0.019621212
48	0xbe33649a	-0.17518845
49	0x3e206b57	0.15665947
50	0x3dbc0efc	0.091825455
51	0x3db0a590	0.086253285
52	0xbe18022c	-0.14844579
53	0xbde4a5b5	-0.111644186
54	0x3e08fa62	0.13376763
55	0x3d3a2e75	0.04545446
56	0xbe23cb54	-0.15995532
57	0x3d2e561f	0.0425626
58	0x3dc9a30c	0.09845552
59	0x3e0ec6c9	0.13943018
60	0xbe0199b2	-0.12656286
61	0xbcce14ff	-0.025156496
62	0x3d466454	0.048435524
63	0x3d9eff0a	0.077634886
64	0xbd16ce9b	-0.036818128
65	0xbe3c87c0	-0.1841116
66	0xbd73fa87	-0.059565093
67	0xbac310d4	-0.0014882335
68	0x3d7baf3f	0.061446425
69	0xbd57730c	-0.05259995
70	0x3d900487	0.070321135
71	0xbd3abd60	-0.04559076
72	0xbe125739	-0.14291085
73	0xbe234607	-0.15944682
74	0xbcc98265	-0.02459831
75	0xbda6e0eb	-0.081483684
76	0x3d46d6be	0.048544638
77	0xbdd721d7	-0.10504501
78	0xbe09a739	-0.13442697
79	0xbe0616e3	-0.13094668
80	0x3e18cb66	0.1492134
81	0x3d7bb135	0.061448295
82	0x3da0599f	0.07829594
83	0x3ddcee39	0.10787625
84	0xbc7fec0c	-0.015620243
85	0xbdaf4fae	-0.085601196
86	0xbe196fd5	-0.14984067
87	0x3e370f29	0.17876877
88	0x3e077f48	0.13232148
89	0xbd88c633	-0.066784285
90	0xbd97ad32	-0.07406081
91	0x3d47d80b	0.04879002
92	0x3d3ae501	0.04562855
93	0xbbac82f8	-0.005264636
94	0x3e048507	0.12941371
95	0xbcc6c37a	-0.024263132
96	0x3c43bad1	0.011946396
97	0xbce26add	-0.027638847
98	0xbd363c4e	-0.044491105
99	0xbde3e17d	-0.11126993
100	0xbe257db6	-0.16161236
101	0xba4596cb	-0.00075374235
102	0xbe4da55c	-0.20082611
103	0x3d44885f	0.047981616
104	0xbd809f92	-0.062804356
105	0xbe42218b	-0.18958108
106	0x3ce8d39f	0.028421221
107	0xbd83f7cf	-0.0644375
108	0x3ca2c59b	0.019869616
109	0xbd8b9fbe	-0.06817578
110	0xbdba571f	-0.09098648
111	0xbda9ed86	-0.08297257
112	0xbe06dc6f	-0.13170026
113	0x3d55f1d3	0.052232575
114	0x3e12676c	0.14297265
115	0xbc39c4a3	-0.011338386
116	0x3d059f8a	0.03262285
117	0xbd92b7f8	-0.071639955
118	0x3c06f47d	0.0082370015
119	0xbd614edd	-0.05500685
120	0xbd50150d	-0.050801326
121	0x3cd1c361	0.02560586
122	0xbced51ae	-0.028969612
123	0x3e07f75e	0.13277957
124	0xbd447619	-0.04796419
125	0x3e0cf516	0.13765368
126	0x3ca6921a	0.020333339
127	0xbe04fb25	-0.12986429
128	0x3e0adf8c	0.13561839
129	0x3d4e028c	0.050295398
130	0x3e373900	0.17892838
131	0x3cc3088b	0.023807785
132	0x3d924057	0.07141178
133	0x3d3d9918	0.04628858
134	0xbc507798	-0.012723826
135	0x3deaa69c	0.114575595
136	0xbd5c1da0	-0.05373919
137	0x3e1a47a0	0.15066385
138	0xbaf3febf	-0.0018615349
139	0x3d6eb2a3	0.05827583
140	0xbc9c6780	-0.019092321
141	0xbb913dba	-0.004432407
142	0x3dd46be1	0.10372139
143	0x3d714bae	0.058910064
144	0x3c2f2777	0.0106905615
145	0xbc1eeab9	-0.009699517
146	0xba2e4f4f	-0.0006649391
147	0xbd10ad95	-0.03532179
148	0xbd08d3f3	-0.033405256
149	0xbd8d0b9c	-0.0688698
150	0xbca73f7b	-0.020416012
151	0xbdaaaa6c	-0.08333287
152	0xbe08fcab	-0.13377635
153	0x3e14595b	0.14487211
154	0x3d3719ad	0.04470222
155	0xbdc2b47f	-0.09507083
156	0x3e18e40e	0.14930746
157	0x3d82b261	0.06381679
158	0x3caa738c	0.02080705
159	0x3dcddc81	0.100518234
160	0x3d5c2bc1	0.053752664
161	0xbdded7ee	-0.10881029
162	0xbd7a5528	-0.061116368
163	0xbcb926a3	-0.022601431
164	0xbc13d244	-0.009022299
165	0xbe1dc869	-0.15408482
166	0xba75cc41	-0.00093764445
167	0x3da4c2c6	0.080449626
168	0xbd9b91ad	-0.07596145
169	0x3d78b665	0.06072082
170	0x3df86081	0.12127782
171	0xbdf3b532	-0.11899795
172	0x3e25ba24	0.16184288
173	0x3dbc1296	0.091832325
174	0xbca66860	-0.020313442
175	0x3d478373	0.048709344
176	0x3deae1d3	0.11468854
177	0xbab6e0fb	-0.0013952547
178	0xba0b99ca	-0.00053253456
179	0x3d82ecc5	0.063928165
180	0x3d212979	0.039346192
181	0x3da81312	0.082067624
182	0x3d100d2c	0.03516881
183	0x3d1fdb03	0.039027225
184	0x3c3761bd	0.011192736
185	0x3d341d93	0.043973517
186	0x3d09afed	0.03361504
187	0xbcba0fd8	-0.022712633
188	0x3dec1718	0.11527842
189	0xbd834511	-0.06409658
190	0xbde73477	-0.11289304
191	0x3df6bf93	0.12048259
192	0xbd339723	-0.043845307
193	0x3c579974	0.013159145
194	0x3dc1a07b	0.09454437
195	0x3c7a4ce0	0.0152771175
196	0xbdedcf36	-0.11611788
197	0xbda005b5	-0.078135885
198	0x3bad986b	0.0052977107
199	0x3ccc2bef	0.024923293
200	0x3dd67d06	0.10473065
201	0x3e028b8d	0.12748547
202	0xbd9df001	-0.07711793
203	0xbc9dad55	-0.01924769
204	0xbdb3bdca	-0.08776434
205	0x3dbb8b92	0.0915748
206	0xbc36ef17	-0.011165402
207	0x3de579c8	0.112048686
208	0xbcfaface	-0.030637171
209	0xbe3fe4cb	-0.18739621
210	0xbdca1f48	-0.09869248
211	0xbd66041b	-0.05615626
212	0x3da1d11f	0.07901215
213	0x3cef3592	0.029200349
214	0x3de8b2cb	0.11362227
215	0xbdfd10c1	-0.12356711
216	0xbdf9f154	-0.12204233
217	0xbba2d676	-0.0049694134
218	0xbcbe6ddd	-0.023245746
219	0xbd39a6d2	-0.045325108
220	0x3cb40f16	0.02197985
221	0x3e22be8a	0.15892997
222	0xbc5f1f85	-0.013618355
223	0x3d9c984b	0.07646235
224	0xbd90a37b	-0.070624314
225	0x3c89665c	0.016772442
226	0xbd515512	-0.05110652
227	0x3dea66db	0.114453994
228	0x3e3fde80	0.18737221
229	0xbe20ee8f	-0.15716003
230	0x3ddeb943	0.108751796
231	0x3daf54a8	0.08561069
232	0xbe21d955	-0.15805562
233	0x3e57c386	0.2107068
234	0x3d957953	0.072985314
235	0xbe280562	-0.16408303
236	0x3d3879fc	0.04503821
237	0x3d9ef189	0.07760913
238	0x3aaff62f	0.0013424809
239	0x3e294c8b	0.16533105
240	0x3dc87df6	0.0978965
241	0xbde0660b	-0.10956963
242	0xbe3376ff	-0.17525862
243	0xbe143f2b	-0.14477222
244	0x3dbe7fdc	0.09301731
245	0x3cfbf016	0.03075413
246	0xbc95ae8e	-0.01827171
247	0xbbb9e2c7	-0.005672786
248	0x3d3c732e	0.04600828
249	0xbd325d61	-0.043546084
250	0xbdd45b14	-0.10368934
251	0xbdb5971a	-0.08866711
252	0x3d8fd6f0	0.07023418
253	0xbafae34f	-0.001914123
254	0xbc88ed7d	-0.016714806
255	0xbd6b313f	-0.05742001

linear.bias f4 [32]
0	0xbc4f1303	-0.01263881
1	0x3db4cf50	0.08828604
2	0xbd003d1b	-0.031308275
3	0x3d1ff2d5	0.039049942
4	0x3d9d6764	0.07685736
5	0xbd41b56d	-0.04729216
6	0xbcba52ad	-0.022744501
7	0x3dfac37f	0.12244319
8	0xbdebb5d7	-0.115092926
9	0x3d4a87f2	0.049446054
10	0x3d537d51	0.051633183
11	0x3d23425a	0.0398582
12	0x3d6f6230	0.05844325
13	0xbdd35bc0	-0.10320234
14	0x3db8d108	0.090242445
15	0xbdaeeef5	-0.08541671
16	0x3cd78c5e	0.02631205
17	0x3e010159	0.1259817
18	0x3c357be0	0.011076897
19	0xbd900942	-0.07033016
20	0x3cdb4495	0.0267661
21	0xbc5204e6	-0.012818551
22	0xbcf55f08	-0.029952541
23	0x3dd70315	0.10498635
24	0x3dc1dff1	0.094665416
25	0x3db1f2af	0.08688866
26	0x3d6f3552	0.05840046
27	0x3d221910	0.039574683
28	0x3dcb131f	0.099157564
29	0xbda52fe7	-0.08065777
30	0x3d57a06f	0.052643236
31	0x3dbbfcde	0.0917909

linear1.weight f4 [1, 32]
0	0xbe26b3bf	-0.16279505
1	0xbe3630a8	-0.17791998
2	0x3e552fa8	0.2081896
3	0x3e1fca42	0.15604499
4	0x3e045a43	0.12925057
5	0x3dd16062	0.10223462
6	0xbdd9e640	-0.1063962
7	0x3e17635a	0.14783993
8	0xbe0c9954	-0.13730365
9	0xbde97a7f	-0.114003174
10	0xbdbf176a	-0.09330638
11	0xbe55fda6	-0.2089754
12	0xbe5e8f63	-0.21734385
13	0x3d4d5fcc	0.050140187
14	0x3df9e7b7	0.12202399
15	0xbdb5ae52	-0.088711396
16	0x3e313a15	0.17307313
17	0x3e6f5292	0.23371342
18	0xbdf42290	-0.11920655
19	0xbde5c219	-0.11218662
20	0xbe199d1c	-0.15001339
21	0xbe3bdee5	-0.18346746
22	0x3de73f84	0.112914115
23	0x3d9ab409	0.0755387
24	0x3e28b081	0.16473581
25	0xbe7ad886	-0.2449666
26	0xbdd8fab1	-0.105946906
27	0xbe26df45	-0.16296108
28	0xbdcdb671	-0.100445636
29	0x3e06af67	0.13152848
30	0xbe04ccb8	-0.12968719
31	0xbe456a61	-0.19278862

exp_avg f4 [256, 26]
0	0xb9ed77c3	-0.00045293392
1	0xb9e5c0e4	-0.00043821998
2	0xb78f0173	-1.7047603e-05
3	0x3739cadc	1.1074091e-05
4	0x3927907e	0.00015980189
5	0xb9150df6	-0.00014214948
6	0xb809ebd9	-3.2882996e-05
7	0xb905523b	-0.00012714502
8	0x37f9d844	2.978382e-05
9	0xb883ccda	-6.284723e-05
10	0x39c2a309	0.00037124034
11	0xb8b11bb7	-8.44518e-05
12	0x392c1dc8	0.00016414293
13	0x378b24d8	1.6587248e-05
14	0xb905d206	-0.00012762108
15	0x38bfc3d4	9.1440656e-05
16	0xb9e99eb4	-0.00044559466
17	0xb91775c8	-0.00014444359
18	0xb9ec5817	-0.0004507906
19	0xb9a47d81	-0.00031374025
20	0xb9da4540	-0.00041631795
21	0x39808fad	0.0002452111
22	0xb9e36f49	-0.00043379728
23	0xb9f88152	-0.00047398597
24	0xb9e7349d	-0.00044098953
25	0xb9b70b8e	-0.0003491309
26	0xb9c6d64a	-0.0003792516
27	0xb97794e6	-0.00023611225
28	0x380da2cf	3.3768647e-05
29	0xb956f625	-0.00020500326
30	0xb8d2780b	-0.0001003594
31	0xb8afa443	-8.3752464e-05
32	0x39e58603	0.0004377813
33	0x3928579f	0.0001605437
34	0x39a4b980	0.00031418726
35	0x38bba071	8.9467394e-05
36	0xb8bd3bd8	-9.023369e-05
37	0x39fa49c2	0.0004773867
38	0x389ed348	7.573381e-05
39	0xb8f17940	-0.0001151436
40	0xb8dcadd4	-0.000105227955
41	0xb8716fb8	-5.7562924e-05
42	0xb9c3f2d4	-0.0003737422
43	0xb90eeb67	-0.0001362987
44	0xb9d0c7dd	-0.0003982176
45	0xba0c5f83	-0.00053548085
46	0xb9e7d1d4	-0.00044216088
47	0xba5c7dde	-0.00084110897
48	0xb9cf8ed5	-0.00039588535
49	0x39cad450	0.00038686628
50	0xb9b5a766	-0.00034647732
51	0x3a0af02f	0.00053000724
52	0xb808e80f	-3.2641048e-05
53	0x398846b9	0.00025992634
54	0xb9004b19	-0.00012235007
55	0x388464a6	6.312998e-05
56	0x380831fe	3.2471486e-05
57	0x395f68b8	0.00021305948
58	0x39697219	0.00022263116
59	0xb7b1cc4f	-2.1195183e-05
60	0x38e7a9e5	0.00011046584
61	0xb7cbe0d8	-2.4304187e-05
62	0x382bedc6	4.099102e-05
63	0x39541195	0.00020224445
64	0xb8ddefd5	-0.000105827734
65	0xb9611248	-0.00021464482
66	0xb9a48ff6	-0.00031387777
67	0x37edf713	2.8367655e-05
68	0x3602174d	1.9385072e-06
69	0x39e0d2bb	0.00042881616
70	0xb76b9b46	-1.4043244e-05
71	0xb9670467	-0.00022031517
72	0xb727a785	-9.992979e-06
73	0x38201322	3.816479e-05
74	0x389d3a64	7.4972195e-05
75	0x3a9d9638	0.0012022918
76	0x38c6545d	9.4570896e-05
77	0x39b956fd	0.0003535076
78	0x38080edc	3.2438766e-05
79	0xb81df4d5	-3.7659735e-05
80	0x3598684d	1.1355238e-06
81	0x388828f0	6.4926106e-05
82	0x381c0427	3.7197166e-05
83	0xb8820f4f	-6.2017345e-05
84	0x37b306b8	2.1341591e-05
85	0x37e983f2	2.7837206e-05
86	0xb588fe5c	-1.0206818e-06
87	0x37d88ae0	2.5813875e-05
88	0xb894e8c7	-7.100548e-05
89	0x391329fe	0.00014034656
90	0x384da2a1	4.902727e-05
91	0x38e5e0a1	0.00010961411
92	0x394adc46	0.0001934628
93	0xb8c6537d	-9.456927e-05
94	0x37c1c1e6	2.3097684e-05
95	0xb8d8d568	-0.000103394326
96	0x37b487a8	2.1520842e-05
97	0xb74c9a03	-1.2195206e-05
98	0x369de9d8	4.7061876e-06
99	0xb9681a11	-0.00022134955
100	0xb7b31983	-2.1350343e-05
101	0xb9c097ff	-0.0003673434
102	0xb6d5efa2	-6.3757916e-06
103	0x396007aa	0.0002136516
104	0xba1e09da	-0.00060286897
105	0xb832123e	-4.2455496e-05
106	0x399431f4	0.00028265978
107	0x3a080a52	0.0005189526
108	0xb99dde35	-0.0003011093
109	0xb87a6406	-5.96978e-05
110	0xb9cdd0e1	-0.00039256274
111	0xb930a06a	-0.00016844427
112	0xb9485815	-0.000191063
113	0xb99272ef	-0.00027932922
114	0xb9a7aa98	-0.00031979824
115	0xb72c5d25	-1.0273686e-05
116	0xb980fb4d	-0.00024601296
117	0xb9647964	-0.00021788996
118	0xb94d7e7a	-0.0001959744
119	0x3985c902	0.000255175
120	0xba129a86	-0.0005592484
121	0x3984bd6b	0.0002531813
122	0xba0fd10c	-0.00054861675
123	0xb93fa082	-0.00018274973
124	0xba06ffbd	-0.00051498023
125	0x392b14eb	0.00016315623
126	0xb9f313d5	-0.00046363348
127	0x39e963be	0.00044515537
128	0xb9d954c9	-0.00041452635
129	0x3a035bbe	0.0005010924
130	0xbac41c76	-0.0014962095
131	0xba332a37	-0.00068345986
132	0xb9c9a62e	-0.0003846152
133	0xb70672b1	-8.013726e-06
134	0xb9b89c34	-0.00035211595
135	0xb879ec5f	-5.9586364e-05
136	0xb989ee61	-0.00026308282
137	0xb88076af	-6.125622e-05
138	0x38b38cd9	8.56162e-05
139	0xb964c548	-0.00021817267
140	0xb97eb3d5	-0.0002429032
141	0x39247131	0.00015682426
142	0xb859d925	-5.1939063e-05
143	0xb8a598bd	-7.896263e-05
144	0xb852e628	-5.028225e-05
145	0x3998d861	0.00029152914
146	0xbabc56b5	-0.0014369102
147	0xb7dd6344	-2.6391477e-05
148	0xbab92b4a	-0.0014127281
149	0xba043738	-0.00050436286
150	0xbab25a90	-0.0013607312
151	0xb87a15d0	-5.962496e-05
152	0xbaa65dcc	-0.0012692749
153	0x3a08cf9d	0.0005218925
154	0xba9c8892	-0.0011942557
155	0x39eaf7f9	0.00044816712
156	0xbab1c654	-0.0013563135
157	0xba099e40	-0.00052497163
158	0xba69c5ba	-0.0008917708
159	0xba2eb67c	-0.00066647655
160	0xb9aa892e	-0.00032527134
161	0xb8ca45d4	-9.645117e-05
162	0x3a55f163	0.00081612746
163	0x3860823b	5.352705e-05
164	0x38fa1921	0.000119256096
165	0xb7cb77fd	-2.425536e-05
166	0x38fffb1f	0.000122061225
167	0x399da51b	0.00030068387
168	0xb90c5df6	-0.00013386444
169	0xb9281c80	-0.00016032346
170	0xb69b87f9	-4.6351893e-06
171	0xb8431a85	-4.651632e-05
172	0xbaa93198	-0.0012908457
173	0x38f01e45	0.0001144973
174	0xbaa32ac8	-0.0012448663
175	0xb914c1e3	-0.00014186608
176	0xbaa037b2	-0.001222363
177	0xb9c2ee18	-0.00037179957
178	0xba9870cb	-0.0011630295
179	0x391d3df1	0.00014995762
180	0xba9b8f55	-0.0011868278
181	0xba8105dc	-0.0009843665
182	0xb9c7c317	-0.0003810159
183	0x39220557	0.00015451513
184	0xb9485093	-0.00019103503
185	0xb8f0830c	-0.00011468501
186	0xb9882b40	-0.00025972165
187	0x399e0f05	0.000301473
188	0xb9d1b3cb	-0.00039997543
189	0x393f4c51	0.0001824361
190	0x399b1122	0.0002957667
191	0x3821f9fc	3.8618207e-05
192	0xb85257bb	-5.0149607e-05
193	0x39937f84	0.0002813303
194	0x390165ab	0.00012340273
195	0x35a6bed6	1.2423504e-06
196	0xb9d4a859	-0.0004056122
197	0x39e0dea8	0.000428905
198	0xb9a3a42a	-0.00031212094
199	0x3a33f296	0.0006864456
200	0xb997fd66	-0.0002898976
201	0x38c590b6	9.4206465e-05
202	0xb989f0d0	-0.00026310096
203	0x394d17d7	0.00019559205
204	0xb93c3e13	-0.00017952202
205	0x3a86cc71	0.0010284317
206	0xb91f4ac6	-0.00015191277
207	0x39a820f7	0.00032068018
208	0xb9003c25	-0.00012229437
209	0x3803ba42	3.14063e-05
210	0x37e9a1ad	2.785105e-05
211	0x39619bdc	0.00021515734
212	0xb90aab54	-0.0001322453
213	0x38bbb762	8.9510126e-05
214	0xb9d1ba64	-0.00040002458
215	0xb900bfe7	-0.0001227852
216	0xb85e03b4	-5.2932373e-05
217	0xb8c31e83	-9.304008e-05
218	0x37faf6c5	2.9917233e-05
219	0xb815057e	-3.5529483e-05
220	0xb9270863	-0.00015929485
221	0xb8c7c988	-9.5265976e-05
222	0xb92b8ee5	-0.00016361063
223	0x384aa5ba	4.8314898e-05
224	0xb8d471c1	-0.00010130136
225	0x395b0fb2	0.00020891314
226	0xb8c1d8ed	-9.243363e-05
227	0x38444514	4.6794376e-05
228	0xb8a01888	-7.633964e-05
229	0x39350a2f	0.00017265299
230	0xb898f43f	-7.293419e-05
231	0x3756e5d9	1.280891e-05
232	0xb88898e9	-6.513467e-05
233	0x38b2bebf	8.523231e-05
234	0xba2c5e89	-0.0006575366
235	0xb900d4a2	-0.00012286243
236	0xba1bbc45	-0.0005940835
237	0xb9dbafc0	-0.0004190188
238	0x386f65be	5.7076795e-05
239	0x390a0894	0.00013163901
240	0x3a53dfa1	0.00080823345
241	0xb8b273e2	-8.509286e-05
242	0x39eaf1af	0.00044812026
243	0xb8448086	-4.684974e-05
244	0x396ad8b0	0.00022396701
245	0x38b587dd	8.656059e-05
246	0x3a1b1b74	0.00059168716
247	0x3992fb18	0.0002803437
248	0x38e30a0e	0.00010826076
249	0xb9a6ab4c	-0.00031789613
250	0xba2cfc22	-0.000659885
251	0xb9c4fffa	-0.0003757475
252	0xba2b993f	-0.0006545968
253	0xb99f159b	-0.0003034294
254	0xba311397	-0.0006754933
255	0xba296150	-0.0006461339
