script/checkpoint_new.tar (torch_old, 311354 bytes, 21 tensors)

lstm.weight_ih_l0 f4 [256, 26]
-0.049065337 -0.033206597 -0.12438318 0.0024949422 -0.06469441 0.15993726 0.05127316 0.2123239
0.1786637 -0.02060609 0.033115633 -0.038411636 0.048070297 -0.03418307 -0.08922404 -0.1251926
0.020050043 0.06988819 0.025707943 0.010830725 -0.13913521 0.06140847 0.043801714 0.041850694
0.031870835 0.13938467 -0.062315874 0.012673229 -0.06732244 0.03366695 -0.052658554 -0.068469666
-0.0915974 0.08501351 0.117909245 0.042044304 -0.034834646 0.12173433 -0.03591568 -0.0199425
0.012597735 0.10737986 0.10006502 0.06947695 0.116191946 0.24512403 -0.03009857 -0.03178078
-0.040459312 0.17853174 0.053819798 -0.1083631 0.05522051 0.1898603 -0.0029352854 0.22069882
-0.05711226 0.13286015 -0.009239388 0.16302858 0.16540103 -0.02668799 -0.07744413 -0.008717739
0.015298457 0.099701166 0.08826739 -0.018803068 0.077402785 -0.1452981 0.015539904 0.046381246
0.097494304 0.17717893 0.06236511 0.038883265 0.032868844 -0.04123518 0.0682569 0.065233596
-0.01992649 0.19143511 -0.10134272 0.05801835 0.19694509 0.10765524 0.07209829 0.07611665
-0.09821718 -0.13241768 -0.15549624 0.17235811 -0.1677735 -0.012715027 0.06324075 0.12897432
0.14264446 0.12560157 0.13154528 -0.03473396 -0.07941362 0.05651119 -0.0635191 0.0074604065
0.07850805 -0.052234422 0.040476903 0.19831184 0.12331933 -0.09093586 0.079360746 -0.14971788
0.064098656 -0.07885969 -0.17261301 0.099271744 0.07820138 0.004122583 0.09605873 -0.044581495
-0.023589341 -0.010810111 -0.11902118 -0.06723177 -0.074403465 0.12658566 -0.08999344 0.07066425
-0.11950797 0.11251122 -0.02234323 0.07410038 0.24246854 -0.010711547 0.08720289 0.03995902
0.13229607 0.01577386 0.16764703 -0.028195325 -0.032421894 0.020541027 -0.090455055 0.028717728
0.06454007 -0.050922178 0.004526512 0.04303232 0.094062224 -0.09339758 0.023282316 0.0037445293
-0.08198828 -0.010847242 0.0033805293 0.09748909 -0.013280737 -0.15077263 0.14076382 -0.19545856
0.07221275 -0.17363411 -0.052095834 0.004580815 -0.2637104 0.049064185 0.056297097 0.09361898
-0.25449103 -0.0412094 0.0295797 -0.110955715 -0.034504235 -0.085330375 -0.009168396 0.09877916
0.0721464 -0.029703107 0.00906143 0.025799636 0.094922036 -0.20167565 0.013639905 -0.071499154
0.16692226 0.14821133 0.12633672 0.062405623 -0.15384257 0.24506234 0.03936281 -0.110012576
0.13316633 0.15280424 0.24141592 0.016720286 -0.07081378 -0.14552706 0.099341296 -0.085995264
0.123575315 0.018078713 0.0019161707 0.042895697 0.08471731 0.011082839 -0.06677614 0.00843396
-0.048776854 -0.12395713 -0.04767867 -0.030479873 -0.05087531 -0.061370097 0.02145998 0.121689186
-0.13179192 0.15689272 -0.034401603 0.095146105 -0.027915254 -0.065758765 0.062859505 0.05773425
0.025102083 -0.1203322 -0.025900876 -0.0739772 0.102113225 0.052128945 0.052758858 -0.08211545
-0.03180578 -0.046606127 -0.0464393 0.12656944 -0.06506269 0.018556183 0.028259324 0.11537839
0.23654379 0.106398836 -0.0042507467 -0.025824588 0.10144099 0.15418331 -0.06162289 0.09784737
0.11473496 -0.10946787 -0.016446982 -0.038861006 0.043852884 0.05601113 0.13258374 0.039246865
00000000: bcf8 48bd a403 08bd 9cbc febd 2f82 233b
00000010: 817e 84bd 98c6 233e ce03 523d 706b 593e
00000020: 9ef3 363e 1ace a8bc 42a4 073d 8555 1dbd
00000030: 5ce5 443d 8c03 0cbd 18bb b6bd 7d32 00be
00000040: fd3f a43c 8a21 8f3d 7799 d23c 5a73 313c
00000050: 7679 0ebe 7387 7b3d 6d69 333d a26b 2b3d
00000060: fe8a 023d dbba 0e3e ee3e 7fbd 60a3 4f3c
00000070: 59e0 89bd 5be6 093d 7fb0 57bd d339 8cbd
00000080: 6b97 bbbd 901b ae3d 677a f13d a636 2c3d
00000090: c6ae 0ebd d94f f93d 521c 13bd 745e a3bc
000000a0: bb66 4e3c f9e9 db3d e4ee cc3d ee49 8e3d
000000b0: 0bf6 ed3d cb01 7b3e 4791 f6bc 902c 02bd
000000c0: aab8 25bd 06d1 363e 2672 5c3d 79ed ddbd
000000d0: e72e 623d bd6a 423e eb5d 40bb dffe 613e
000000e0: 8cee 69bd 7e0c 083e cd60 17bc f7f0 263e
000000f0: e35e 293e c6a0 dabc 079b 9ebd d9d4 0ebc
00000100: 61a6 7a3c 2030 cc3d 89c5 b43d e408 9abc
00000110: 5a85 9e3d 06c9 14be 159b 7e3c 43fa 3d3d
00000120: 18ab c73d 656e 353e 8f72 7f3d 0f44 1f3d
00000130: 7ba1 063d 38e6 28bd 46ca 8b3d 3199 853d
00000140: e13c a3bc 9107 443e c68c cfbd a6a4 6d3d
00000150: f9ab 493e 5a7a dc3d 45a8 933d 0ce3 9b3d
00000160: 1726 c9bd 8098 07be 683a 1fbe a57e 303e
00000170: d1cc 2bbe b052 50bc 5e84 813d d811 043e
00000180: 6411 123e b39d 003e ceb3 063e 3245 0ebd
00000190: 9ca3 a2bd 4778 673d 4d16 82bd 6d76 f43b
000001a0: d4c8 a03d c3f3 55bd 1ccb 253d 4212 4b3e
000001b0: d88e fc3d 953c babd e387 a23d a54f 19be
000001c0: 2846 833d 3081 a1bd 77c1 30be fc4e cb3d
000001d0: 0c28 a03d bc16 873b 70ba c43d 169b 36bd
000001e0: 6f3e c1bc e41c 31bc 60c1 f3bd cfb0 89bd
000001f0: d860 98bd ac9f 013e 7b4e b8bd 6bb8 903d
00000200: 98c0 f4bd 486c e63d 2609 b7bc f1c1 973d
00000210: ac49 783e 7c7f 2fbc 6e97 b23d 12ac 233d
00000220: 9f78 073e 2f38 813c aaab 2b3e e2f9 e6bc
00000230: d2cc 04bd a845 a83c 8040 b9bd 7141 eb3c
00000240: 962d 843d c693 50bd 2353 943b a842 303d
00000250: b2a3 c03d 3b47 bfbd 8eba be3c c766 753b
00000260: 79e9 a7bd a1b8 31bc df8b 5d3b 5ca8 c73d
00000270: 7397 59bc 2464 1abe 6424 103e 4a26 48be
00000280: 47e4 933d 24cd 31be 7162 55bd a91a 963b
00000290: 0d05 87be 87f7 483d c997 663d 4fbb bf3d
000002a0: a64c 82be 30cb 28bd 2151 f23c c03c e3bd
000002b0: 5054 0dbd b1c1 aebd 0a37 16bc ba4c ca3d
000002c0: 7ec1 933d ee53 f3bc 6476 143c c259 d33c
000002d0: 7c66 c23d 1084 4ebe e879 5f3c 266e 92bd
000002e0: abed 2a3e b6c4 173e 6a5e 013e 0a9d 7f3d
000002f0: e888 1dbe 9ff1 7a3e e63a 213d 464e e1bd
00000300: c15c 083e b778 1c3e bc35 773e fbf8 883c
00000310: d106 91bd 0c05 15be 7373 cb3d 491e b0bd
00000320: 0e15 fd3d cf19 943c 0528 fb3a 66b3 2f3d
00000330: 4580 ad3d cc94 353c eec1 88bd 982e 0a3c
00000340: 3dca 47bd 3cdd fdbd b64a 43bd edb0 f9bc
00000350: a162 50bd 365f 7bbd d7cc af3c 2e38 f93d
00000360: 76f4 06be 7ca8 203e b2e8 0cbd f6db c23d
00000370: 88ae e4bc 88ac 86bd 7cbc 803d c07a 6c3d
00000380: e2a2 cd3c ba70 f6bd 132e d4bc 5c81 97bd
00000390: bd20 d13d 2985 553d ac19 583d 252c a8bd
000003a0: c746 02bd 11e6 3ebd 2337 3ebd 6b9b 013e
000003b0: 963f 85bd 2303 983c 1980 e73c 814b ec3d
000003c0: 8938 723e a2e7 d93d d949 8bbb 168e d3bc
000003d0: 4bc0 cf3d 3be2 1d3e 4968 7cbd 3464 c83d
000003e0: 2afa ea3d b130 e0bd d2bb 86bc b82c 1fbd
000003f0: 159f 333d ed6b 653d 08c4 073e 52c1 203d

lstm.weight_hh_l0 f4 [256, 64]
0.00017698109 -0.09593618 0.0610355 0.052093074 0.11675236 0.010277927 -0.11515981 0.04006037
0.06891385 -0.0026646405 0.109696895 0.041689962 -0.012645677 0.0747696 -0.12371911 0.09474282
-0.06456557 -0.1045603 0.02119945 -0.059614375 0.05306314 -0.08887243 -0.036148652 -0.06313045
-0.0986927 -0.096628025 0.051423743 0.036272243 -0.05753301 -0.068121 0.04039605 0.02782026
0.025261283 0.1176593 0.11766064 0.10555585 -0.049895465 0.011703402 -0.0464617 -0.004221976
0.05477217 0.107290626 -0.1047014 -0.11821137 0.02069366 -0.03626187 0.09549609 0.070309535
0.024927035 0.08542062 0.12247822 -0.10982029 -0.030326575 -0.07247983 0.044360235 -0.104694664
0.037867054 -0.07122296 -0.08515325 0.09197956 0.059129223 -0.095706224 -0.06711118 0.114365086
0.11728704 0.01721339 -0.083346084 0.0588239 -0.064283654 -0.026371643 -0.10938884 0.07512644
0.06904073 -0.10379462 -0.10108265 0.039379254 -0.00021594763 -0.08623496 -0.07032959 0.019060552
0.07564284 -0.026683733 -0.023267463 0.044909596 -0.051201016 0.10456467 0.078127846 0.09816432
0.053415075 -0.09389447 -0.0068163723 -0.094983965 -0.11504093 -0.09965432 0.03178373 0.1056077
0.111932024 0.107645884 -0.014203921 -0.039082497 0.02575934 -0.10905142 0.02441071 -0.121319175
0.08468723 -0.097922415 -0.0001514405 0.037383825 -0.050833136 0.02776827 0.06711966 -0.008137599
0.07580496 0.12453899 0.061063528 -0.045818657 0.03879559 -0.08133505 0.067922294 -0.0424214
0.084053695 -0.055275604 0.0143867135 0.1149739 -0.034433857 0.02677995 -0.05832599 -0.08047061
-0.056736797 -0.029320613 -0.014205456 0.11248337 -0.09555484 -0.099058926 0.08838074 -0.003223747
0.011968091 0.078339696 0.08170733 -0.076695114 -0.066301346 0.048804656 0.022880942 -0.06790955
-0.059768364 -0.04071094 0.08803503 0.06133221 -0.0468989 -0.06447142 -0.09724009 0.08712456
-0.01092495 0.079949796 0.03807214 -0.080718815 -0.0173302 0.074357614 0.0035668463 -0.03729792
0.10117826 -0.12026703 -0.041928366 0.070602 0.033546165 0.055415496 -0.11606915 -0.0063688755
0.110288695 -0.030560821 0.01977536 -0.11657137 -0.025377423 -0.0728751 0.0853543 0.05783294
-0.05286129 -0.10228063 0.04680893 -0.003898263 0.10116604 0.07149413 0.028421238 0.06813924
-0.11066806 0.069398805 0.110365555 0.06493798 0.09111658 -0.0657645 0.03269002 0.015455425
-0.08778863 0.06149386 -0.12165068 -0.07781322 -0.029753432 -0.05498317 0.12068644 -0.1019436
0.076649606 -0.1151195 0.10603416 -0.057938293 0.0001796484 -0.07146472 -0.07364154 -0.024471357
0.03704141 0.04453942 0.08052929 -0.08609292 0.026726156 -0.026179835 -0.041245 0.07871464
-0.049523175 -0.026197508 -0.058178782 0.082971975 -0.059515536 0.062687114 0.0987512 -0.07260127
0.07675029 -0.06176628 0.0046610236 0.021363348 0.12030949 -0.0529062 0.033147916 0.09630792
-0.016940966 0.11705512 0.11178318 0.07636662 0.10823126 0.03993319 0.020488292 0.03953366
-0.08671558 -0.05197814 -0.07071246 0.043172926 0.029875323 0.01850307 0.02421385 0.04185374
0.01288864 -0.03222251 0.06576134 -0.09271501 0.023924604 0.04994957 -0.06744626 0.09094752
00000000: 0094 3939 307a c4bd 5c00 7a3d 8c5f 553d
00000010: dc1b ef3d c064 283c e8d8 ebbd 5816 243d
00000020: b422 8d3d 40a1 2ebb c4a8 e03d 18c3 2a3d
00000030: d02f 4fbc ce20 993d 7260 fdbd 8608 c23d
00000040: f43a 84bd b623 d6bd 78aa ad3c 342e 74bd
00000050: bc58 593d c002 b6bd 9c10 14bd 8a4a 81bd
00000060: 661f cabd eae4 c5bd b4a1 523d 3492 143d
00000070: bca7 6bbd 0683 8bbd 5476 253d 50e7 e33c
00000080: c0f0 ce3c 5cf7 f03d 10f8 f03d aa2d d83d
00000090: 305f 4cbd a0bf 3f3c a04e 3ebd 8058 8abb
000000a0: c858 603d 30bb db3d b06d d6bd ce18 f2bd
000000b0: c085 a93c 5487 14bd 7493 c33d 72fe 8f3d
000000c0: c833 cc3c 02f1 ae3d dcd5 fa3d 76e9 e0bd
000000d0: 706f f8bc 4e70 94bd 14b3 353d 286a d6bd
000000e0: 7c1a 1b3d 58dd 91bd d464 aebd c85f bc3d
000000f0: 7c31 723d a001 c4bd 9671 89bd 3e38 ea3d
00000100: 3034 f03d 1803 8d3c 5ab1 aabd 54f1 703d
00000110: 26a7 83bd 5809 d8bc 4207 e0bd e4db 993d
00000120: 3a65 8d3d 4692 d4bd 6c04 cfbd 244c 213d
00000130: 0070 62b9 f49b b0bd f608 90bd e024 9c3c
00000140: a2ea 9a3d d897 dabc 689b bebc 20f3 373d
00000150: 28b8 51bd 0026 d63d 7e01 a03d 600a c93d
00000160: c4c9 5a3d be4b c0bd e05b dfbb f486 c2bd
00000170: 949a ebbd 9017 ccbd a82f 023d da48 d83d
00000180: 9e3c e53d 7275 dc3d 90b7 68bc f814 20bd
00000190: 4005 d33c 5a56 dfbd f8f8 c73c 3076 f8bd
000001a0: 8070 ad3d 8c8b c8bd 00cc 1eb9 c81f 193d
000001b0: 6836 50bd 487a e33c 0876 893d 9053 05bc
000001c0: a23f 9b3d 4c0e ff3d c01d 7a3d 58ac 3bbd
000001d0: 20e8 1e3d fe92 a6bd d81a 8b3d 10c2 2dbd
000001e0: 5824 ac3d ac68 62bd 40b6 6b3c 7077 eb3d
000001f0: 840a 0dbd a061 db3c 3ce7 6ebd c6cd a4bd
00000200: d864 68bd c831 f0bc 00be 68bc ae5d e63d
00000210: 42b2 c3bd 68df cabd f600 b53d 8045 53bb
00000220: d015 443c 9070 a03d 2c56 a73d 5412 9dbd
00000230: 00c9 87bd 64e7 473d d070 bb3c 2a14 8bbd
00000240: accf 74bd 84c0 26bd b64b b43d 7c37 7b3d
00000250: 1019 40bd 9809 84bd d025 c7bd 5c6e b23d
00000260: 90fe 32bc b8bc a33d 88f1 1b3d e84f a5bd
00000270: 10f8 8dbc ce48 983d c0c1 693b b4c5 18bd
00000280: 8c36 cf3d 904e f6bd 14bd 2bbd c897 903d
00000290: b467 093d 5cfb 623d aab5 edbd 00b2 d0bb
000002a0: 0adf e13d b05a fabc f0ff a13c f8bc eebd
000002b0: 50e4 cfbc 8a3f 95bd 3cce ae3d 3ce2 6c3d
000002c0: 1485 58bd 8278 d1bd b8ba 3f3d 007a 7fbb
000002d0: 2430 cf3d 846b 923d a8d3 e83c 968c 8b3d
000002e0: f0a5 e2bd f620 8e3d 5607 e23d 34fe 843d
000002f0: 549b ba3d 8aaf 86bd f8e5 053d c038 7d3c
00000300: 86ca b3bd fce0 7b3d fe23 f9bd 8a5c 9fbd
00000310: 78bd f3bc 0836 61bd 742a f73d cec7 d0bd
00000320: 78fa 9c3d c6c3 ebbd 7028 d93d b450 6dbd
00000330: 0060 3c39 185c 92bd 60d1 96bd 2878 c8bc
00000340: bcb8 173d f86e 363d 8aec a43d 7c51 b0bd
00000350: d0f0 da3c 1877 d6bc 84f0 28bd 2435 a13d
00000360: d0d8 4abd 289c d6bc e04c 6ebd 36ed a93d
00000370: 90c6 73bd 1a62 803d 123e ca3d faaf 94bd
00000380: 422f 9d3d a4fe 7cbd 80bb 983b 3002 af3c
00000390: d264 f63d 2cb4 58bd 1cc6 073d 163d c53d
000003a0: c8c7 8abc 98ba ef3d 94ee e43d 1a66 9c3d
000003b0: 5aa8 dd3d fc90 233d 10d7 a73c 0cee 213d
000003c0: f097 b1bd 08e7 54bd b2d1 90bd 18d6 303d
000003d0: 18bd f43c c093 973c 205c c63c d46e 2b3d
000003e0: e02a 533c c0fb 03bd e2ad 863d 5ee1 bdbd
000003f0: 88fd c33c ec97 4c3d 4421 8abd b242 ba3d

lstm.bias_ih_l0 f4 [256]
0.08616085 -0.11188455 -0.025148138 0.012237349 0.09660199 0.10531151 0.0491805 -0.09464261
0.03650995 0.11346672 0.087996624 0.15138666 0.121669896 0.1500282 0.06403856 0.013246854
-0.011140106 -0.0644441 0.07663348 -0.06639244 0.049357645 -0.039180014 -0.05335601 0.079067685
0.08324436 0.07739281 0.049956005 0.08820197 -0.0831274 0.071520194 0.063737705 -0.11943088
-0.037363414 -0.03856427 -0.13513005 0.026688715 -0.0004227808 0.043016125 -0.0355768 0.040809307
-0.06965451 0.0034218307 0.06423828 -0.027215883 0.0027884059 -0.080406606 0.059453476 -0.09619219
0.22590238 0.11983805 -0.0057901274 -0.09219428 0.04860153 0.15420312 0.008696321 0.02526452
0.10950701 0.11576296 0.059146248 0.07694331 0.1579912 0.13296874 0.09200501 0.00081182003
-0.045060337 0.016182259 0.071499676 -0.06380707 0.09865014 0.048080653 0.01601997 0.09207511
0.032680646 -0.066335246 -0.029346794 0.12218034 0.08594544 0.0724588 0.0352443 0.056305885
0.09862709 0.10160068 0.054800212 0.018334001 0.11507326 0.089244366 0.108324796 0.020812407
-0.06596403 -0.11815527 -0.04509574 0.037959933 -0.1118402 -0.073225334 -0.09278385 -0.04768595
0.11054413 -0.04104407 -0.09306565 0.12468961 0.069598824 -0.11551492 0.017519549 0.08814672
-0.08847201 -0.091082126 -0.021904275 0.009407699 0.0049913377 -0.043523014 0.051099494 0.08265999
0.014603838 -0.07662676 0.10755159 -0.110125914 0.057941988 0.047549874 -0.0155213475 0.009640127
-0.019518644 0.0639929 0.023589939 0.07456492 -0.0073080063 0.11222117 0.0053702444 -0.08185655
0.05106431 -0.043577813 0.030106239 0.085904114 0.059456002 0.02318255 -0.13564703 0.021071266
0.014080994 -0.14715226 0.069875956 0.114664964 -0.13156188 -0.116863824 -0.12232924 -0.107409194
-0.07060456 -0.04228689 -0.0070052077 0.015346466 0.101908 -0.025646215 -0.07944142 -0.07891328
0.08579254 0.005948245 -0.011145161 0.020698601 0.0011299683 0.03807144 0.03409779 -0.035766296
-0.16783099 0.09556455 -0.1571936 0.038383454 0.046448033 -0.09358899 -0.09415325 0.14459255
0.08480892 -0.0004988821 -0.046446003 0.08671388 -0.088365 -0.21208014 0.10503242 0.08869334
-0.12074754 0.03515916 0.014313532 0.03715454 -0.14813879 0.021361377 -0.07452106 0.058890834
-0.014021943 0.1686559 0.025577085 -0.1621873 -0.05611204 -0.0030779913 0.01876766 -0.1545327
-0.06457168 -0.0041153817 0.097391464 0.098410904 0.1053713 0.08528206 -0.03350477 0.002489786
0.14868204 -0.06928052 0.1000654 0.078999825 -0.022141263 -0.007937281 -0.08587075 -0.019064115
0.05356416 0.10957082 -0.056029003 -0.047382597 0.09219462 0.15331583 0.15273747 -0.050638296
0.08413331 0.12595719 -0.0980999 0.021512872 0.061981555 -0.043126494 0.20088196 0.051820967
-0.06175978 0.040024314 -0.12826005 0.08752238 0.0075334734 0.1898162 0.10424959 0.13163605
-0.031044643 0.11578063 0.02063987 0.047922254 -0.102315485 0.010527916 0.019191181 0.07092236
0.11672044 0.041672494 0.06120263 -0.056799732 0.06531818 0.12578672 0.04050119 0.108631656
-0.026978556 -0.057647247 0.09057434 0.071522504 -0.0800617 -0.04703337 -0.111008875 0.09934833
00000000: 1a75 b03d ba23 e5bd 7803 cebc 297f 483c
00000010: 44d7 c53d 90ad d73d 7e71 493d fcd3 c1bd
00000020: 758b 153d 3d61 e83d 9337 b43d 1b05 1b3e
00000030: 112e f93d fea0 193e a626 833d 5509 593c
00000040: fe84 36bc 45fb 83bd 04f2 9c3d c2f8 87bd
00000050: 3e2b 4a3d 397b 20bd d58b 5abd 3dee a13d
00000060: 057c aa3d 1f80 9e3d ab9e 4c3d 3ca3 b43d
00000070: b33e aabd 2e79 923d ea88 823d 2d98 f4bd
00000080: 610a 19bd 91f5 1dbd 885f 0abe 4ba2 da3c
00000090: aea8 ddb9 ad31 303d fbb8 11bd a927 273d
000000a0: 06a7 8ebd cb40 603b 5c8f 833d d8f3 debc
000000b0: b0bd 363b 38ac a4bd 7d85 733d 6900 c5bd
000000c0: f452 673e a76d f53d 1cbb bdbb 5bd0 bcbd
000000d0: 6612 473d 6ce7 1d3e 047b 0e3c 8af7 ce3c
000000e0: 3645 e03d 2115 ed3d 5643 723d 7494 9d3d
000000f0: 72c8 213e f528 083e 1f6d bc3d 52d0 543a
00000100: 3091 38bd a890 843c 6c6e 923d 48ad 82bd
00000110: 1609 ca3d 38f0 443d 503c 833c e091 bc3d
00000120: 24dc 053d c6da 87bd b068 f0bc b039 fa3d
00000130: 2a04 b03d 4865 943d 545c 103d 00a1 663d
00000140: 00fd c93d 0414 d03d 3076 603d 3031 963c
00000150: 88ab eb3d c0c5 b63d 64d9 dd3d c87e aa3c
00000160: 2618 87bd 64fb f1bd 50b6 38bd e07b 1b3d
00000170: 7a0c e5bd 2af7 95bd 7605 bebd 5852 43bd
00000180: f664 e23d d41d 28bd 3499 bebd 445d ff3d
00000190: d489 8e3d 1693 ecbd 2885 8f3c 4486 b43d
000001a0: d030 b5bd 4489 babd 9870 b3bc c022 1a3c
000001b0: 608e a33b 3045 32bd b44d 513d a449 a93d
000001c0: f044 6f3c 7eee 9cbd 0244 dc3d b289 e1bd
000001d0: 9454 6d3d a8c3 423d 404d 7ebc a0f1 1d3c
000001e0: 90e5 9fbc b60e 833d b03f c13c 7eb5 983d
000001f0: 0078 efbb 36d4 e53d e0f8 af3b 68a4 a7bd
00000200: cf28 513d a67e 32bd 5ca1 f63c 7fee af3d
00000210: 2388 733d 55e9 bd3c 0ee7 0abe a69d ac3c
00000220: f8b3 663c 15af 16be 201b 8f3d 77d5 ea3d
00000230: 28b8 06be 4d56 efbd c187 fabd 5af9 dbbd
00000240: 2099 90bd 0535 2dbd f18b e5bb be6f 7b3c
00000250: 24b5 d03d 0318 d2bc 2fb2 a2bd 499d a1bd
00000260: 00b4 af3d 7fe9 c23b 329a 36bc 1d90 a93c
00000270: 721b 943a ccf0 1b3d 20aa 0b3d ae7f 12bd
00000280: e3db 2bbe 59b7 c33d 5cf7 20be f837 1d3d
00000290: 4b40 3e3d 96ab bfbd 6bd3 c0bd 1210 143e
000002a0: 4db0 ad3d 69c7 02ba 2a3e 3ebd 0c97 b13d
000002b0: b6f8 b4bd 892b 59be 3d1b d73d dba4 b53d
000002c0: 7c4a f7bd 0d03 103d 4e83 6a3c 5c2f 183d
000002d0: b2b1 17be 0efe ae3c 7f9e 98bd 8437 713d
000002e0: 4bbc 65bc 22b4 2c3e 0987 d13c 6d14 26be
000002f0: bdd5 65bd 20b8 49bb a3be 993c d23d 1ebe
00000300: 283e 84bd 53da 86bb 2d75 c73d a88b c93d
00000310: e8cc d73d 5ca8 ae3d 4c3c 09bd ad2b 233b
00000320: 1b40 183e f2e2 8dbd 17ef cc3d a9ca a13d
00000330: 9861 b5bc 5f0b 02bc 01dd afbd 592c 9cbc
00000340: 1866 5b3d ab66 e03d ab7e 65bd 4114 42bd
00000350: 88d0 bc3d d3fe 1c3e 3667 1c3e 1a6a 4fbd
00000360: 164e ac3d ecfa 003e 9ae8 c8bd c33b b03c
00000370: 5fe0 7d3d 68a5 30bd 00b4 4d3e 3942 543d
00000380: d3f7 7cbd 89f0 233d 9a56 03be ef3e b33d
00000390: 5bdb f63b 2e5f 423e cf80 d53d 9acb 063e
000003a0: 5651 febc 651e ed3d f214 a93c 204a 443d
000003b0: c88a d1bd 487d 2c3c d336 9d3c be3f 913d
000003c0: 200b ef3d c7b0 2a3d 9caf 7a3d d6a6 68bd
000003d0: 8ac5 853d 3cce 003e 93e4 253d 467a de3d
000003e0: 2202 ddbc 851f 6cbd 0a7f b93d 647a 923d
000003f0: 63f7 a3bd 10a6 40bd 9f58 e3bd 2377 cb3d

lstm.bias_hh_l0 f4 [256]
0.07226239 0.023157002 -0.020569202 0.1284041 -0.12863259 -0.09043151 0.11642388 -0.08418074
-0.068173245 -0.048751455 0.13755134 0.050565038 0.12175312 -0.021722894 -0.050775353 -0.04694723
-0.05464504 -0.091834836 0.096900016 0.035672322 0.078285046 -0.0067677298 -0.075106464 0.09423097
0.071051575 0.03762722 -0.09819959 -0.018363152 -0.018486619 -0.010944814 0.11191635 -0.16768302
0.016105501 0.040730722 -0.02178152 -0.008985812 -0.0035197749 0.10983647 0.024630606 -0.08241835
-0.05854707 -0.055527862 -0.064673916 0.062376667 -0.063146666 0.09141913 -0.1169957 0.10120899
0.2738828 -0.08567369 -0.07256818 -0.08080711 -0.045567244 -0.048482068 -0.06378803 0.14860936
0.08771924 -0.05794145 0.027623171 0.16046198 -0.0861144 -0.02477542 -0.061240416 -0.07423139
-0.058084443 0.07505335 0.120387495 0.05697824 0.09213492 -0.015401408 -0.069253415 0.052901253
0.017351791 -0.11170201 0.04753861 0.06878242 -0.069803685 -0.11593485 -0.07693392 0.026169136
0.11412272 -0.10028571 -0.12362395 0.04125756 0.1161727 -0.0153656155 0.02884604 0.0854134
0.07772218 -0.04856704 -0.054820582 0.10151291 0.07153627 -0.063694865 -0.12186664 0.047405154
-0.08829297 -0.12246525 0.03844051 0.026772603 -0.091634125 0.08783424 -0.081112236 -0.06403214
-0.08319308 0.02751951 0.07129572 -0.11035021 -0.02651392 -0.06785783 0.118416145 0.051442757
-0.060244992 -0.03639099 0.05723968 0.05698383 0.10298805 0.034309357 0.111542016 0.09108077
0.027836561 -0.050659433 -0.05881363 0.058438882 0.07979569 -0.038429126 0.11323795 -0.042781502
-0.10030806 -0.112929076 0.043227892 0.021308944 0.06452825 -0.0730668 -0.054890737 -0.055649925
0.07208023 -0.053525317 -0.06669307 0.08187518 -0.03925842 -0.06382726 0.008980929 -0.013946155
-0.13261071 0.077302486 -0.1019815 -0.0002312905 -0.094250455 -0.098620206 -0.014468 -0.09090041
-0.045386214 -0.10087922 0.111554645 -0.023032289 -0.100349 -0.06771925 0.026380248 -0.086323984
-0.123421706 0.02770034 0.049435005 -0.15221973 -0.05725753 -0.10152685 -0.042546045 0.0420073
0.124024175 0.059841685 -0.050938718 -0.098095775 -0.08600357 -0.09068867 0.11800917 -0.09640194
-0.07513963 -0.078527436 0.04157676 -0.044443518 -0.05930681 -0.017740086 0.1092748 -0.06682108
0.0975038 0.11478257 0.032346953 -0.15776758 -0.063728 0.066938534 -0.011510491 0.07210867
0.002021908 -0.066896126 -0.018914131 0.0808391 -0.014304512 -0.05835558 -0.012782373 -0.14419897
-0.05234254 0.108439334 -0.06436401 -0.049689353 -0.026525315 0.04693473 -0.15124813 0.17203845
0.11470794 -0.0002282783 0.12054995 0.13354899 -0.06534527 -0.078235105 0.051328227 0.070404835
0.122999795 -0.09782496 -0.02447512 0.02998668 0.09186868 -0.07048456 0.078216545 -0.087215595
0.00916721 0.06152107 0.026794322 0.08765098 0.07492308 -0.03838187 0.04794505 -0.07220666
-0.16432549 -0.0013209452 0.025802393 0.13582751 -0.066015616 0.106286526 -0.10547363 -0.07874063
0.15573019 0.1445549 -0.10805402 -0.14955735 0.014590286 0.07463806 0.08698772 0.055375062
-0.10117162 -0.11565562 -0.003362988 0.13198566 -0.049446866 0.0063015656 -0.018555628 -0.11579654
00000000: 4efe 933d c1b3 bd3c be80 a8bc 5d7c 033e
00000010: 43b8 03be 2834 b9bd a56f ee3d f466 acbd
00000020: 6a9e 8bbd 9baf 47bd 42da 0c3e 491d 4f3d
00000030: b359 f93d 36f4 b1bc d1f9 4fbd bd4b 40bd
00000040: 7ad3 5fbd e713 bcbd 8473 c63d 241d 123d
00000050: e953 a03d d5c3 ddbb 6bd1 99bd 2bfc c03d
00000060: 7d83 913d 001f 1a3d de1c c9bd 526e 96bc
00000070: 4071 97bc e151 33bc 6634 e53d 19b5 2bbe
00000080: afef 833c 42d5 263d 296f b2bc 3a39 13bc
00000090: 06ac 66bb f1f1 e03d 20c6 c93c f4ca a8bd
000000a0: 0dcf 6fbd 2f71 63bd c273 84bd ad7e 7f3d
000000b0: 0a53 81bd f439 bb3d 719b efbd a946 cf3d
000000c0: 5e3a 8c3e b075 afbd a09e 94bd 337e a5bd
000000d0: b8a4 3abd 2295 46bd 4ca3 82bd 0d2d 183e
000000e0: 25a6 b33d 0454 6dbd fd49 e23c 2550 243e
000000f0: bf5c b0bd d2f5 cabc 3bd7 7abd a106 98bd
00000100: f4e9 6dbd 92b5 993d b88d f63d 0462 693d
00000110: 3cb1 bc3d 3056 7cbc bcd4 8dbd fcae 583d
00000120: 5825 8e3c 06c4 e4bd d8b7 423d ccdd 8c3d
00000130: 3cf5 8ebd 406f edbd 888f 9dbd a860 d63c
00000140: 2cb9 e93d 9862 cdbd 8e2e fdbd b0fd 283d
00000150: f4eb ed3d 10c0 7bbc 884e ec3c 38ed ae3d
00000160: ce2c 9f3d 3cee 46bd 8c8b 60bd 00e6 cf3d
00000170: 9c81 923d 7472 82bd 3895 f9bd e82b 423d
00000180: f2d2 b4bd 10cf fabd cc73 1d3d 3852 db3c
00000190: acaa bbbd 70e2 b33d 2c1e a6bd 4823 83bd
000001a0: 2261 aabd 9870 e13c 7e03 923d 4aff e1bd
000001b0: b833 d9bc 0cf9 8abd 2a84 f23d a4b5 523d
000001c0: 74c3 76bd b80e 15bd 2874 6a3d e067 693d
000001d0: 66eb d23d f887 0c3d 2470 e43d 8e88 ba3d
000001e0: 8009 e43c 4480 4fbd 90e6 70bd 9c5d 6f3d
000001f0: ec6b a33d dc67 1dbd 4ce9 e73d a83b 2fbd
00000200: 506e cdbd 5c47 e7bd bb0f 313d 1890 ae3c
00000210: 6327 843d 0ca4 95bd 1cd5 60bd 2df1 63bd
00000220: cd9e 933d 5d3d 5bbd 6096 88bd 2dae a73d
00000230: 70cd 20bd deb7 82bd bf24 133c 6a7e 64bc
00000240: 1acb 07be c450 9e3d addb d0bd 9286 72b9
00000250: 6206 c1bd 64f9 c9bd 310b 6dbc ff29 babd
00000260: e5e6 39bd c499 cebd c376 e43d 36ae bcbc
00000270: c783 cdbd 64b0 8abd 641b d83c a1ca b0bd
00000280: 85c4 fcbd d3eb e23c 5c7c 4a3d 7ddf 1bbe
00000290: df86 6abd 4fed cfbd c344 2ebd d90f 2c3d
000002a0: 6300 fe3d 8e1c 753d 1ea5 50bd 70e6 c8bd
000002b0: a422 b0bd fbba b9bd cbae f13d 616e c5bd
000002c0: cee2 99bd fed2 a0bd 654c 2a3d 680a 36bd
000002d0: b3eb 72bd a853 91bc 77cb df3d 7ed9 88bd
000002e0: 13b0 c73d 2013 eb3d 3d7e 043d d38d 21be
000002f0: d383 82bd 1217 893d 8096 3cbc b6ad 933d
00000300: fd81 043b d600 89bd cff1 9abc f88e a53d
00000310: 795d 6abc 4306 6fbd 296d 51bc e5a8 13be
00000320: 2265 56bd 7115 de3d 47d1 83bd 1087 4bbd
00000330: 9e4b d9bc a23e 403d cae0 1abe d92a 303e
00000340: ffeb ea3d fd5d 6fb9 e4e2 f63d 11c1 083e
00000350: bed3 85bd ba39 a0bd 8c3d 523d 6930 903d
00000360: 51e7 fb3d 7458 c8bd 0c80 c8bc a0a6 f53c
00000370: a625 bc3d 365a 90bd ff2f a03d 179e b2bd
00000380: 1132 163c 84fd 7b3d c47f db3c 5b82 b33d
00000390: 4671 993d 4f36 1dbd 0762 443d 16e1 93bd
000003a0: f144 28be 9123 adba 8a5f d33c 5e16 0b3e
000003b0: 3233 87bd c0ac d93d 8f02 d8bd c442 a1bd
000003c0: bc77 1f3e 3306 143e 6d4b ddbd 9025 19be
000003d0: 180c 6f3c d7db 983d 9e26 b23d f6d0 623d
000003e0: 1133 cfbd dbdc ecbd 9365 5cbb 4027 073e
000003f0: cc88 4abd 5d7d ce3b f901 98bc bd26 edbd

linear.weight f4 [32, 64]
0.1196257 0.1917471 -0.09597498 0.020614145 -0.17583476 -0.13226464 0.24152729 0.12498883
-0.0743498 -0.1813506 -0.009578664 0.04454992 0.08543343 -0.08131488 0.129207 0.13389437
0.03565566 -0.014736606 -0.21457678 0.07354964 0.07149463 -0.032556247 0.15143138 -0.005786061
-0.1156795 0.022305245 -0.012272649 0.0803843 -0.08502774 0.04386942 -0.07553416 -0.2528718
0.12226961 -0.091868386 -0.20241673 -0.011023053 -0.008224138 0.039819047 0.047655977 0.062015418
-0.14276434 -0.016193751 -0.012009506 -0.23316975 0.15200599 0.113748126 0.12444187 0.10397997
0.22624755 -0.05808476 0.065080106 -0.11876168 -0.15150651 0.08302257 0.18898338 -0.06216079
-0.097985186 0.12309935 0.1629144 -0.111789055 0.031109443 -0.14129438 -0.1075389 -0.009801303
-0.06646256 0.0057911943 -0.020258814 0.04449596 -0.060471863 -0.022877516 0.018278413 -0.18103863
-0.030115439 0.10733405 0.06587374 -0.22235557 -0.19100946 0.1255891 -0.020268625 -0.17666486
-0.09677845 -0.10413231 0.11029773 -0.17094584 -0.09691061 0.0064203027 0.0025815682 -0.11148027
0.06281744 0.011885773 0.0029391353 -0.007285317 0.08479556 0.14629555 -0.0037242796 0.22385538
0.039267216 0.032643065 0.045816265 -0.028937064 0.08365277 0.04152569 0.06445469 -0.013505806
0.23623396 -0.017713191 0.059670124 0.20527957 -0.015156014 0.025601847 -0.04735573 -0.037283715
-0.17120044 -0.13770275 0.017508766 0.09501814 0.013120686 -0.10282055 -0.0052737202 0.12468245
-0.06982177 -0.14121562 -0.13841332 0.14575826 0.05624989 -0.028244598 0.1995648 -0.067465
-0.039759763 -0.034086075 -0.02842375 0.03199315 -0.117312014 -0.037835944 0.12462178 0.16749772
-0.16143002 -0.05018792 0.18625613 0.15409535 0.21614778 -0.025692215 0.060495466 0.039804105
-0.041453917 0.070306726 -0.029544616 0.0047787144 0.12403999 0.13482891 0.116692826 0.07534899
-0.21477255 0.07711114 0.08475826 0.020139558 0.068906546 -0.15828447 -0.13963833 -0.104093276
-0.003636253 -0.19064419 -0.036243923 0.090112075 -0.17096767 0.163446 0.086645484 0.22810042
-0.3448323 0.16841705 0.21184084 -0.058761273 0.082688555 0.1743406 0.020357616 0.009494894
0.2581181 0.172465 0.030806404 -0.19023262 -0.012653337 0.20659298 0.15589409 0.013666576
-0.05590474 0.15230879 -0.04196609 -0.15311839 0.07210648 -0.023654288 -0.08561305 0.15956426
0.067363255 -0.074197926 0.16558893 -0.012348168 0.08976694 -0.052332927 -0.21220571 0.036085904
0.13195488 -0.045558855 0.07454925 -0.20294058 -0.16399893 0.2234453 0.017967138 -0.08377421
-0.14778489 -0.021902854 0.04603338 -0.15239143 -0.07714154 0.02934593 -0.16704357 -0.07401975
0.22986148 0.02391383 -0.13879335 -0.030681303 0.08207777 -0.06207554 0.029336698 0.25914145
-0.08754694 -0.033874866 -0.018602941 0.09655331 0.03454409 0.049421083 -0.044852816 -0.082946904
0.2119463 -0.047350906 0.04401995 0.15009493 0.007855536 -0.038985692 -0.0026849909 0.056639038
-0.19192424 -0.08903174 0.030486356 0.17426212 0.07461061 -0.15197852 0.04655331 0.17309693
-0.05441422 -0.08188007 -0.00291587 0.14117156 -0.12475868 -0.021709753 0.20364596 -0.21495527
00000000: 52fe f43d 5a59 443e 888e c4bd ffde a83c
00000010: 070e 34be 6270 07be ee52 773e 25fa ff3d
00000020: b544 98bd f9b3 39be d4ef 1cbc fa79 363d
00000030: b9f7 ae3d 6a88 a6bd d74e 043e 9b1b 093e
00000040: ab0b 123d ce71 71bc 04ba 5bbe 32a1 963d
00000050: c76b 923d b359 05bd d410 1b3e ff98 bdbb
00000060: 60e9 ecbd 7db9 b63c 3913 49bc 86a0 a43d
00000070: 0623 aebd 6cb0 333d a7b1 9abd 6a78 81be
00000080: 7d68 fa3d 7e25 bcbd 5546 4fbe 099a 34bc
00000090: 89be 06bc 4c19 233d ea32 433d e103 7e3d
000000a0: d130 12be c2a8 84bc 85c3 44bc 0dc4 6ebe
000000b0: 75a7 1b3e c7f4 e83d 61db fe3d 73f3 d43d
000000c0: 70ad 673e 49ea 6dbd b848 853d 5339 f3bd
000000d0: 8624 1bbe bd07 aa3d dc84 413e 509c 7ebd
000000e0: 75ac c8bd 831b fc3d 08d3 263e a9f1 e4bd
000000f0: 3bd9 fe3c 79af 10be 5b3d dcbd a595 20bc
00000100: 861d 88bd 0fc4 bd3b d0f5 a5bc 6541 363d
00000110: 58b1 77bd a169 bbbc 9cbc 953c 3162 39be
00000120: a7b4 f6bc f4d1 db3d d0e8 863d 2eb1 63be
00000130: fc97 43be 6e9a 003e 630a a6bc a2e7 34be
00000140: c833 c6bd 5243 d5bd c7e3 e13d 6d0c 2fbe
00000150: 1279 c6bd 6761 d23b 872f 293b c54f e4bd
00000160: 6ea6 803d 8cbc 423c 829e 403b abb9 eebb
00000170: 4ba9 ad3d 80ce 153e 0b13 74bb 583a 653e
00000180: a9d6 203d bcb4 053d d6a9 3b3d 6c0d edbc
00000190: 2552 ab3d d816 2a3d d200 843d 7547 5dbc
000001a0: 51e7 713e 411b 91bc a968 743d cf34 523e
000001b0: ee50 78bc f7ba d13c 15f8 41bd cfb6 18bd
000001c0: 2b4f 2fbe f301 0dbe 8b6e 8f3c df98 c23d
000001d0: 25f8 563c 9593 d2bd 2ccf acbb 8359 ff3d
000001e0: b7fe 8ebd d49a 10be 39bc 0dbe a741 153e
000001f0: 4966 663d 3761 e7bc b75a 4c3e 172b 8abd
00000200: 22db 22bd d79d 0bbd edd8 e8bc 400b 033d
00000210: 4841 f0bd ddf9 1abd b439 ff3d 8684 2b3e
00000220: e94d 25be d991 4dbd edb9 3e3e 2ccb 1d3e
00000230: d855 5d3e 7b78 d2bc 18ca 773d a109 233d
00000240: 95cb 29bd f9fc 8f3d 8d07 f2bc c396 9c3b
00000250: ae08 fe3d 9710 0a3e a6fc ee3d 9250 9a3d
00000260: 56ed 5bbe 72ec 9d3d bd95 ad3d b7fb a43c
00000270: e01e 8d3d 5315 22be 5afd 0ebe db2e d5bd
00000280: 344e 6ebb 3b38 43be 8274 14bd ae8c b83d
00000290: 2612 2fbe 635e 273e 3073 b13d 2893 693e
000002a0: dc8d b0be 8575 2c3e ceec 583e a9af 70bd
000002b0: 9e58 a93d 5886 323e 04c5 a63c 7990 1b3c
000002c0: 0e28 843e aa9a 303e b65d fc3c 57cc 42be
000002d0: f14f 4fbc 1c8d 533e b3a2 1f3e c6e9 5f3c
000002e0: 5efc 64bd d6f6 1b3e a3e4 2bbd 11cb 1cbe
000002f0: 90ac 933d a3c6 c1bc e555 afbd d064 233e
00000300: bff5 893d 15f5 97bd 2590 293e f84f 4abc
00000310: bbd7 b73d 0d5b 56bd 744c 59be d0ce 133d
00000320: 2e1f 073e ec9b 3abd 47ad 983d a8cf 4fbe
00000330: 56ef 27be d8ce 643e d22f 933c d091 abbd
00000340: ec54 17be 9d6d b3bc 7f8d 3c3d 800c 1cbe
00000350: 62fc 9dbd e066 f03c 780d 2bbe ab97 97bd
00000360: cf60 6b3e f0e6 c33c d81f 0ebe 5b57 fbbc
00000370: 6418 a83d ec42 7ebd 8453 f03c 30ae 843e
00000380: cf4b b3bd 5fc0 0abd 3265 98bc bebd c53d
00000390: 1b7e 0d3d c36d 4a3d 96b7 37bd 11e0 a9bd
000003a0: 7308 593e 06f3 41bd 434e 343d 7cb2 193e
000003b0: 82b4 003c 76af 1fbd acf6 2fbb 56fe 673d
000003c0: ca87 44be 4656 b6bd 86be f93c c571 323e
000003d0: 73cd 983d 42a0 1bbe afae 3e3d 5240 313e
000003e0: 72e1 5ebd bdb0 a7bd 2e18 3fbb 478f 103e
000003f0: 7b81 ffbd a7d8 b1bc 9188 503e 3c1d 5cbe

linear.bias f4 [32]
-0.023715883 0.14234029 0.017240398 -0.040561687 -0.021126954 -0.07667318 -0.11998416 -0.056310426
-0.06171134 0.06626862 -0.037294194 0.027690131 0.07379688 0.10966357 0.0251571 -0.03870914
0.08992385 0.091224 -0.08136085 0.1043002 -0.059309892 0.04609277 -0.019823309 0.08715847
-0.0140224295 0.08227123 -0.06746876 -0.08418531 0.06433272 0.03888268 -0.051386595 0.03533282
00000000: d047 c2bc a7c1 113e bc3b 8d3c 0324 26bd
00000010: 6f12 adbc d406 9dbd 41ba f5bd c3a5 66bd
00000020: 08c5 7cbd d8b7 873d ccc1 18bd 6ad6 e23c
00000030: d222 973d 4b97 e03d 4316 ce3c 7a8d 1ebd
00000040: ff29 b83d a6d3 ba3d 84a0 a6bd 589b d53d
00000050: eeee 72bd c6cb 3c3d 7e64 a2bc 2480 b23d
00000060: 55be 65bc d27d a83d 102d 8abd 5969 acbd
00000070: e0c0 833d 7243 1f3d c07a 52bd 26b9 103d

linear1.weight f4 [1, 32]
-0.1319112 0.22385678 -0.11153566 0.20643143 0.15829112 -0.24039339 -0.16417417 -0.23623194
0.24205083 -0.2328779 0.14554952 0.17120273 -0.18360361 0.17299028 -0.18267302 0.18551445
-0.1652595 -0.177991 -0.14916493 0.12083285 0.21800785 0.16317713 -0.25604087 -0.12420225
-0.12674078 -0.14981596 -0.16236505 -0.1977182 -0.08123287 0.1985874 -0.13785574 0.13250211
00000000: bb13 07be b63a 653e cf6c e4bd c362 533e
00000010: 1117 223e af29 76be 461d 28be c9e6 71be
00000020: 2cdc 773e 8b77 6ebe ef0a 153e c54f 2f3e
00000030: 9602 3cbe 5d24 313e a30e 3bbe 80f7 3d3e
00000040: c939 29be 4643 36be b1be 18be 3777 f73d
00000050: 733d 5f3e e817 273e ca17 83be c05d febd
00000060: 56c8 01be 5b69 19be 0643 26be a476 4abe
00000070: 6b5d a6bd 7f5a 4b3e 0e2a 0dbe a2ae 073e

exp_avg f4 [256, 26]
-3.1110226e-06 -1.9970059e-05 -3.9422634e-06 -3.2271175e-05 2.4773415e-05 -8.10657e-05 -4.1546766e-05 -4.0329698e-05
-1.7457061e-05 3.6079422e-05 -1.1529313e-05 -3.8651524e-05 5.3686637e-07 -8.322306e-06 8.5246675e-06 9.513827e-06
-6.9305192e-06 -0.00013156013 -7.940198e-06 -4.080905e-05 -9.027676e-06 -5.4990713e-05 -9.361247e-06 -2.2035587e-05
-1.01115265e-05 -4.2395768e-05 -0.00019869313 -0.00018706985 -0.00010305183 -0.000106166524 2.6820995e-05 -0.00025151917
-0.00021152923 -0.00010194828 -8.8468165e-05 0.00015330984 -0.000112027985 -0.00022210283 6.129315e-05 -0.00011935413
-1.0346136e-05 -1.923476e-05 -0.00021059721 -0.0005334154 -0.0002193049 -0.00045243587 -0.000221639 -0.00027489013
-0.00022245057 -0.00021234504 -0.00022251609 -0.0001744374 -4.4211854e-05 -0.00019504153 3.3132462e-06 -4.503998e-05
2.0422536e-05 2.4663732e-05 6.98622e-05 -1.7029695e-05 0.00013286994 6.0303308e-05 -6.152175e-05 4.543929e-05
6.314432e-05 -3.2138003e-05 3.9607303e-06 -1.2121237e-05 -4.328777e-05 2.4708283e-06 -4.5283967e-05 -0.00010039352
-4.8852035e-05 -0.00019533931 -4.9244525e-05 -5.632237e-05 -5.0569175e-05 -0.00010005685 -3.6365356e-05 -7.8436584e-05
8.674273e-06 -0.00012219332 8.642379e-05 -8.548531e-05 2.9771207e-05 -0.00014620964 0.00013120662 0.0001544164
-0.00013338758 4.2576925e-05 6.5798995e-05 -1.9177247e-05 1.7600145e-05 1.4583797e-05 -3.568376e-05 -6.2789974e-07
-3.595454e-05 -3.3480235e-05 -3.7178834e-05 -8.28614e-05 -3.8525166e-05 -8.9531815e-05 -3.8893053e-05 -4.69295e-05
-3.6381145e-05 -2.6936948e-05 -1.237344e-05 -2.3349105e-05 1.36973e-05 -7.791091e-05 -8.424244e-05 -4.0260868e-05
-3.6929672e-05 3.205662e-05 -1.2123079e-05 -6.041497e-05 -2.1712707e-05 4.4291846e-06 1.147036e-06 5.521138e-06
-4.2049283e-05 -0.00021597181 -4.329601e-05 -7.270256e-05 -4.3471573e-05 -4.146205e-05 -4.293622e-05 -1.0709393e-05
-4.3455457e-05 -5.7424226e-05 -3.7316317e-05 -2.4863819e-05 -2.7332694e-06 -1.6011829e-05 3.6234203e-06 1.4101833e-05
3.7778096e-05 -6.5169934e-06 2.7252798e-05 1.2453307e-05 7.0053707e-06 -0.00010304646 6.196635e-05 -6.976098e-05
-1.0097706e-05 -1.7700599e-05 -3.5608515e-05 3.3552566e-05 -3.639524e-05 -5.1923744e-05 -3.6661913e-05 -4.0202354e-05
-3.6529866e-05 -2.3260598e-05 -3.604985e-05 -5.6280746e-06 -9.222285e-05 -0.00010091575 6.421036e-05 5.9562335e-05
7.6977885e-05 4.490912e-05 7.056917e-05 1.3288097e-06 0.000106634936 1.7903618e-05 -2.7346201e-05 -0.00013121348
-4.8945894e-06 5.322347e-05 2.325819e-05 -1.7406239e-05 -9.155026e-05 -3.739902e-05 -9.397957e-05 -0.00014807619
-9.371225e-05 -6.0881506e-05 -9.386306e-05 -8.1213555e-05 -9.117505e-05 5.3751588e-05 1.7287e-05 0.00025460782
-0.000106173655 -3.0730555e-06 -0.0001422433 6.51815e-05 6.0847502e-05 0.0001234653 -5.475195e-05 -2.6427782e-05
-2.3918268e-05 9.8939236e-05 -5.0509505e-05 -3.9673057e-05 -4.2098516e-05 -3.6673064e-05 2.3883209e-05 0.0002349808
2.3312361e-05 -4.5484667e-06 2.5953213e-05 0.00013666226 2.4002991e-05 -6.625446e-05 2.3560458e-05 -2.2581062e-06
-0.00013109582 -0.00013792056 -2.4499566e-05 2.7298127e-05 1.3511614e-05 4.5865268e-06 -3.30065e-05 -1.8987224e-05
3.0957493e-05 4.03597e-06 -1.0924776e-05 -0.00010174454 7.5859454e-05 -3.6564314e-05 -1.7368448e-05 -2.689542e-05
-0.00013487012 -0.00021358329 -0.00013635858 -0.000143213 -0.00013915685 -0.00023140419 -0.0001372853 -2.724854e-05
-0.00013701124 -9.290351e-05 -0.00014014957 -0.00017902546 -1.5151728e-05 -0.00015228892 4.1107105e-05 -0.00014751714
-0.00010656851 -9.442958e-05 1.6886792e-05 0.00013578143 -5.282321e-05 -0.0002666545 9.587619e-05 -8.16338e-05
-3.795754e-05 -7.313011e-05 -0.00014763766 -0.00034544533 -0.00014933098 -0.00015905323 -0.00014978285 -0.00013610616
00000000: f6c6 50b6 6085 a7b7 c947 84b6 e95a 07b8
00000010: 81d0 cf37 d101 aab8 8042 2eb8 af27 29b8
00000020: c170 92b7 fc53 1738 066e 41b7 c21d 22b8
00000030: 2d1d 1035 08a0 0bb7 2b05 0f37 939d 1f37
00000040: b58c e8b6 67f3 09b9 e436 05b7 622a 2bb8
00000050: 9375 17b7 d4a5 66b8 400e 1db7 10d9 b8b7
00000060: ada4 29b7 1cd2 31b8 4858 50b9 2e28 44b9
00000070: 881d d8b8 b8a5 deb8 a6fd e037 55de 83b9
00000080: f2cd 5db9 11cd d5b8 fc87 b9b8 ccc1 2039
00000090: 91f0 eab8 46e4 68b9 828a 8038 c34d fab8
000000a0: 5194 2db7 555a a1b7 c2d3 5cb9 e7d4 0bba
000000b0: 36f5 65b9 ea34 edb9 c467 68b9 211f 90b9
000000c0: 9f41 69b9 f0a8 5eb9 3553 69b9 2fe9 36b9
000000d0: 1e70 39b8 1084 4cb9 2359 5e36 4fe9 3cb8
000000e0: 1051 ab37 f6e4 ce37 fc82 9238 feda 8eb7
000000f0: 0153 0b39 2fee 7c38 3d05 81b8 1196 3e38
00000100: 596c 8438 ebcb 06b8 6ae6 8436 515c 4bb7
00000110: e48f 35b8 82d0 2536 4aef 3db8 5c8a d2b8
00000120: 79e6 4cb8 ffd3 4cb9 e88b 4eb8 af3b 6cb8
00000130: 3d1a 54b8 9dd5 d1b8 0187 18b8 527e a4b8
00000140: b887 1137 0521 00b9 6b3e b538 9446 b3b8
00000150: 2ebd f937 da4f 19b9 8294 0939 d6ea 2139
00000160: f5dd 0bb9 a094 3238 91fd 8938 d3de a0b7
00000170: 06a4 9337 eeac 7437 25ab 15b8 f18c 28b5
00000180: e5cd 16b8 216d 0cb8 78f0 1bb8 e0c5 adb8
00000190: 1596 21b8 07c3 bbb8 1921 23b8 2bd6 44b8
000001a0: f597 18b8 a8f6 e1b7 8597 4fb7 d2dd c3b7
000001b0: 75cd 6537 1a64 a3b8 51ab b0b8 c7dd 28b8
000001c0: efe4 1ab8 8974 0638 3a64 4bb7 1566 7db8
000001d0: af23 b6b7 689e 9436 dbf3 9935 3742 b936
000001e0: 135e 30b8 7e76 62b9 bd98 35b8 e477 98b8
000001f0: 3f55 36b8 8ae7 2db8 6a16 34b8 7eac 33b7
00000200: f143 36b8 cbda 70b8 1784 1cb8 a592 d0b7
00000210: 366d 37b6 2451 86b7 e329 7336 e996 6c37
00000220: ec73 1e38 8cac dab6 f09c e437 8cee 5037
00000230: ad0f eb36 a61a d8b8 eef3 8138 a44c 92b8
00000240: 5169 29b7 bf7b 94b7 5a5a 15b8 cbba 0c38
00000250: 17a7 18b8 b2c8 59b8 6ec5 19b8 f39e 28b8
00000260: a537 19b8 c11f c3b7 3b34 17b8 cbd8 bcb6
00000270: c467 c1b8 bba2 d3b8 ada8 8638 92d2 7938
00000280: 306f a138 cd5c 3c38 89fe 9338 8e59 b235
00000290: 32a1 df38 ba2f 9637 8565 e5b7 5a96 09b9
000002a0: 343c a4b6 443c 5f38 951a c337 9d03 92b7
000002b0: acfe bfb8 e4dc 1cb8 e616 c5b8 e644 1bb9
000002c0: 6287 c4b8 055b 7fb8 59d8 c4b8 3251 aab8
000002d0: 3b35 bfb8 5473 6138 8d03 9137 e27c 8539
000002e0: 8ca9 deb8 b13a 4eb6 2527 15b9 0db2 8838
000002f0: 8236 7f38 7776 0139 75a5 65b8 3bb1 ddb7
00000300: 17a4 c8b7 997d cf38 2bda 53b8 9f66 26b8
00000310: f092 30b8 67d1 19b8 cd58 c837 2e65 7639
00000320: ea8e c337 089f 98b6 1ab6 d937 ff4c 0f39
00000330: 085a c937 18f2 8ab8 b3a3 c537 f889 17b6
00000340: c476 09b9 c59e 10b9 6b84 cdb7 48fe e437
00000350: f1af 6237 f7e5 9936 7670 0ab8 c146 9fb7
00000360: 5bd8 0138 b86c 8736 8e49 37b7 af5f d5b8
00000370: bc16 9f38 a25c 19b8 75b2 91b7 7a9d e1b7
00000380: ec6b 0db9 54f5 5fb9 7afb 0eb9 722b 16b9
00000390: a2ea 11b9 17a5 72b9 3ef4 0fb9 cb93 e4b7
000003a0: adaa 0fb9 31d5 c2b8 1df5 12b9 c8b8 3bb9
000003b0: 2d34 7eb7 bfaf 1fb9 6b6a 2c38 d5ae 1ab9
000003c0: 887d dfb8 7f08 c6b8 1ca8 8d37 8d60 0e39
000003d0: 7d8e 5db8 c3cd 8bb9 2311 c938 d032 abb8
000003e0: 9934 1fb8 6e5d 99b8 2fcf 1ab9 e31c b5b9
000003f0: bb95 1cb9 87c7 26b9 070f 1db9 b8b7 0eb9

exp_avg_sq f4 [256, 26]
1.7125258e-07 2.309658e-07 3.3180772e-08 2.0524526e-08 3.3219198e-08 2.6984003e-08 3.825162e-08 3.325008e-08
3.2199637e-08 2.3213556e-08 2.1188807e-08 1.1755905e-07 2.335292e-08 3.9611123e-08 1.22331425e-08 5.554361e-09
1.72685e-07 1.9692288e-07 1.73116e-07 1.3406874e-07 1.7295487e-07 1.4357504e-07 1.7361093e-07 1.8198271e-07
1.7440776e-07 1.9176612e-07 4.512468e-07 1.0878341e-06 2.0481917e-07 2.0125272e-07 2.4057877e-07 3.8286086e-07
5.426591e-07 3.4961e-07 3.757019e-07 2.7102445e-07 2.0214655e-07 4.7130607e-07 2.384458e-07 1.7305116e-07
1.03795855e-07 6.603252e-08 4.5683882e-07 1.3675995e-06 4.596665e-07 4.7414798e-07 4.6144618e-07 5.0531975e-07
4.640684e-07 5.78211e-07 4.6503266e-07 4.835728e-07 4.9183654e-07 7.106595e-07 1.5500346e-07 1.6350987e-07
1.5041297e-07 2.3270475e-07 2.9333057e-07 1.6738618e-07 2.2301171e-07 1.600652e-07 1.4698573e-07 3.267236e-07
1.0614868e-07 2.2462288e-07 1.4389975e-07 7.00241e-08 4.966575e-07 9.638997e-07 4.979238e-07 3.872696e-07
4.976422e-07 4.5677183e-07 4.9990933e-07 5.810319e-07 5.0212526e-07 5.8283473e-07 3.8577855e-07 5.926306e-07
1.4490594e-07 1.8286619e-07 2.5774128e-07 2.3931398e-07 1.5508044e-07 4.560241e-07 2.4106888e-07 3.0773273e-07
2.2914824e-07 3.627665e-07 1.8222188e-07 1.5301733e-07 1.3800889e-08 7.81178e-09 3.8325422e-07 2.0407958e-07
3.8479766e-07 3.3969243e-07 3.8778765e-07 4.9104796e-07 3.9238597e-07 6.0189853e-07 3.9425151e-07 4.3598965e-07
1.5555822e-08 1.5893399e-08 6.9291572e-09 4.231014e-09 4.2616004e-09 2.3973888e-08 4.1417703e-08 6.1903043e-09
2.106738e-08 4.4980943e-09 2.7759262e-09 1.4785394e-08 5.7209024e-09 7.751729e-09 9.753613e-09 5.8265623e-09
1.6406869e-08 1.2695877e-07 1.6885357e-08 3.4817145e-08 1.7040422e-08 2.1987729e-08 1.7059966e-08 1.5996584e-08
1.7218019e-08 2.0783585e-08 4.5007764e-07 4.902437e-07 1.0470066e-07 9.827277e-08 8.148152e-08 6.705821e-08
8.954405e-08 5.256769e-08 5.966835e-08 7.181319e-08 8.046353e-08 2.814643e-07 4.708246e-08 7.762726e-08
4.2356763e-08 3.3273555e-08 4.5039636e-07 2.876646e-07 4.5771228e-07 5.41026e-07 4.567589e-07 3.4775627e-07
4.5506536e-07 3.2119453e-07 4.5968244e-07 5.902165e-07 1.8461739e-07 1.1591087e-07 1.3025557e-07 2.2338905e-07
8.955499e-08 9.3675325e-08 6.591761e-08 5.534137e-08 6.2417485e-08 1.5319456e-07 1.9203985e-07 1.0582605e-07
5.174785e-08 7.3791476e-08 1.2600691e-07 8.607955e-08 1.8255315e-07 7.054269e-08 1.8351176e-07 1.7387082e-07
1.8446093e-07 2.1269314e-07 1.8307928e-07 1.2606773e-07 1.8097847e-07 9.512734e-08 7.419853e-07 1.0997006e-06
1.5114209e-07 2.1154942e-07 1.4040236e-07 1.6376522e-07 1.5766169e-07 1.3064837e-07 1.6923774e-07 1.631572e-07
1.7861086e-07 5.239486e-07 2.6660095e-07 2.2418944e-07 1.2546202e-07 6.2164794e-08 7.3957494e-07 4.606151e-07
7.4347275e-07 6.3621894e-07 7.4586865e-07 8.3067636e-07 7.468075e-07 7.5839233e-07 7.4720987e-07 7.302328e-07
1.1994623e-06 1.454442e-06 1.2687016e-07 1.284526e-07 1.1472239e-07 1.06876854e-07 1.5734938e-07 8.736479e-08
1.790913e-07 1.2675326e-07 1.3862675e-07 5.7230227e-07 1.1960533e-07 3.2365853e-07 1.5609344e-07 9.664462e-08
1.2015316e-06 8.529775e-07 1.2139358e-06 1.1452995e-06 1.2125009e-06 9.618293e-07 1.210206e-06 9.2943174e-07
1.218027e-06 1.3904843e-06 1.1329905e-06 1.0338377e-06 4.50773e-07 5.3840216e-07 3.9396167e-07 3.2192548e-07
3.6199637e-07 3.3944556e-07 3.270046e-07 4.3317368e-07 4.910273e-07 7.484249e-07 3.071618e-07 4.7440784e-07
5.1568236e-07 4.0453685e-07 1.1301421e-06 1.0630158e-06 1.1319664e-06 8.4449874e-07 1.1380004e-06 1.3959573e-06
00000000: 8de1 3734 65ff 7734 a582 0e33 e94d b032
00000010: e5ac 0e33 73ca e732 1a4a 2433 d9ce 0e33
00000020: e04b 0a33 2667 c732 ae02 b632 c574 fc33
00000030: 9d99 c832 e420 2a33 ee29 5232 add8 be31
00000040: 4b6b 3934 c071 5334 c4e1 3934 89f4 0f34
00000050: 79b5 3934 9b29 1a34 cf69 3a34 0767 4334
00000060: d744 3b34 45e8 4d34 e342 f234 b201 9235
00000070: 44ec 5b34 ed17 5834 e528 8134 ff8b cd34
00000080: 40ab 1135 08b2 bb34 13b4 c934 5181 9134
00000090: 9f0d 5934 d007 fd34 be03 8034 f1cf 3934
000000a0: 60e6 de33 c3cd 8d33 7343 f534 5c8e b735
000000b0: 15c8 f634 678e fe34 aebc f734 4fa5 0735
000000c0: 1325 f934 5b36 1b35 9aa9 f934 dfce 0135
000000d0: c006 0435 26c4 3e35 076f 2634 4091 2f34
000000e0: 3481 2134 65dd 7934 0c7b 9d34 c3ba 3334
000000f0: fe74 6f34 63de 2b34 21d3 1d34 8d68 af34
00000100: dbf3 e333 de2f 7134 dd82 1a34 2860 9633
00000110: 0b52 0535 575f 8135 10a9 0535 eee9 cf34
00000120: b695 0535 3e3a f534 8231 0635 35f8 1b35
00000130: c9c9 0635 1974 1c35 001d cf34 4415 1f35
00000140: 7197 1b34 e059 4434 b15f 8a34 107b 8034
00000150: 3084 2634 7ad3 f434 416c 8134 7736 a534
00000160: ca0b 7634 40c2 c234 c5a8 4334 154d 2434
00000170: f418 6d32 9234 0632 0fc2 cd34 f820 5b34
00000180: 3096 ce34 f95e b634 2131 d034 8fd0 0335
00000190: 1ea9 d234 2792 2135 84a9 d334 f611 ea34
000001a0: 9d9f 8532 f485 8832 8315 ee31 6560 9131
000001b0: 6f6d 9231 23ef cd32 3fe3 3133 7eb2 d431
000001c0: a9f7 b432 a88d 9a31 9cc2 3e31 da02 7e32
000001d0: 9791 c431 772c 0532 d890 2732 fc32 c831
000001e0: 16ef 8c32 2952 0834 4b0b 9132 db89 1533
000001f0: 4960 9232 87df bc32 438b 9232 dc68 8932
00000200: d3e6 9332 9687 b232 33a2 f134 4a99 0335
00000210: ccd7 e033 070a d333 f0fa ae33 a401 9033
00000220: 5d4b c033 c9c6 6133 0623 8033 b837 9a33
00000230: 4bcb ac33 291c 9734 b637 4a33 0ab4 a633
00000240: c1eb 3533 a9e8 0e33 01ce f134 5270 9a34
00000250: 7fbb f534 063b 1135 7738 f534 42b3 ba34
00000260: b54f f434 a470 ac34 46ca f634 5e6f 1e35
00000270: 3e3b 4634 adea f833 61dc 0b34 b7dc 6f34
00000280: 6051 c033 8e2a c933 978e 8d33 7bb0 6d33
00000290: 600a 8633 cd7d 2434 8333 4e34 7c42 e333
000002a0: 5d41 5e33 4b77 9e33 844c 0734 bcda b833
000002b0: d403 4434 417d 9733 540b 4534 3fb1 3a34
000002c0: 3c10 4634 a560 6434 7394 4434 3c5d 0734
000002d0: fc52 4234 cf48 cc33 d72c 4735 6d99 9335
000002e0: 9f49 2234 4326 6334 82c1 1634 71d7 2f34
000002f0: b749 2934 5a48 0c34 b7b7 3534 4f30 2f34
00000300: 2ec8 3f34 79a5 0c35 5b21 8f34 b9b8 7034
00000310: bdb6 0634 757f 8533 3487 4635 754a f734
00000320: 0f93 4735 a2c8 2a35 b437 4835 a5fb 5e35
00000330: 3878 4835 5394 4b35 df93 4835 3705 4435
00000340: 36fd a035 3f36 c335 ce39 0834 c8ec 0934
00000350: 4d5d f633 2c84 e533 def3 2834 4d9d bb33
00000360: 3e4c 4034 ac19 0834 6ed9 1434 50a0 1935
00000370: dd6c 0034 4ac3 ad34 a39a 2734 f18a cf33
00000380: 5044 a135 2bf8 6435 84ee a235 31b8 9935
00000390: 37bd a235 3418 8135 5d6e a235 107e 7935
000003a0: 177b a335 ada0 ba35 4211 9835 65c2 8a35
000003b0: c501 f234 b786 1035 ae81 d334 1ad5 ac34
000003c0: 6758 c234 0b3d b634 2c8f af34 f08e e834
000003d0: 24cf 0335 5ee7 4835 ffe7 a434 1eb2 fe34
000003e0: 6c6d 0a35 1f2f d934 63af 9735 f2ac 8e35
000003f0: 12ee 9735 83b1 6235 65bd 9835 ba5c bb35
